Android_Studio_Projects/app/src/main/assets/model.tflite (tflite, 772968 bytes, 10 tensors)

sequential_1/dense_5/BiasAdd/ReadVariableOp/resource f4 [512]
0	0xbce54aeb	-0.027989825
1	0xbdd06d72	-0.10177125
2	0xbe2f1c62	-0.17100671
3	0xbd22718c	-0.039659068
4	0xbd8764b0	-0.066110015
5	0xbccea9f1	-0.025227519
6	0xbd959c80	-0.07305241
7	0xbde5455c	-0.1119487
8	0xbe13fc98	-0.14451826
9	0xbddaec7c	-0.10689637
10	0xbdb72e54	-0.08944383
11	0xbdf2cc6b	-0.11855396
12	0xbddb4d2c	-0.10708079
13	0xbdd513f9	-0.104042
14	0xbcfb3154	-0.03066317
15	0xbd5980bc	-0.053101286
16	0xbdbd9e95	-0.09258763
17	0xbda4e3bf	-0.080512516
18	0xbda30304	-0.079595596
19	0xbde677ec	-0.11253342
20	0xbd7d779b	-0.061881643
21	0xbaa7004b	-0.0012741176
22	0xbd6a42ed	-0.05719273
23	0xbd43b718	-0.047782034
24	0xbdcc9c80	-0.099907875
25	0xbe0a7076	-0.13519463
26	0xbe0fcb1c	-0.14042324
27	0xbc532bed	-0.012888891
28	0xbe1aa49c	-0.15101856
29	0xbd7779e9	-0.060418997
30	0xbdb13b77	-0.0865392
31	0xbdbb74c1	-0.091531284
32	0xbd86a348	-0.06574112
33	0xbcb88f88	-0.022529379
34	0xbdb3a1b9	-0.087710805
35	0xbdee2b2a	-0.11629327
36	0xbe12e9bd	-0.14346977
37	0xbd5cfa9f	-0.05394995
38	0xbdd5b0ea	-0.10434134
39	0xbd94a28e	-0.07257567
40	0xbd50328a	-0.050829448
41	0xbd0e2750	-0.03470546
42	0xbcf61109	-0.03003742
43	0xbd8b0e77	-0.06789868
44	0xbdddad4b	-0.10824069
45	0xbdd86e53	-0.10567918
46	0xbd8f5922	-0.069994226
47	0xbd90b377	-0.0706548
48	0xbe010e0a	-0.12603012
49	0xbd9062a9	-0.07050068
50	0xbd62bb8a	-0.055354632
51	0x3bdbe8da	0.0067111077
52	0xbdd327f9	-0.103103586
53	0xbd6570aa	-0.056015648
54	0xbcd8d8a6	-0.026470494
55	0xbcc7cb01	-0.024388792
56	0xbe274889	-0.16336264
57	0xbcb3290a	-0.021870155
58	0xbd97e051	-0.07415832
59	0xbcd05a53	-0.025433695
60	0xbde01a0b	-0.10942467
61	0xbd395e37	-0.045255866
62	0xbd90928a	-0.070592
63	0xbe1bc6a5	-0.15212496
64	0xbd32b717	-0.04363164
65	0xbd816aea	-0.0631922
66	0xbae55e4b	-0.0017499415
67	0xbd25eaf0	-0.040507257
68	0xbda8d881	-0.0824442
69	0xbdafc41f	-0.08582329
70	0xbe1d6fdc	-0.15374702
71	0xbdae296b	-0.085039936
72	0xbde7e051	-0.11322082
73	0xbd5f9129	-0.054581795
74	0xbda70fc4	-0.08157304
75	0xbdd80a85	-0.105488814
76	0xbe0fb076	-0.14032158
77	0xbddc0f5c	-0.10745117
78	0xbd751e68	-0.05984345
79	0xbdc838ed	-0.09776483
80	0xbd675282	-0.05647517
81	0xbdf839de	-0.12120412
82	0xb9e5b8a9	-0.00043815866
83	0xbd5f9e29	-0.054594193
84	0xbd0be936	-0.034157954
85	0xbdeabb7e	-0.114615425
86	0xbd6f33fe	-0.058399193
87	0xbdf5ae6e	-0.119961604
88	0xbce6b905	-0.028164396
89	0xbd61e02c	-0.055145428
90	0xbd9a0ffd	-0.07522581
91	0xbbd9b70c	-0.0066441353
92	0xbde0ae22	-0.10970713
93	0xbe044e1b	-0.1292042
94	0xbd455803	-0.048179638
95	0xbdd1bcba	-0.10241075
96	0xbd99fbf5	-0.0751876
97	0xbdafc35b	-0.08582183
98	0xbd8c67de	-0.068557486
99	0xbde385a7	-0.111094765
100	0xbdc192bc	-0.094518155
101	0xbda6d8b4	-0.081468016
102	0xbdacadf9	-0.0843162
103	0xbe1fdde1	-0.15611984
104	0xbe0fbb01	-0.1403618
105	0xbe22d1e2	-0.15900376
106	0xbd81b165	-0.063326634
107	0xbca95203	-0.020668989
108	0xbdfb2338	-0.12262577
109	0xbe37938e	-0.17927381
110	0xbdc4e038	-0.09613079
111	0xbd615a3d	-0.0550177
112	0xbddaa762	-0.10676457
113	0xbcfaadf7	-0.030600531
114	0xbd90a9ae	-0.07063614
115	0xbcc96288	-0.024583116
116	0xbd0b5879	-0.03401992
117	0xbdf4f646	-0.119610354
118	0xbdf3c71c	-0.119032115
119	0xbdb6c93d	-0.08925102
120	0xbd30ee0d	-0.043195773
121	0xbd658871	-0.056038324
122	0xbda1ddf3	-0.079036616
123	0xbca65592	-0.020304475
124	0xbd585216	-0.05281266
125	0xbe07dd52	-0.13268021
126	0xbdd0465c	-0.1016967
127	0xbd8e4a65	-0.069477834
128	0xbda690ee	-0.08133112
129	0xbe0b0c0d	-0.13578816
130	0xbd55aff1	-0.052169744
131	0xbd5db5b1	-0.054128353
132	0xbc9402a8	-0.018067673
133	0xbdc436a2	-0.09580733
134	0xbc9d66fe	-0.01921415
135	0xbcc1d5ed	-0.023661578
136	0xbd5c97d7	-0.053855743
137	0xbd8f616c	-0.070010036
138	0xbde29642	-0.11063816
139	0xbd7f7406	-0.062366508
140	0x3b5ad537	0.0033391246
141	0xbd9e089a	-0.07716484
142	0xbda93de6	-0.08263759
143	0xbbc6ed6b	-0.006070783
144	0x3d3f3eda	0.0466908
145	0xbda3a28f	-0.0798999
146	0xbd810109	-0.062990256
147	0xbcbc38a3	-0.022976225
148	0xbce84375	-0.028352479
149	0xbcaa3f81	-0.020782234
150	0xbd64fc7c	-0.05590485
151	0xbdb6e28e	-0.089299306
152	0xbdb19690	-0.08671296
153	0xbdb42958	-0.08796948
154	0xbe11cd3f	-0.14238451
155	0xbd7b17e3	-0.061302077
156	0xbd23767d	-0.03990792
157	0xbd581b64	-0.052760497
158	0xbd3a7e29	-0.045530472
159	0xbd7eda3c	-0.062219843
160	0xbdfb0c6d	-0.122582294
161	0xbd24d463	-0.04024161
162	0xbda94b98	-0.082663715
163	0xbe0ae04d	-0.13562126
164	0xbe21810a	-0.15771881
165	0x3ca0c79a	0.019626427
166	0xbd9eb070	-0.077484965
167	0xbda99649	-0.08280618
168	0xbda0aa19	-0.078449436
169	0xbe0a9a70	-0.13535476
170	0xbe41d443	-0.18928628
171	0xbdcb9dac	-0.09942183
172	0xbdc209b2	-0.094745055
173	0xbd5a884e	-0.053352647
174	0xbd3a979d	-0.045554746
175	0xbd752362	-0.059848197
176	0xbdf9114f	-0.121615045
177	0xbe1848ad	-0.14871474
178	0xbdba0c37	-0.09084361
179	0xbe12a26f	-0.14319776
180	0xbdac69ea	-0.08418639
181	0xbd673fc8	-0.05645731
182	0xbcf6bb18	-0.03011851
183	0xbde99196	-0.114047214
184	0xbe2c0291	-0.16797854
185	0xbddd12c0	-0.10794592
186	0xbe0298eb	-0.12753646
187	0xbd8f4ab7	-0.069966726
188	0xbdec3aa5	-0.11534623
189	0xbded34c8	-0.11582333
190	0xbd8f3895	-0.06993214
191	0xbd33128d	-0.043718863
192	0xbdce034f	-0.10059225
193	0xbe0a516c	-0.13507622
194	0xbd9f3c6a	-0.07775195
195	0xbd4d1e6a	-0.050077833
196	0xbddb9670	-0.10722053
197	0xbd129631	-0.035787765
198	0xbdaa96e9	-0.08329565
199	0xbd6f5843	-0.058433782
200	0xbd80e2fe	-0.06293295
201	0xbda70375	-0.08154956
202	0xbd758c9b	-0.059948545
203	0xbdb52294	-0.08844486
204	0xbd8cd238	-0.068760335
205	0xbe22f12b	-0.15912311
206	0xbdc03989	-0.09385974
207	0xbda64f19	-0.081205554
208	0x3c35787c	0.011076089
209	0xbcf670e9	-0.030083137
210	0xbdd4a5c1	-0.103831775
211	0xbdb578c2	-0.08860923
212	0xbd66e58f	-0.056371268
213	0xbd5012c8	-0.05079916
214	0x3cbc66a3	0.02299816
215	0xbe069761	-0.13143684
216	0xbe32552d	-0.17415304
217	0xbd00a721	-0.031409387
218	0xbde12488	-0.10993296
219	0xbda36999	-0.079791255
220	0xbbc8a258	-0.0061228685
221	0xbde3eafc	-0.11128804
222	0xbde93d23	-0.11388614
223	0xbdb4cd8b	-0.08828267
224	0xbe2291c2	-0.15875915
225	0xbc5fdc30	-0.013663337
226	0xbd75e2b2	-0.060030647
227	0xbd42c1ac	-0.04754798
228	0xbd29f698	-0.041494936
229	0xbd97ad96	-0.07406156
230	0x3c5b05c1	0.013368071
231	0xbd5cb6a8	-0.053885132
232	0xbdf82ffb	-0.121185265
233	0x3b31ba98	0.0027119275
234	0xbdbf09ad	-0.093280174
235	0xbd7e3197	-0.06205901
236	0xbe0fce82	-0.1404362
237	0xbda96bb1	-0.08272494
238	0xbd8a5d2f	-0.067560546
239	0xbdd2ff47	-0.103025965
240	0xbdf847ab	-0.121230446
241	0xbd9b7853	-0.075913094
242	0xbc59fd6b	-0.013305048
243	0xbdc19549	-0.09452302
244	0xbd889714	-0.06669441
245	0xbc916d70	-0.01775238
246	0xbd8c56fd	-0.06852529
247	0x3cc0875c	0.023502044
248	0xbd7910d5	-0.060807068
249	0xbdb6904d	-0.08914242
250	0xbce042b2	-0.027375553
251	0xbdbfcb0c	-0.093649
252	0xbd251a38	-0.040308207
253	0xbe04d5a8	-0.12972128
254	0xbdf8c92c	-0.121477455
255	0xbdce410a	-0.10070999

sequential_1/dense_6/BiasAdd/ReadVariableOp/resource f4 [256]
0	0xbcf379f8	-0.029721245
1	0x3d2613b5	0.040546138
2	0x3d34c5fc	0.044134125
3	0xbd6ccc0f	-0.057811793
4	0xbc9fcb14	-0.019506015
5	0x3cd85e3a	0.026412118
6	0x3c7383b0	0.01486294
7	0x3d313908	0.04326728
8	0x3da35e1b	0.079769336
9	0xbd2df678	-0.04247138
10	0x3d402fcd	0.046920586
11	0x3bd2e011	0.006435402
12	0xbce5be6a	-0.028044898
13	0x3cef4a6f	0.029210297
14	0xbd3f65d9	-0.04672799
15	0xbd3499b6	-0.044091903
16	0xbd71ce65	-0.059034724
17	0xbd429b87	-0.047511604
18	0x3d2f8c70	0.04285854
19	0xbcc55b38	-0.024091348
20	0xbd3e941b	-0.046527963
21	0xbd810462	-0.06299664
22	0xbb10c67d	-0.0022090964
23	0x3d890202	0.06689836
24	0xbdb5ddec	-0.08880219
25	0xbd0f97df	-0.035056945
26	0x3c2f1641	0.010686458
27	0x3c84632c	0.01616057
28	0xbcf9b138	-0.030480012
29	0x3b1633fc	0.0022919169
30	0x3d4d772b	0.050162476
31	0x3c507d3e	0.012725173
32	0xbd711134	-0.058854297
33	0xbd3cbed0	-0.04608041
34	0xbd3b5ea6	-0.04574456
35	0xbd2b6ce8	-0.041851908
36	0x3cae90fd	0.02130937
37	0xba1fe818	-0.00060999533
38	0x3c87d131	0.016579242
39	0x3d68dae4	0.056849375
40	0xbd86e60b	-0.06586846
41	0xbd2a6005	-0.041595478
42	0xbd8f1d6f	-0.06988036
43	0x3c88bdb3	0.016692018
44	0x3d1d1ba6	0.038356446
45	0x3c363962	0.01112208
46	0xbca0890c	-0.019596599
47	0xbd238943	-0.039925825
48	0xbcf38e6e	-0.029731002
49	0xbdce511c	-0.10074064
50	0xbd042acc	-0.032267377
51	0xbcbabd35	-0.022795299
52	0x3c72dc61	0.01482305
53	0x3c0b3f69	0.008499005
54	0xbd942a39	-0.07234616
55	0xbcc6dd69	-0.024275498
56	0x3d177dd6	0.03698524
57	0xbd0e36b3	-0.034720134
58	0x3cd35def	0.025801627
59	0x3bc632a7	0.0060485187
60	0xbb6e8a92	-0.0036398512
61	0xbd02c5dc	-0.031926975
62	0x3d0b5f7f	0.03402662
63	0x3c95838a	0.0182512
64	0x3d960540	0.0732522
65	0x3d9b669a	0.07587929
66	0xbd90abbb	-0.07064005
67	0x3d198397	0.03747901
68	0x3d520b6b	0.05128042
69	0xbd5f20d1	-0.054474656
70	0x3d4f4021	0.050598267
71	0xbd8cdd7c	-0.06878182
72	0x3d3714a9	0.044697437
73	0x3d27c3c8	0.040958196
74	0xbcd32f4d	-0.02577939
75	0xbcf3f6bf	-0.029780744
76	0xbc92c4eb	-0.017916163
77	0xbc4fc2a2	-0.012680681
78	0x3bef877f	0.0073098536
79	0x3d02f7c1	0.031974558
80	0x3d8d19d4	0.06889692
81	0x3b69b795	0.0035662402
82	0x3c0a3d6b	0.008437495
83	0x3c33c6ea	0.010972718
84	0x3b57db7e	0.0032937224
85	0x3bc77a91	0.006087609
86	0x3ab2df5d	0.001364689
87	0x3d1f51ed	0.03889649
88	0xbcc00dd3	-0.023444092
89	0x3c312ea7	0.010814345
90	0xbda024d9	-0.07819528
91	0xbce6aae8	-0.028157666
92	0x3d9aa2a5	0.07550553
93	0x3c856b3e	0.016286489
94	0xbd3f7dad	-0.046750713
95	0xbc4a3dbf	-0.012343823
96	0xbbd1fb08	-0.006408099
97	0xbd1c57fe	-0.038169853
98	0xbb7b5942	-0.0038352762
99	0x3d3f5d59	0.046719883
100	0xbd103c0b	-0.03521351
101	0xbd7376fb	-0.05943964
102	0x3cdeafb1	0.027183386
103	0x3ccaa156	0.024735134
104	0x3d9842be	0.07434605
105	0x3c5c4313	0.013443726
106	0x3d86ef3a	0.065885976
107	0xbb8e375e	-0.0043400964
108	0x3d6802b4	0.056643203
109	0x3cd3984a	0.025829453
110	0x3da840b4	0.08215466
111	0x3d9005bf	0.07032346
112	0xbd53e63c	-0.05173324
113	0xbd915bfc	-0.07097623
114	0xbce32319	-0.027726697
115	0xbcaa06a4	-0.02075512
116	0x3d8411fb	0.06448742
117	0x3d99407e	0.07483004
118	0xbd98b9db	-0.07457324
119	0xbcebf5b8	-0.028803691
120	0x3ce7d5ba	0.028300155
121	0xbd545067	-0.05183449
122	0x3d30b85f	0.04314458
123	0x3d0678d1	0.032830063
124	0x3b568ca3	0.0032737635
125	0xbcfda8f8	-0.03096436
126	0x3ceb27a0	0.028705418
127	0x3dc1e0a0	0.09466672
128	0x3cd77617	0.026301427
129	0x3dda62f5	0.10663406
130	0x3ce997ee	0.028514829
131	0x3d529680	0.05141306
132	0xbd053934	-0.032525256
133	0x3d2a74e2	0.041615374
134	0xbdad50cd	-0.08462677
135	0x3db12927	0.08650427
136	0x3d8cbecb	0.06872328
137	0xbd931a48	-0.07182747
138	0x3da51ba7	0.08061915
139	0x3ce146df	0.027499614
140	0xbc8c40a5	-0.017120669
141	0xbd122ba5	-0.035686154
142	0x3ca736c3	0.020411855
143	0x3d219fa8	0.0394589
144	0x3cad22f0	0.021134824
145	0x3cbd3b78	0.023099646
146	0x3d75c2b4	0.060000136
147	0x3ca10c4e	0.019659188
148	0x3d4f3ebe	0.050596945
149	0xbd0302de	-0.031985156
150	0xbdaed8c7	-0.08537441
151	0xbc1fcead	-0.009753865
152	0x3d6d8572	0.05798859
153	0xbd7554d7	-0.059895363
154	0xbcb4b5ff	-0.022059439
155	0xbd1ea2a4	-0.038729325
156	0xbd3db26c	-0.046312734
157	0xbca44e8a	-0.020056982
158	0x3cf442cf	0.029817013
159	0x3ce59dac	0.028029285
160	0xbdcce441	-0.100044735
161	0xbc212426	-0.009835279
162	0xbdbe3c7d	-0.09288881
163	0xbd337e12	-0.043821402
164	0xbc9e4f9c	-0.01932507
165	0x3cbcf2ae	0.023064937
166	0xbd23f51e	-0.040028684
167	0xbcb7df71	-0.022445412
168	0xbad4e7c7	-0.0016243391
169	0xbc451855	-0.012029727
170	0x3c3b4742	0.011430563
171	0xbc8f2477	-0.017473442
172	0xbcfa900e	-0.030586269
173	0x3e00c0ea	0.12573591
174	0x3d9e77db	0.07737704
175	0x3c9f0118	0.019409701
176	0xbcd86c5c	-0.026418857
177	0xbadafd20	-0.0016707517
178	0x3cb48154	0.022034325
179	0x3d582966	0.052773856
180	0x3db0934f	0.08621847
181	0xbcb75577	-0.02237962
182	0xbc9e0bda	-0.01929276
183	0xbd939658	-0.0720641
184	0xbcb1b55f	-0.02169293
185	0x3db9b9a3	0.090686105
186	0xbd09f5c4	-0.033681646
187	0x3caa3fa3	0.020782297
188	0x3cb49cf8	0.022047505
189	0xbc9422a4	-0.018082924
190	0x3bb07891	0.0053854664
191	0xbd869a5c	-0.065724105
192	0xbc8df7ef	-0.017330138
193	0x3d2143d6	0.039371334
194	0xbb7100ef	-0.0036774238
195	0x3d0ffa34	0.03515072
196	0xbd48a76e	-0.0489878
197	0x3cad50fc	0.02115678
198	0xbbf5b654	-0.007498542
199	0x3c835196	0.016030114
200	0x3cbf2f61	0.023338022
201	0xbd5fe1b7	-0.054658618
202	0x3d039a28	0.032129437
203	0x3b953b70	0.0045542046
204	0xbce4d049	-0.02793135
205	0xbd1cfe8d	-0.038328696
206	0xbd93f7ef	-0.07225024
207	0xbcf65457	-0.030069513
208	0xbc5ddf0a	-0.013541946
209	0x3db2dacf	0.08733141
210	0xbc1580e4	-0.009124968
211	0xbd647fb8	-0.055785865
212	0xbd0e7e2f	-0.034788307
213	0x3a84096a	0.0010073606
214	0xbd3bc18c	-0.045838878
215	0x3ba865fd	0.005139111
216	0x3b068b90	0.0020529963
217	0xbd04bc69	-0.032406244
218	0xbcc6211b	-0.024185708
219	0x3d8fd056	0.07022159
220	0x3da33456	0.07968967
221	0x3d6ee1e9	0.058320913
222	0xbc4b258e	-0.01239909
223	0x3d57bc43	0.052669775
224	0x3a367482	0.000696011
225	0xbda3f741	-0.08006144
226	0xbd00cd19	-0.031445596
227	0xbc894f0c	-0.016761325
228	0xbd710686	-0.05884411
229	0xbd6ead54	-0.058270767
230	0xbb11b2e1	-0.0022231864
231	0x3c90cdca	0.017676253
232	0x3d4ea0cd	0.05044632
233	0xbd8a1bf8	-0.06743616
234	0xbcf62520	-0.030047
235	0x3bde0d60	0.006776497
236	0x3d11d7b5	0.035606105
237	0xbc140630	-0.009034678
238	0xbd561b0f	-0.0522719
239	0x3b734ffa	0.0037126527
240	0xbda70474	-0.08155146
241	0xbc8c389d	-0.017116839
242	0x3d7597b4	0.05995913
243	0x3cdc5036	0.026893716
244	0x3c474433	0.012162256
245	0x3de10bec	0.10988602
246	0xbd2c50b4	-0.042069152
247	0x3da4240f	0.0801469
248	0x3ccb7832	0.024837587
249	0x3d560bcc	0.052257344
250	0xbb88853c	-0.0041662734
251	0x3cedd544	0.029032357
252	0xbd7aaadd	-0.061198104
253	0x3b363bc5	0.0027806622
254	0x3d200c3e	0.039074175
255	0x3d1dfec9	0.03857306

sequential_1/dense_7/BiasAdd/ReadVariableOp/resource f4 [128]
0	0xbda210fd	-0.079133965
1	0x3d8d334b	0.06894549
2	0xbc946152	-0.018112812
3	0x3da36f21	0.079801805
4	0x3d86e399	0.065863796
5	0x3dfd76ea	0.12376197
6	0x3d485d2d	0.048916984
7	0xbbd0a70a	-0.006367569
8	0x3d81390f	0.06309711
9	0x3d255874	0.04036756
10	0xbc2ca68f	-0.010537758
11	0x3d954fa4	0.07290581
12	0x3d71e7da	0.059059
13	0x3bb23553	0.0054384856
14	0x3ddf13e0	0.10892463
15	0xbd130b6b	-0.03589956
16	0x3d060923	0.032723557
17	0x3df6e8a5	0.12056092
18	0xbd26a5fe	-0.040685646
19	0xbbf996e6	-0.0076168654
20	0x3ddb31f8	0.1070289
21	0x3cdafa65	0.026730726
22	0x3c21c59f	0.009873777
23	0x3d4eb9ec	0.050470278
24	0x3d406d35	0.046979148
25	0x3dc964cc	0.098336786
26	0x3d63a203	0.05557443
27	0x3cde5a07	0.027142538
28	0x3df58c71	0.11989678
29	0xbd1471ab	-0.036241215
30	0xbce607a8	-0.028079823
31	0xbd06887a	-0.032844998
32	0xbbf896b9	-0.007586327
33	0x3da512b8	0.08060211
34	0x3dc3f01c	0.095672816
35	0x3d393c84	0.045223728
36	0x3da70431	0.08155096
37	0x3ca669c3	0.020314103
38	0x3d9be1d3	0.07611432
39	0x3d355942	0.044274576
40	0x3d4fd963	0.050744426
41	0xbdacc896	-0.08436696
42	0x3d438553	0.04773457
43	0x3d3ec19e	0.046571366
44	0x3ccd401b	0.025054982
45	0x3cc5362e	0.024073686
46	0x3decb63c	0.11558196
47	0xbd09c1c2	-0.033632047
48	0x3d10501d	0.035232652
49	0x3d8b17de	0.06791662
50	0x3c5a94ea	0.013341168
51	0x39eb21e5	0.00044847946
52	0x3d9a224b	0.07526072
53	0x3b8b254e	0.0042463904
54	0x3c0db41f	0.008648901
55	0x3dfd4c9f	0.1236813
56	0xbc9f3e9f	-0.01943904
57	0x3c805333	0.015664672
58	0xbc068184	-0.00820959
59	0xbcc3e677	-0.023913605
60	0x3b8ca3a9	0.0042919707
61	0xbd097c17	-0.033565607
62	0x3d3abba7	0.045589115
63	0x3d7c8c56	0.061657272
64	0xbceff8c4	-0.029293425
65	0x3d740b0e	0.059580855
66	0x3d684628	0.05670753
67	0x3c46968f	0.012120857
68	0x3e01f216	0.12690005
69	0x3daa6c8d	0.08321486
70	0x3c9186ef	0.017764537
71	0xbd266564	-0.040624037
72	0x3db485a5	0.08814553
73	0x3c8ccea0	0.01718837
74	0x3d3799a7	0.04482427
75	0x3bf38cfc	0.007432578
76	0x3c76391b	0.015028263
77	0x3c82b4ee	0.015955415
78	0x3d0bfee6	0.034178637
79	0x3b947b79	0.0045313207
80	0x3e03cc12	0.12870815
81	0x3d88100e	0.06643687
82	0xbb997263	-0.0046828254
83	0x3d7bc2df	0.06146514
84	0xbc451896	-0.0120297875
85	0x3e1c58bf	0.15268229
86	0xbd772f4f	-0.06034785
87	0xbd010d72	-0.031506963
88	0x3d80e725	0.06294087
89	0x3dd1abd2	0.1023785
90	0xbc80d532	-0.01572666
91	0x3c9ce145	0.019150386
92	0xbd3a0aee	-0.04542058
93	0xbd95d7a9	-0.073165245
94	0x3a7acf03	0.00095675903
95	0xbb3fcb80	-0.0029265583
96	0x3dd0d0ca	0.10196073
97	0xbc7ef14f	-0.015560462
98	0xbc99348c	-0.018701814
99	0x3d5df956	0.054192863
100	0x3c132b66	0.008982515
101	0x3d69510b	0.056962054
102	0x3cc513d5	0.024057308
103	0x3db3a397	0.08771437
104	0xbd69bae6	-0.057063006
105	0x3cbc2a71	0.022969456
106	0xbc8fbc8a	-0.017545957
107	0xbcf2abc9	-0.02962293
108	0x3bec8d7d	0.007219015
109	0x3d06e890	0.032936633
110	0x3b8309ee	0.0039989864
111	0xbc785501	-0.015156985
112	0x3d9619d3	0.07329144
113	0xbd28c931	-0.041207496
114	0xbcad4885	-0.021152744
115	0x3bf25908	0.0073958673
116	0xbcdaadce	-0.026694205
117	0x3d62bfd7	0.055358734
118	0x3d5c70c3	0.053818475
119	0x3de8debc	0.11370608
120	0x3da10759	0.078627296
121	0x3ddc6eb9	0.10763306
122	0xbca9ba61	-0.020718755
123	0x3da318bb	0.07963701
124	0x3c1b796a	0.009489397
125	0x3d94f160	0.07272601
126	0x3bdae98d	0.0066806735
127	0x3d8cd870	0.0687722

sequential_1/dense_8/BiasAdd/ReadVariableOp/resource f4 [64]
0	0x3ce08a29	0.02740963
1	0x3d97a384	0.07404235
2	0x3d2ef4a8	0.04271379
3	0x3db70ed8	0.08938378
4	0x3d9f31e0	0.07773185
5	0x3be49d88	0.006976787
6	0x3daf27a4	0.08552483
7	0xbb53a9ab	-0.0032297175
8	0x3d8e5930	0.06950605
9	0x3dc0ba9b	0.09410592
10	0x3e07a601	0.13246919
11	0x3dbe6cf9	0.09298129
12	0x3dd0660d	0.10175715
13	0x3d3d77ed	0.04625695
14	0x3dccf76d	0.1000813
15	0x3cb18da5	0.021673987
16	0x3db59ca9	0.08867771
17	0x3de36fab	0.11105283
18	0x3d522e0d	0.05131345
19	0xbb9b19e8	-0.004733313
20	0xbb9062e1	-0.0044063185
21	0xbd85df54	-0.06536737
22	0x3c9d52d2	0.01920453
23	0x3daacbd8	0.08339661
24	0x3de6b515	0.112650074
25	0x3d28f12e	0.041245632
26	0x3d90c288	0.07068354
27	0xbbc4827d	-0.0059970007
28	0x3e0b8f1d	0.13628812
29	0xbc220453	-0.009888726
30	0x3dbfe565	0.093699254
31	0x3d84f5d6	0.06492202
32	0x3d49609e	0.049164407
33	0x3de8d96d	0.11369596
34	0x3e1180f8	0.14209354
35	0x3ce5c3d2	0.028047476
36	0x3d5c4ae0	0.053782344
37	0x3bc04c8f	0.0058685015
38	0xbc4ba614	-0.012429733
39	0x3da7c8e1	0.081926115
40	0x3de26b3f	0.11055612
41	0x3d4c165d	0.049826015
42	0x3cc5dc4b	0.024152895
43	0x3de738fb	0.11290165
44	0x3c2ca0ff	0.010536431
45	0x3d1857a9	0.037192974
46	0x3da2bc02	0.07946016
47	0x3dd1e499	0.1024868
48	0x3d3f2ee3	0.046675574
49	0x3d08ad0f	0.033368167
50	0x3ddb85e5	0.10718898
51	0x3d119774	0.035544828
52	0x3e095ceb	0.13414352
53	0xbd019af7	-0.031641927
54	0xbbf8d537	-0.0075937766
55	0xbc89f9f0	-0.016842812
56	0x3e107ea4	0.1411081
57	0x3d013a5d	0.0315498
58	0xbccef855	-0.025264898
59	0x3d0fd05b	0.035110813
60	0x3d7fd7c9	0.062461648
61	0x3d546857	0.05185732
62	0x3dc1fef4	0.094724566
63	0x3e0a7018	0.13519323

sequential_1/dense_9/BiasAdd/ReadVariableOp/resource f4 [10]
0	0xbcd53258	-0.026024982
1	0xbdb8ee22	-0.09029795
2	0x3e0daee9	0.13836254
3	0x3d5670c8	0.05235365
4	0x3d157177	0.03648516
5	0xbd2abf48	-0.041686326
6	0xbda149e5	-0.078754224
7	0xbd86fddb	-0.06591388
8	0x3c815786	0.015788805
9	0x3caa5491	0.020792278

sequential_1/dense_5/MatMul f4 [512, 37]
0	0x3d801824	0.062546045
1	0x3daf1e1d	0.085506655
2	0x3cde8d56	0.027167004
3	0x3c6a0ed2	0.01428576
4	0x3d4ad643	0.049520742
5	0xbd880d8b	-0.06643208
6	0x3cde5382	0.027139429
7	0xbd144cbd	-0.036205996
8	0x3c1cdcca	0.009574125
9	0x3d0a2394	0.033725336
10	0x3c93ec00	0.01805687
11	0x3da6eafa	0.08150287
12	0x3c597f47	0.013274974
13	0xbd5ba2a3	-0.0536219
14	0x3e15b2d2	0.14618996
15	0xbd07131e	-0.032977216
16	0xbda69519	-0.08133907
17	0xbd883aab	-0.06651815
18	0x3d96ba30	0.07359731
19	0xbdf235cc	-0.11826667
20	0x3cc6f167	0.024285031
21	0xbb2bfec4	-0.0026244381
22	0xbe05ba32	-0.13059309
23	0x3e1dd66d	0.15413828
24	0xbd104e2e	-0.035230808
25	0x3e0f2c2f	0.13981698
26	0xbd9364d1	-0.071969636
27	0xbe1bad3d	-0.15202804
28	0xbbe111cc	-0.0068685766
29	0xbdce3816	-0.10069291
30	0xbdabe557	-0.083933525
31	0x3d9fb52a	0.07798226
32	0x3cd7ef1e	0.026359137
33	0xbdfe71bb	-0.12424036
34	0x3d7eb946	0.06218841
35	0xbda17c5d	-0.078850485
36	0x3d8300b5	0.06396619
37	0xbb7b5da8	-0.0038355384
38	0xbd8093a8	-0.06278163
39	0x3d1018c8	0.035179883
40	0x3d845ad2	0.06462635
41	0xbacc0f4d	-0.0015568525
42	0xbd282af8	-0.041056603
43	0xbd16958e	-0.03676372
44	0x3cb17f41	0.021667125
45	0x3d953a55	0.072865166
46	0xbd916162	-0.070986524
47	0x3aae18f1	0.001328258
48	0xbd8f4b61	-0.06996799
49	0x3d249563	0.04018153
50	0x3de6b067	0.11264115
51	0xbd3940db	-0.045227867
52	0xbd6dd80c	-0.058067366
53	0xbd78cde3	-0.060743224
54	0x3cf0c120	0.029388964
55	0xbe0975de	-0.13423869
56	0xbcbde949	-0.023182528
57	0xbc9cf732	-0.01916084
58	0x3dc3458c	0.095347494
59	0x39bba1c5	0.00035787947
60	0x3d41eccf	0.04734498
61	0x3ca3f8ca	0.020016093
62	0x3d916318	0.07098979
63	0xbd0e7c26	-0.034786366
64	0x3e1453b6	0.14485058
65	0x3e19308a	0.14959922
66	0xbd42bdf7	-0.047544446
67	0xbdd10ac7	-0.10207134
68	0xbe070e9e	-0.1318917
69	0x3e156243	0.14588265
70	0xbd61534e	-0.055011086
71	0xbd1937a1	-0.037406567
72	0xbd870ad1	-0.0659386
73	0x3e0c0e63	0.13677363
74	0xbd2e9d2b	-0.042630356
75	0xbd1a5f71	-0.037688676
76	0x3d5552df	0.052080985
77	0x3da08228	0.07837325
78	0x3c2d9d81	0.010596634
79	0xbdce5bb2	-0.10076083
80	0x3d35d4fa	0.044392563
81	0x3d03bcf3	0.032162618
82	0x3df300a3	0.11865356
83	0xbb972b7d	-0.0046133385
84	0x3db36035	0.087585844
85	0xbd2e00ce	-0.042481236
86	0x3d55d997	0.052209463
87	0x3d0d5f15	0.034514505
88	0xbd639d33	-0.05556984
89	0x3dc4d557	0.09611004
90	0x3d4df02e	0.05027788
91	0x3db3b197	0.08774107
92	0xbd270f64	-0.040786162
93	0xbd851cff	-0.06499671
94	0x3e0d8fb1	0.13824345
95	0x3de24c5c	0.11049721
96	0x3de1dea5	0.11028794
97	0x3d6c4df4	0.05769153
98	0x3d82b546	0.063822314
99	0x3e25770b	0.16158693
100	0x3d13b9a0	0.036065698
101	0xbde46480	-0.11151981
102	0x3dba5524	0.090982705
103	0xbbcf8d33	-0.006333971
104	0xbdaef3d7	-0.085426025
105	0xbd8301e1	-0.06396843
106	0xbdc41efb	-0.095762216
107	0x3db4a0ef	0.08819758
108	0xbdb552eb	-0.08853706
109	0xba34bc0a	-0.0006894475
110	0x3e4e3fc5	0.20141514
111	0xbd866902	-0.065629974
112	0x3d7e3900	0.06206608
113	0x3cf332f4	0.029687382
114	0xbddb24f2	-0.10700406
115	0x3c647589	0.013944038
116	0x3d8e6913	0.06953635
117	0x3c1bbbe6	0.009505248
118	0x3cef3fe9	0.02920528
119	0x3dd6dff1	0.10491932
120	0x3d332583	0.043736946
121	0x3db09d5b	0.08623763
122	0xbd2cde2a	-0.04220406
123	0xbd914fad	-0.07095275
124	0x3b0f62dc	0.0021878993
125	0x3d88b317	0.06674784
126	0xbe70cf39	-0.23516549
127	0x3b286819	0.0025696813
128	0xbd092bd7	-0.033489075
129	0x3bba4ca9	0.005685408
130	0x3c6dc71d	0.014512804
131	0x3d8a78b4	0.067613035
132	0x3e291359	0.16511287
133	0x3d1eff43	0.038817655
134	0xbe34c544	-0.17653376
135	0x3d0eea2a	0.034891285
136	0xbd40a56e	-0.047032766
137	0xbde24f09	-0.11050231
138	0x3dbc83ad	0.09204803
139	0x3d93662a	0.071972206
140	0xbd14ff82	-0.036376484
141	0x3ce1a40e	0.027544048
142	0x3d489849	0.048973355
143	0xbd07d3ca	-0.033160962
144	0x3e11e9e8	0.14249384
145	0x3d316e07	0.04331782
146	0xbc241034	-0.010013629
147	0xbd18993f	-0.037255522
148	0x3cfb5c93	0.030683791
149	0x3d6d37c8	0.057914525
150	0x3dc3fe5d	0.0957
151	0xbdc373c3	-0.09543564
152	0xbca61f31	-0.020278545
153	0xbd4b4a5f	-0.049631473
154	0xbbbfa44d	-0.0058484436
155	0x3c93345c	0.017969303
156	0x3db710ee	0.08938776
157	0x3a929cd8	0.0011185659
158	0xbd0aaa3a	-0.033853747
159	0x3a9cbe3b	0.0011958549
160	0xbe0008bc	-0.12503332
161	0xbdb80fef	-0.08987414
162	0x3d36a378	0.04458949
163	0xbdabf417	-0.08396166
164	0x3cc87305	0.024468908
165	0x3e1fa9c2	0.15592101
166	0x3dc6d8c4	0.097093135
167	0x3d94d09e	0.07266353
168	0x3dea6a21	0.11446024
169	0x3cc32709	0.023822324
170	0xbdbcaadd	-0.09212277
171	0xbb1a6156	-0.0023556552
172	0x3d0b4dda	0.034009792
173	0xbcb74f9e	-0.022376832
174	0xbdde9830	-0.10868871
175	0x3e1efcdd	0.15526147
176	0xbd621254	-0.05519326
177	0x3d4e2783	0.05033065
178	0xbd73a632	-0.059484668
179	0x3c959bc3	0.01826275
180	0x3e2dc80e	0.16970846
181	0x3db9aa23	0.09065654
182	0xbd8fa1a0	-0.070132494
183	0x3cf6a2ae	0.030106869
184	0x3dbb2207	0.091373496
185	0x3d4bd2f8	0.049761742
186	0x3d6d5846	0.057945512
187	0x3d92ea7a	0.07173629
188	0x3e37b77a	0.17941085
189	0xbdcbeb92	-0.09957041
190	0xbe0ea52f	-0.139302
191	0x3da62547	0.08112579
192	0xbdf3c92c	-0.11903605
193	0xbda879d5	-0.082263626
194	0xbd59e873	-0.053200196
195	0xbd528637	-0.05139753
196	0xbda05306	-0.078283355
197	0xbdc23f8b	-0.09484776
198	0xbd21b136	-0.039475642
199	0x3db5288e	0.08845626
200	0xbde604ca	-0.11231382
201	0xbe4175a2	-0.1889253
202	0xbca64e0b	-0.020300886
203	0xbe02525c	-0.1272673
204	0x3c82db59	0.015973734
205	0xbdd903c6	-0.10596423
206	0x3bfbc56f	0.007683448
207	0x3cc6b8fc	0.02425813
208	0x3b58f9cd	0.0033107877
209	0xbd9e6af1	-0.07735241
210	0x3b98980c	0.0046567973
211	0x3d0bcb0e	0.034129195
212	0xbcfb278e	-0.03065851
213	0x3db747cf	0.08949243
214	0x3dd1edb6	0.10250418
215	0x3e248a35	0.16068347
216	0xbc23ef51	-0.010005788
217	0xbdf2ce56	-0.11855762
218	0x3dc69afd	0.096975304
219	0xbd7894dd	-0.060688842
220	0xbd099520	-0.033589482
221	0x3d7b0f69	0.061293993
222	0xbce82529	-0.028338032
223	0xbc401028	-0.011722602
224	0xbe08fd4b	-0.13377874
225	0xbca2bc08	-0.01986505
226	0xbd3c9c29	-0.046047363
227	0x3d544069	0.05181924
228	0x3e323bc1	0.17405607
229	0x3c2efa51	0.010679797
230	0x3dfe8f60	0.1242969
231	0xbc607f2a	-0.013702193
232	0x3cf9bd3b	0.03048574
233	0xbdabcfa0	-0.08389211
234	0xbda62c85	-0.0811396
235	0xbdd91d7c	-0.10601327
236	0xbc91ef4f	-0.017814307
237	0xbd006b97	-0.031352606
238	0xbc4e4701	-0.012590171
239	0xbde24f3e	-0.110502705
240	0xbde4b990	-0.11168206
241	0x3e0db720	0.13839388
242	0xbe219373	-0.15778904
243	0x3c7f4539	0.015580469
244	0x3d660b66	0.056163214
245	0xbd9daf9f	-0.07699513
246	0x3d8c3fc8	0.06848103
247	0x3d6a074e	0.057135873
248	0x3d510027	0.051025536
249	0x3c2c0cb0	0.010501072
250	0x3dd9e1ff	0.106388085
251	0x3d38364b	0.044973653
252	0x3c992f01	0.018699171
253	0x3dee83c9	0.1164623
254	0x3de4c006	0.11169438
255	0xb9ca60c8	-0.0003860055

sequential_1/dense_6/MatMul f4 [256, 512]
0	0xbe047a3a	-0.1293725
1	0xba7d1e14	-0.0009655666
2	0x3c5221c6	0.012825435
3	0x3d01c20a	0.03167919
4	0xbe14f2dd	-0.1454577
5	0x3dba9fe7	0.0911253
6	0xbd6c057c	-0.057622418
7	0xbbfe4904	-0.007760169
8	0x3d298c3e	0.04139351
9	0xbdbe4d23	-0.092920564
10	0xbcc0bd81	-0.023527863
11	0x3ddf62b4	0.10907498
12	0xbd3622c7	-0.04446676
13	0x3dffd3d5	0.12491576
14	0xbd6bfd2b	-0.057614487
15	0x3be34321	0.0069354926
16	0x3e1fc140	0.15601063
17	0xbc807566	-0.01568098
18	0xbd90f2e7	-0.0707758
19	0x398162d6	0.00024678436
20	0xbc8405f7	-0.016116126
21	0x3d199678	0.037497014
22	0xbd65895c	-0.0560392
23	0xbc9028db	-0.017597606
24	0x3dab09b2	0.083514586
25	0x3c837bb3	0.016050195
26	0xbda12c77	-0.07869809
27	0xbcb43623	-0.02199847
28	0xbc7fdabe	-0.015616117
29	0xbd919739	-0.071089216
30	0xbd43e2af	-0.047823604
31	0x3cbf80fa	0.02337693
32	0xbd948642	-0.0725217
33	0xbd35f337	-0.0444214
34	0x3d64ed34	0.055890277
35	0xbd4ab8cd	-0.049492646
36	0x3dbd1398	0.09232253
37	0x3d80377f	0.06260585
38	0xbd9c6567	-0.076365285
39	0x3d5cc16a	0.05389539
40	0x3cc835b6	0.024439674
41	0xbcce36ab	-0.025172552
42	0x3d838542	0.06421901
43	0xbc9278e0	-0.017879903
44	0x3e0ca04f	0.13733028
45	0x3d8caa0a	0.0686837
46	0x3d97ef41	0.07418681
47	0x3d06e41b	0.032932382
48	0xbde49215	-0.111606754
49	0xbd0a0288	-0.03369382
50	0x3d9ec222	0.07751872
51	0xbcae9ed3	-0.021315968
52	0xbdc19629	-0.09452469
53	0xbca0d52b	-0.019632896
54	0xbdc65828	-0.09684783
55	0x3dbfad66	0.09359245
56	0x3d8507e3	0.06495645
57	0xbdc2a152	-0.09503426
58	0xbd99aba5	-0.07503442
59	0xbdbed296	-0.0931751
60	0xb9df8910	-0.00042635994
61	0x3d43c0e2	0.04779137
62	0x3db3e5ab	0.0878404
63	0xbcedf37a	-0.029046763
64	0x3d89173b	0.06693884
65	0x3cabf5aa	0.020991165
66	0xbdec90c8	-0.11551052
67	0xbdf93557	-0.12168377
68	0x3cad9283	0.021188026
69	0x3d89b1d4	0.06723371
70	0xbcd5227b	-0.026017418
71	0xbda36411	-0.079780705
72	0x3d80177c	0.06254479
73	0x3ca1f894	0.019771852
74	0xbd8f7216	-0.07004182
75	0x3d8352d6	0.06412284
76	0xbe11b92d	-0.14230795
77	0x3d7ba034	0.06143208
78	0x3d9bb438	0.076027334
79	0xbc99ea58	-0.018788502
80	0xbcfe812e	-0.031067457
81	0xbdee6655	-0.11640612
82	0x3d137c6e	0.036007337
83	0xbcb0b646	-0.02157129
84	0x3ddfd128	0.10928565
85	0xbd8df5e2	-0.06931664
86	0xbc556904	-0.013025526
87	0x3c737eac	0.014861744
88	0x3d4a8a18	0.049448103
89	0x3cdba7a5	0.026813338
90	0xbd417caa	-0.04723803
91	0x3ba3e5b1	0.0050017466
92	0xbc968cd7	-0.018377705
93	0x3c914526	0.017733168
94	0x3c235f43	0.009971443
95	0xbcadc5bb	-0.02121245
96	0x3d14991f	0.03627884
97	0xbce6a63c	-0.028155439
98	0xbd0b66e8	-0.034033686
99	0x3d6483bc	0.055789694
100	0x3db3b939	0.08775563
101	0xbcec96d0	-0.028880507
102	0xbd60cb63	-0.054881465
103	0x3d0a4103	0.033753406
104	0x3cd8c399	0.026460456
105	0x3c7cc3cb	0.01542754
106	0x3d9bf94b	0.07615908
107	0xbe07763c	-0.13228697
108	0xbcd7a0a8	-0.026321724
109	0xbc47a59b	-0.0121854795
110	0xbda7ccf8	-0.081933916
111	0x3d1c1266	0.038103484
112	0x3d5a3ecd	0.053282548
113	0xbd926ecd	-0.0715004
114	0xbc9f5513	-0.019449746
115	0xbce2fe3e	-0.027709123
116	0x3d3f8b2f	0.046763595
117	0x3c5af5cc	0.013364267
118	0xbd20aed1	-0.039229218
119	0x3dd623be	0.10456036
120	0xbd9ad2ae	-0.07559715
121	0xbd965ff4	-0.0734252
122	0xbdb8c58a	-0.090220526
123	0x3da4c8ed	0.08046136
124	0xbdc536c6	-0.09629588
125	0xbdaafd0d	-0.08349047
126	0x3b239cd4	0.0024965303
127	0x3d2f2c00	0.04276657
128	0xbcc437f2	-0.023952458
129	0x3d26848d	0.040653754
130	0x3d0371bc	0.032090887
131	0xbdbdb91f	-0.09263825
132	0xbbaf7f27	-0.005355734
133	0x3d732a0b	0.059366267
134	0xbcacda8b	-0.021100303
135	0xbca99c55	-0.020704428
136	0xbde5b75c	-0.11216614
137	0x3cc98e0b	0.024603864
138	0xbd8ef505	-0.069803275
139	0x3d7abae4	0.06121339
140	0x3c881008	0.016609207
141	0x3d8b41c2	0.06799652
142	0x3de7b235	0.11313287
143	0xbd978381	-0.07398129
144	0x3d0a8d7f	0.033826347
145	0x3cab19e6	0.020886373
146	0x3d723f9b	0.05914269
147	0x3b78e9ea	0.003798122
148	0xbccc2823	-0.024921482
149	0x3d9ecc9b	0.07753869
150	0xbcbbb6f7	-0.022914393
151	0xbdd457ec	-0.10368332
152	0x3dd64837	0.10462993
153	0x3ad28514	0.0016061389
154	0xbc8f2e84	-0.017478235
155	0x3be95c21	0.0071215783
156	0xbdd099f7	-0.101856165
157	0x3c0034d6	0.007825097
158	0x3d834ceb	0.06411155
159	0x3d250964	0.04029216
160	0xbd978954	-0.0739924
161	0x3d79677b	0.060889702
162	0x3d996c8a	0.07491405
163	0x3db9e394	0.0907661
164	0x3d6fd2ab	0.058550518
165	0xbd8917cd	-0.06693993
166	0xbd34e8a5	-0.04416718
167	0x3d0313cf	0.032001313
168	0x3d1ea405	0.03873064
169	0xbd67140d	-0.056415606
170	0xbde91fff	-0.11383056
171	0x3dcd1e66	0.10015564
172	0xbd071f9b	-0.032989126
173	0xbcfb7717	-0.030696435
174	0xbb6c51e7	-0.003605956
175	0xbd383a07	-0.044977214
176	0xbceea3f3	-0.029130911
177	0xbdecfaba	-0.1157126
178	0x3dc706c8	0.0971809
179	0xbd299205	-0.04139902
180	0x3c88ec29	0.016714172
181	0x3e00f909	0.12595
182	0xbdd9ccbd	-0.10634754
183	0xbcc6fff7	-0.024291975
184	0x3aa8c69a	0.0012876571
185	0x3dd0cb01	0.1019497
186	0xbd462e82	-0.048384197
187	0x3d7c9137	0.061661925
188	0xbdaea108	-0.08526808
189	0x3e11b0e4	0.14227635
190	0xbd994c44	-0.0748525
191	0xbd202996	-0.03910216
192	0xbd9e19af	-0.077197425
193	0xbcaaf019	-0.02086644
194	0xbd943c3d	-0.07238052
195	0xbdf2dbc8	-0.11858326
196	0x3da66c6c	0.081261486
197	0x3d396eb0	0.045271575
198	0x3cedec42	0.02904332
199	0x3d831002	0.063995376
200	0x3da5c300	0.08093834
201	0xbd873459	-0.066017814
202	0x3d9e31cb	0.07724341
203	0x3e09ca3e	0.13456056
204	0x3dc61de0	0.09673667
205	0x3cd3c699	0.025851535
206	0xbdce9274	-0.100865275
207	0xbdde8c8d	-0.10866652
208	0xbdae2110	-0.085024
209	0xbe1464c8	-0.1449157
210	0x3db99e7f	0.09063434
211	0x3d2dda44	0.042444482
212	0x3d4b602f	0.049652275
213	0xbcb270c3	-0.021782285
214	0x3e128eb3	0.14312248
215	0xbd728cc8	-0.05921629
216	0x3a9a2209	0.0011759411
217	0x3d415ec0	0.0472095
218	0xbda41ff4	-0.08013907
219	0xbc3e3a64	-0.011610601
220	0xbc935b51	-0.017987879
221	0x3dbea716	0.09309213
222	0xbc8f8d86	-0.017523538
223	0x3cf9f8e1	0.030514183
224	0xbc24dbaa	-0.010062138
225	0xbc3f301d	-0.011669186
226	0x3cb45a1a	0.02201562
227	0xbd568aa8	-0.052378327
228	0x3d905e04	0.07049182
229	0xbd0df035	-0.034652907
230	0xbcebb2d3	-0.028771793
231	0x3d734f38	0.05940172
232	0xbdc5ce6d	-0.09658513
233	0xbdb24189	-0.08703906
234	0x3cf9f0eb	0.030510386
235	0xbcd332c0	-0.025781035
236	0x3d83f3a0	0.06442952
237	0xbe00f9b1	-0.1259525
238	0xbaa9850e	-0.001293333
239	0xbda05662	-0.07828976
240	0x3d131c9c	0.035915956
241	0xbd9408f9	-0.07228274
242	0xbce1c195	-0.027558127
243	0xbdc5de5e	-0.09661554
244	0x3e0f78c5	0.14010914
245	0xbe039359	-0.12849177
246	0x3d87275a	0.065993026
247	0x3bb4d56f	0.0055186073
248	0x3da67ac6	0.08128886
249	0x3cef0258	0.029175922
250	0xbd742f0c	-0.05961518
251	0xbd8742a8	-0.066045105
252	0xbd709bbe	-0.058742277
253	0x3ca1a73f	0.01973307
254	0xbbbadbc0	-0.005702466
255	0x3d6792e0	0.056536555

sequential_1/dense_7/MatMul f4 [128, 256]
0	0x3d2cf6f0	0.042227685
1	0xbe0a94f1	-0.13533379
2	0x3d9cf586	0.076640174
3	0xbd180359	-0.037112568
4	0x3e3080a1	0.17236568
5	0xbc9fd988	-0.019512907
6	0xbcd26887	-0.025684608
7	0x3c850f7d	0.016242737
8	0xbdc263a4	-0.09491661
9	0x3d349cf2	0.044094987
10	0xbd08bd51	-0.03338367
11	0xbd1f4b32	-0.03889007
12	0x3d01b843	0.031669866
13	0x3ca94d44	0.020666726
14	0x3e694f38	0.22784126
15	0x3e2f5eef	0.17126058
16	0x3e410ece	0.18853304
17	0xbd5f831d	-0.0545684
18	0x3db06ebd	0.08614872
19	0x3b7e3e27	0.003879437
20	0xbda4be3d	-0.080440976
21	0xbe329d24	-0.17442757
22	0xbe0d9d5b	-0.13829558
23	0xbe04069a	-0.12893143
24	0x3e2cf5e7	0.1689068
25	0x3dfea496	0.12433736
26	0x3d10c045	0.035339613
27	0x3c3b13a1	0.011418254
28	0x3e24ae0b	0.16082017
29	0xbda0fb98	-0.07860488
30	0x3d59cdde	0.053174846
31	0xbdc77ef1	-0.09741009
32	0x3e1e9f23	0.15490393
33	0xbe1fed46	-0.15617856
34	0x3dfebe04	0.12438586
35	0x3daa4b1e	0.08315109
36	0x3ad79bf4	0.0016449676
37	0x3d4a051a	0.04932127
38	0x3b3d4a73	0.0028883487
39	0xbcb5feda	-0.02221625
40	0x3dda8cee	0.106714115
41	0x3c7c4fc4	0.015399877
42	0x3d9c241b	0.07624074
43	0xbd2d216f	-0.042268213
44	0x3c9fc88d	0.01950481
45	0xbdace553	-0.084421776
46	0x3de048ae	0.109513626
47	0x3c809d11	0.015699895
48	0xbd78dd29	-0.06075779
49	0x3e1a70d5	0.15082105
50	0xbddae946	-0.106890246
51	0xbd5948d1	-0.05304796
52	0x3db6d99b	0.08928224
53	0xbc612c4c	-0.013743471
54	0xbcfb5941	-0.030682208
55	0x3d6dc132	0.058045574
56	0xbcb0e2c5	-0.021592507
57	0x3d6590ab	0.05604617
58	0xbdec38df	-0.11534285
59	0x3d25e9db	0.040506225
60	0x3d509a83	0.050928604
61	0xbd7a62b1	-0.061129276
62	0x3e0db601	0.1383896
63	0xbd99fbfa	-0.07518764
64	0xbdc87820	-0.09788537
65	0x3d67f7ff	0.056632992
66	0x3dd472cc	0.10373458
67	0xbe3fd2b5	-0.18732722
68	0x3d66b891	0.05632836
69	0x3d876fce	0.06613122
70	0xbd38e98a	-0.045144595
71	0x3bfe4a60	0.007760331
72	0xbd194805	-0.0374222
73	0xbe24b677	-0.1608523
74	0xbb522d37	-0.0032070407
75	0xbdd29607	-0.10282522
76	0x3ddaf04c	0.10690364
77	0xbab77829	-0.0013997603
78	0xbda9b760	-0.08286929
79	0x3d7ff7ee	0.062492304
80	0xbe300b60	-0.17191839
81	0x3cb3302e	0.02187356
82	0xbd8a0d07	-0.06740766
83	0xbe7baf1c	-0.24578518
84	0x3d7375af	0.059438404
85	0xbe38ce06	-0.18047342
86	0x3db67553	0.089090966
87	0xbd8daedf	-0.0691812
88	0x3dfdc0ae	0.12390266
89	0x3df5b7ed	0.11997972
90	0xbddf212a	-0.108949974
91	0x3e12db37	0.14341436
92	0x3dd6f7bb	0.104964696
93	0x3cfe4519	0.031038808
94	0x3d31568e	0.043295436
95	0xbde6f938	-0.112780035
96	0x3e203ff7	0.156494
97	0xbd82ad01	-0.06380654
98	0xbd97f773	-0.07420244
99	0xbddf2b70	-0.10896957
100	0x3ca893c5	0.020578275
101	0xbc91522a	-0.017739374
102	0xbe29778d	-0.16549511
103	0xbd046697	-0.0323244
104	0x3e0eb764	0.13937145
105	0xbe477a03	-0.19480138
106	0xbde97c63	-0.11400678
107	0xbd00feec	-0.031493112
108	0xbe089d56	-0.13341269
109	0x3d157136	0.03648492
110	0xbd0ded17	-0.034649935
111	0xbe3afc53	-0.18260317
112	0x3daa0f7d	0.083037354
113	0x3e160230	0.14649272
114	0xbdc9f5e3	-0.09861352
115	0xba4816f7	-0.00076328166
116	0x3d2f6bd8	0.042827457
117	0xbe373186	-0.17889985
118	0x3e335d98	0.17516172
119	0x3db245a0	0.08704686
120	0xbe3b37a7	-0.18282948
121	0xbd385d2f	-0.04501074
122	0x3d57f93a	0.052727915
123	0xbd7c80cd	-0.06164627
124	0xbbaf441d	-0.005348696
125	0x3cca56b7	0.024699552
126	0xbd1d358f	-0.038381156
127	0xbe05cb3c	-0.13065809
128	0xbd613d24	-0.05498995
129	0x3da939b2	0.08262958
130	0xbc9559b2	-0.018231247
131	0xbdc3efbe	-0.095672116
132	0x3d14b849	0.03630856
133	0x3bd9aa8c	0.006642645
134	0xbe2f7732	-0.17135313
135	0xbb8785d1	-0.004135825
136	0xbde622e3	-0.11237123
137	0x3e44f93c	0.192357
138	0xbe1fa445	-0.15590008
139	0xbd8a796b	-0.0676144
140	0x3d7bfa17	0.0615178
141	0xbdaf0711	-0.0854627
142	0xbc0b277c	-0.0084933005
143	0xbd927776	-0.071516916
144	0xbdb5ca5f	-0.0887649
145	0x3dfe03fc	0.12403104
146	0x3dbe4125	0.09289769
147	0x3e1036b1	0.14083363
148	0xb9c2bc49	-0.00037142847
149	0xbc87d6e6	-0.016581964
150	0x3ddae327	0.10687857
151	0x3dba520e	0.09097682
152	0xbe1e1242	-0.15436652
153	0xbc94dd7b	-0.018172016
154	0xbd0f8e30	-0.03504771
155	0xbd33edc8	-0.043927938
156	0x3da8704b	0.08224543
157	0x3d0a68d9	0.033791397
158	0x3db8b53b	0.09018942
159	0xbddbe7ed	-0.10737596
160	0x3e6d9045	0.23199566
161	0x3e39a2fc	0.1812858
162	0x3e353e63	0.1769958
163	0x3e1b1a06	0.15146646
164	0xbd677ebc	-0.056517348
165	0xbe3e90cb	-0.18609922
166	0x3df653ce	0.12027703
167	0x3c828ad3	0.015935337
168	0x3e3126c3	0.17299943
169	0x3def61b0	0.11688554
170	0x3d32f146	0.043687128
171	0xbe332db7	-0.17497908
172	0x3d41f446	0.047352098
173	0x3d30d685	0.04317333
174	0xbaf85298	-0.0018945513
175	0xbc9cea1c	-0.0191546
176	0xbdcaf7e5	-0.099105634
177	0xbd67336e	-0.05644553
178	0xbdca360d	-0.098735906
179	0xbda4fa08	-0.08055502
180	0xbcf161ab	-0.029465517
181	0xbdb2140d	-0.08695231
182	0x3e2b6091	0.16736056
183	0x3e24f68c	0.16109675
184	0x3e2867a8	0.16445792
185	0xbdb33ab9	-0.08751435
186	0x3d59f4ac	0.053211853
187	0xbdb0b256	-0.08627765
188	0xbd656f4a	-0.056014337
189	0xbd10925d	-0.035295833
190	0xbcc26b6b	-0.023732862
191	0xbddce462	-0.10785748
192	0xbc2a17ee	-0.010381682
193	0xbe50e742	-0.20400718
194	0x3e21b852	0.15792969
195	0x3d18f03c	0.03733848
196	0xbdfeef4f	-0.12447988
197	0xbe094254	-0.13404208
198	0xbd80432a	-0.062628105
199	0x3e0e483e	0.13894746
200	0xbdc783eb	-0.09741958
201	0xbc080881	-0.008302809
202	0x3da5a29e	0.080876574
203	0x3d59d61a	0.0531827
204	0xbd71d6e4	-0.059042826
205	0x3dd04e83	0.10171225
206	0x3dd8b5ad	0.10581527
207	0xbdcc3ceb	-0.09972557
208	0x3dc65db7	0.096858434
209	0xbd8dd6a9	-0.06925709
210	0xbd96aae9	-0.07356817
211	0x3e57231b	0.21009485
212	0x3dae9dba	0.08526178
213	0x3dbb4277	0.091435365
214	0x3cf7252b	0.03016909
215	0xbd785307	-0.060626056
216	0x3d96f22f	0.073704116
217	0x3dbdf729	0.09275658
218	0xbe1e1d88	-0.15440953
219	0xbdb57df3	-0.088619135
220	0xbe49d3ef	-0.19709753
221	0x3dc6c501	0.09705544
222	0xbe183a5c	-0.14866012
223	0xbd7a29af	-0.06107491
224	0xbdd59d0a	-0.104303434
225	0x3db20184	0.08691695
226	0x3d057ea5	0.03259148
227	0x3d55101c	0.052017316
228	0x3e19f3bd	0.15034385
229	0x3d97fe95	0.074216045
230	0x3da5ebf2	0.081016436
231	0x3d06ebc9	0.032939706
232	0x3d325f73	0.04354806
233	0xbae7fa24	-0.0017698449
234	0xbd560d51	-0.052258793
235	0x3e006266	0.12537536
236	0xbdaee7e1	-0.08540321
237	0x3d894321	0.06702257
238	0xbd4c1619	-0.04982576
239	0x3d68acb3	0.056805324
240	0x3dfbe9bb	0.1230044
241	0x3d8037c6	0.06260638
242	0xbd4d0666	-0.05005493
243	0xbcaf5a76	-0.02140544
244	0x3d39d46f	0.045368608
245	0x3c50ca49	0.012743541
246	0xbd850cf1	-0.06496609
247	0xbd0d3a42	-0.034479387
248	0xbe35a5c7	-0.1773902
249	0xbc6d1244	-0.014469687
250	0xbcb42b30	-0.02199325
251	0xbc4e56b7	-0.012593917
252	0x3d80c581	0.06287671
253	0xbdbaf542	-0.091288105
254	0xbbb00fc8	-0.005372975
255	0xbe0cc672	-0.13747576

sequential_1/dense_8/MatMul f4 [64, 128]
0	0xbe2b5d5f	-0.16734837
1	0xbe916acf	-0.284018
2	0x3dcde764	0.100539
3	0xbb27ff9e	-0.0025634537
4	0x3d4a417e	0.049378864
5	0x3e16d59f	0.14729927
6	0xbcb80476	-0.022463065
7	0x3cd7c650	0.02633968
8	0xbdcdaf52	-0.10043205
9	0x3e8489a9	0.25886276
10	0x3de235fb	0.11045452
11	0xbdfac53b	-0.1224465
12	0xbe5a6833	-0.21328811
13	0x3e8f43f7	0.2798154
14	0xbddfbe12	-0.10924925
15	0xbde833c2	-0.11337997
16	0xbe0c62b9	-0.13709535
17	0xbc9694e5	-0.018381545
18	0xbd9233d9	-0.071387954
19	0x3d1410ea	0.036148943
20	0xbd84f51e	-0.06492065
21	0x3c885172	0.016640399
22	0xbd6ca71e	-0.057776563
23	0xbd6a9898	-0.05727443
24	0x3e9b8f58	0.303828
25	0x3e5200e7	0.20508157
26	0xbde667e0	-0.11250281
27	0x3ced20aa	0.02894624
28	0x3d80a851	0.06282104
29	0x3e1887dd	0.14895578
30	0x3d965cf5	0.07341949
31	0x3d8ed328	0.069738686
32	0x3d88e3d4	0.0668408
33	0x3e85b2c1	0.2611294
34	0x3df65990	0.120288014
35	0x3e0dfe1a	0.13866463
36	0x3d0817c6	0.033225797
37	0xbe56e93f	-0.20987414
38	0x3b9c2fc4	0.0047664363
39	0xbbf32674	-0.0074203555
40	0xbd0b95f9	-0.034078572
41	0xbe09a06e	-0.13440105
42	0x3c3ddabc	0.011587795
43	0xbdb67423	-0.0890887
44	0x3d9fdf8f	0.07806312
45	0x3cc8ae9d	0.024497325
46	0xbd072021	-0.032989625
47	0xbd388719	-0.045050714
48	0x3c8e6fd4	0.017387308
49	0xbe32730a	-0.17426696
50	0xbcc68561	-0.024233522
51	0x3e9576d3	0.29192218
52	0xbdbcfead	-0.09228263
53	0xbc897385	-0.016778717
54	0x3e0b23e4	0.1358791
55	0xbd1df862	-0.038566954
56	0xbd4a6e6e	-0.04942172
57	0xbd839e47	-0.064266734
58	0xbd12d93d	-0.035851706
59	0x3d5f202f	0.054474052
60	0xbd2dafc3	-0.042403948
61	0xbe4f316d	-0.20233698
62	0xbda2039f	-0.07910847
63	0x3cb91680	0.022593737
64	0xbcbc91a4	-0.023018666
65	0x3db69a76	0.0891618
66	0xbda93635	-0.08262292
67	0x3dd68c20	0.104759455
68	0xbad05be1	-0.0015896523
69	0x3e3a575e	0.1819739
70	0x3d9aa262	0.07550503
71	0xbd79adbf	-0.060956713
72	0x3d3c7ce4	0.046017542
73	0x3c4ba847	0.012430257
74	0x3e27defb	0.16393654
75	0x3e1b38d6	0.151584
76	0x3d735c5f	0.059414264
77	0xbd1fb7d0	-0.038993657
78	0x3e3f48d4	0.18680125
79	0x3bd6988e	0.0065489477
80	0xbe097cc4	-0.134265
81	0x3e8e3802	0.27777106
82	0xbcba147a	-0.022714842
83	0x3df2eb5e	0.11861299
84	0x3c11c7ce	0.008897735
85	0x3d95132e	0.07279049
86	0x3dbfefb0	0.09371889
87	0x3d58659d	0.05283128
88	0x3dc634fb	0.09678074
89	0x3daae245	0.08343939
90	0xbe09b361	-0.13447334
91	0x3e17f02e	0.14837715
92	0xbdc5d898	-0.096604526
93	0x3ea2746c	0.31729448
94	0xbe34535f	-0.17609929
95	0xbd8c138d	-0.068396665
96	0x3ce9078b	0.02844598
97	0xbdbf16c0	-0.09330511
98	0xbd2a844d	-0.041630078
99	0xbdeb6eb1	-0.11495722
100	0xbe7c1c66	-0.24620208
101	0x3dbd369e	0.09238933
102	0x3e85ea40	0.2615528
103	0xbc2c462e	-0.010514779
104	0xbdbdb0bc	-0.09262225
105	0x3c2eac9f	0.010661273
106	0x3d86667a	0.065625146
107	0xbde5c02d	-0.11218295
108	0x3e404b6d	0.18778773
109	0x3e064d05	0.13115318
110	0xbd2e8a90	-0.042612612
111	0x3ddc8940	0.10768366
112	0xbe1e4f89	-0.15460028
113	0xbcbcf7fa	-0.023067463
114	0xbd913995	-0.07091061
115	0x3c3b80cc	0.011444282
116	0xbda7876c	-0.081801265
117	0xbdbcb415	-0.092140354
118	0xbb8d55fb	-0.004313228
119	0x3dfc7c57	0.123284034
120	0x3e19095b	0.14944975
121	0x3dbe3d3c	0.09289023
122	0x3dad6713	0.084669255
123	0xbe02ce1f	-0.12773941
124	0xbda58c8f	-0.0808345
125	0xbb85b0fc	-0.004079936
126	0x3ccb14ed	0.024790252
127	0x3b994056	0.004676859
128	0x3e85b7a5	0.26116672
129	0xbd921d56	-0.07134502
130	0xbdd923eb	-0.10602554
131	0x3e764fce	0.2405388
132	0xbdbf5d97	-0.09344023
133	0x3d99f2b7	0.07516997
134	0xbe483a33	-0.19553451
135	0xbb2b3814	-0.0026125954
136	0x3dddb177	0.10824864
137	0xbdf828ac	-0.121171325
138	0xbd099843	-0.033592474
139	0x3e3d8605	0.18508156
140	0x3d487f54	0.048949555
141	0x3d811d1c	0.0630438
142	0xbd9b18dd	-0.07573102
143	0x3e24a3bc	0.16078085
144	0x3e3e0bd9	0.18559207
145	0x3e1ad1b8	0.15119064
146	0x3d78d39a	0.060748674
147	0x3e059835	0.13046344
148	0x3b5f1f79	0.0034045859
149	0xbd6a3efc	-0.057188973
150	0x3e06ab84	0.13151366
151	0xbd887c4f	-0.06664335
152	0x3da47295	0.08029667
153	0xbddb2a1e	-0.107013926
154	0x3e9293f7	0.28628513
155	0x3e156ed5	0.1459306
156	0xbe20d860	-0.1570754
157	0xbc74f77c	-0.014951583
158	0xbd039e7d	-0.032133568
159	0xbdebe4cd	-0.1151825
160	0x3d7b2c64	0.06132163
161	0x3e53e999	0.20694579
162	0xbcd7a42d	-0.026323402
163	0x3db410e4	0.08792284
164	0x3d9f4878	0.07777494
165	0x3d8c1621	0.06840158
166	0xbdc75a1f	-0.09733986
167	0x3e3fff11	0.18749644
168	0xbc508de1	-0.012729139
169	0xbbaae2ba	-0.005215016
170	0x3e6ec97c	0.23319048
171	0xbd1359cc	-0.03597431
172	0x3d0a38ab	0.03374545
173	0x3e6fe106	0.23425683
174	0x3d91c75a	0.071181014
175	0xbd27e620	-0.04099095
176	0xbdea5cc5	-0.11443476
177	0x3d8c25c9	0.068431444
178	0x3e0dd066	0.13849029
179	0x3e42acb8	0.190112
180	0xbcf7bce3	-0.030241435
181	0xbe028098	-0.12744367
182	0xbcf84add	-0.030309135
183	0xbd86dc72	-0.06585015
184	0xbdbd8c6d	-0.092553
185	0xbe3d1a3d	-0.1846704
186	0xbdbbd0f7	-0.09170716
187	0x3c01b895	0.007917543
188	0x3c5236df	0.012830465
189	0x3e7d90ee	0.24762318
190	0xbe324787	-0.17410098
191	0xbc211d2a	-0.009833613
192	0x3d825118	0.06363124
193	0xbccd064e	-0.02502742
194	0x3d793853	0.06084473
195	0x3e984df0	0.29746962
196	0x3dd0b2e4	0.10190371
197	0xbd93cb28	-0.07216483
198	0x3e78c546	0.24294004
199	0xbe2b637f	-0.16737173
200	0xbe09c2dd	-0.1345324
201	0x3e3f8a5c	0.18705124
202	0x3d20982f	0.039207634
203	0xbd92c948	-0.071672976
204	0xbcbb7c12	-0.02288631
205	0x3dd297f2	0.102828875
206	0x3e0fec68	0.14055026
207	0xbd8b0c50	-0.06789458
208	0xbe1d4ee3	-0.15362124
209	0xba941662	-0.0011298175
210	0x3d8f9ec8	0.07012707
211	0x3e145dcd	0.14488907
212	0xbe2b2655	-0.16713841
213	0xbd97dfe0	-0.07415748
214	0x3e38cc52	0.18046692
215	0xbd6cbbda	-0.057796337
216	0x3e3c1c8d	0.18370266
217	0xbe1f4061	-0.15551902
218	0x3e845073	0.25842628
219	0xbc52fd31	-0.012877748
220	0xbafd1d65	-0.0019311128
221	0x3e4c53f8	0.19953907
222	0x3d74eac7	0.059794214
223	0xbc38fe2b	-0.011291067
224	0x3de2c6b0	0.11073053
225	0x3b808b15	0.00392283
226	0x3e49b978	0.19699657
227	0xbe292b1c	-0.16520351
228	0x3e525c6a	0.20543066
229	0x3e438f7f	0.19097708
230	0xbd8b53c8	-0.068030894
231	0xbe173eda	-0.1477007
232	0xbe03e23b	-0.12879269
233	0xbe930985	-0.287182
234	0xbcf93987	-0.030422939
235	0x3e76aba2	0.2408891
236	0xbd1c1303	-0.03810407
237	0x3e635729	0.22201218
238	0x3e88829d	0.2666215
239	0xbd56dd86	-0.052457355
240	0x3e07eed5	0.13274701
241	0x3e455404	0.1927033
242	0xbcfdb21a	-0.030968715
243	0xbdb3f79b	-0.08787461
244	0xbe19a1d0	-0.15003133
245	0x3dfc429d	0.12317393
246	0x3c44b93a	0.012007052
247	0xbe162c3c	-0.14665312
248	0x3e12b340	0.14326191
249	0xbe28400c	-0.16430682
250	0xbac69fc8	-0.001515382
251	0x3d4dd2d1	0.05024988
252	0xbd09cef7	-0.033644643
253	0xbe087e1b	-0.13329355
254	0xbd9f8a63	-0.07790067
255	0xbca15dfd	-0.019698137
