SpiceClassifier/SpiceClassifier/app/src/main/ml/model.tflite (tflite, 739520 bytes, 12 tensors)

sequential_13/dense_83/BiasAdd/ReadVariableOp/resource f4 [512]
-0.073773764 -0.26796156 -0.1885942 -0.15737367 -0.2618265 -0.4853927 -0.17284936 -0.21826763
-0.33708745 -0.20431009 -0.09415351 -0.14235164 -0.175133 -0.23326333 -0.122158654 -0.2967201
-0.26992512 -0.26580173 -0.11775531 -0.096712075 -0.24555698 -0.27091187 -0.20176683 -0.28270105
-0.2818843 -0.033029344 -0.028512081 -0.11142249 -0.17330039 -0.115657724 -0.2135628 -0.072305635
0.004687636 -0.14933674 -0.050831508 -0.1960428 -0.11248178 -0.060534906 -0.14274998 -0.1247262
-0.23642457 -0.23778178 -0.118502915 -0.1728267 -0.10665222 -0.1487193 0.00821624 -0.2467622
-0.26293203 -0.08230197 -0.066239215 -0.28970653 -0.10323746 -0.25588307 0.04847997 -0.14689262
-0.136817 -0.2210459 -0.10422834 -0.056294866 -0.16347526 -0.27958208 -0.1782112 -0.15052299
-0.18803312 -0.2589238 -0.1061797 0.0135397855 -0.115845256 -0.12422092 -0.14878489 -0.07372523
-0.19878179 -0.03660335 -0.27156654 -0.06720727 -0.19512834 -0.17203505 -0.16337538 -0.17290236
-0.2643991 -0.10293723 -0.35310522 -0.18570246 -0.18083559 -0.20172276 -0.2423003 -0.06824113
-0.1939213 -0.30841348 -0.15574466 -0.26731595 -0.1583217 -0.10180216 -0.052653916 -0.19094136
0.0050306087 -0.1570205 -0.16099533 -0.11056329 -0.04138434 -0.011961518 -0.12911485 -0.20821421
-0.13476855 -0.10266115 0.0029710357 -0.10199367 -0.17300949 -0.19633102 -0.2481115 -0.24033618
-0.012891871 -0.13103838 -0.17767507 -0.12117703 -0.16587377 -0.15186991 -0.26878732 -0.11900367
-0.15756011 -0.29222015 -0.15967084 -0.22881064 -0.16397707 -0.28383368 -0.11886287 0.032697286
-0.16731776 -0.20011006 -0.2501639 -0.19939461 -0.09726014 -0.22921921 -0.24399047 -0.1261824
-0.2042416 -0.3116787 -0.1359649 -0.17033122 -0.15226364 -0.018150982 -0.25067142 -0.17718652
-0.24829586 -0.027943302 -0.09458544 -0.21908642 -0.21806547 -0.28840238 -0.1162409 -0.13342205
-0.20231485 -0.18277295 -0.15791027 -0.21653092 -0.09639334 -0.21103477 -0.30395445 -0.09197618
-0.110536076 -0.14774488 -0.24123512 -0.3131928 -0.27233893 -0.20073213 -0.18197918 -0.03782813
-0.15246657 0.01678586 0.017121185 -0.050681703 -0.14943616 -0.1756032 -0.16407046 -0.08007027
-0.12421998 -0.10292284 -0.19523391 -0.07498997 -0.20552438 -0.22991313 -0.22084975 -0.08932286
-0.06938222 -0.124894895 -0.17256004 -0.21847753 -0.13037367 -0.14272167 -0.16012557 -0.33040178
-0.1405355 0.006275041 -0.1342323 -0.21502876 -0.2337038 -0.22311468 -0.33244774 -0.09176338
-0.22155966 -0.16938044 -0.004291183 -0.23661673 -0.13635315 -0.19651262 -0.09888291 -0.22159816
-0.39570114 -0.092431106 -0.15116432 -0.21807729 -0.28138533 -0.19260992 -0.3466986 -0.27640927
-0.12956506 -0.3198054 -0.25542825 -0.09365807 -0.060326833 -0.09186689 -0.21138099 -0.15920977
-0.24180995 -0.073475115 -0.26383615 -0.19957459 -0.32495624 -0.2180155 -0.23145589 -0.12655316
-0.13054878 -0.042089857 -0.2276833 -0.21380928 -0.15977979 -0.18319814 -0.2091421 -0.13721712
0.00021901182 -0.077797204 -0.04070804 -0.17592572 -0.20429942 -0.09985021 -0.13232075 -0.23834403
-0.11925975 -0.17050499 -0.1124208 -0.16041543 -0.14734623 -0.09593385 -0.14939979 -0.022255206
00000000: b316 97bd 4232 89be d71e 41be 9026 21be
00000010: 1f0e 86be 6485 f8be 6cff 30be 8d81 5fbe
00000020: ba96 acbe aa36 51be 8ed3 c0bd a1c4 11be
00000030: 1156 33be 95dc 6ebe 512e fabd b2eb 97be
00000040: a033 8abe 2a17 88be b229 f1bd fb10 c6bd
00000050: 4a73 7bbe f6b4 8abe f79b 4ebe 31be 90be
00000060: 2453 90be c749 07bd 2b92 e9bc 7931 e4bd
00000070: a875 31be f5dd ecbd 35b0 5abe fa14 94bd
00000080: be9a 993b bbeb 18be b334 50bd 72bf 48be
00000090: d95c e6bd 73f3 77bd 0d2d 12be 7370 ffbd
000000a0: 4819 72be 117d 73be a8b1 f2bd 7cf9 30be
000000b0: 7b6c dabd df49 18be 699d 063c 3baf 7cbe
000000c0: 079f 86be ef8d a8bd 6da8 87bd 6a54 94be
000000d0: 296e d3bd 1b03 83be ef92 463d 056b 16be
000000e0: c119 0cbe db59 62be ab75 d5bd 7295 66bd
000000f0: 0f66 27be 6225 8fbe ff7c 36be b322 1abe
00000100: c18b 40be a991 84be be74 d9bd fad5 5d3c
00000110: 4740 edbd 8a67 febd 115b 18be 41fd 96bd
00000120: 748d 4bbe 65ed 15bd c50a 8bbe f7a3 89bd
00000130: b9cf 47be f529 30be e04b 27be 510d 31be
00000140: 525f 87be c1d0 d2bd 35ca b4be c928 3ebe
00000150: f72c 39be 6990 4ebe 921d 78be 01c2 8bbd
00000160: 4e93 46be 5fe8 9dbe 877b 1fbe a3dd 88be
00000170: 151f 22be a77d d0bd a2ab 57bd 2286 43be
00000180: ced7 a43b fbc9 20be f6db 24be 026f e2bd
00000190: a082 29bd 3efa 43bc af36 04be 1b36 55be
000001a0: c400 0abe 0240 d2bd b5b5 423b 0fe2 d0bd
000001b0: 6629 31be 000b 49be f110 7ebe b01a 76be
000001c0: 6d38 53bc ed2e 06be 74f0 35be aa2b f8bd
000001d0: d0da 29be c983 1bbe 7e9e 89be 32b8 f3bd
000001e0: 7057 21be e19d 95be c180 23be 564d 6abe
000001f0: 9be9 27be a652 91be 606e f3bd 97ed 053d
00000200: 5955 2bbe a7e9 4cbe 7c15 80be 1a2e 4cbe
00000210: 5330 c7bd 71b8 6abe a3d8 79be f635 01be
00000220: b624 51be 5a94 9fbe 623a 0bbe 4f6b 2ebe
00000230: 00eb 1bbe 5eb1 94bc 0158 80be 6270 35be
00000240: 4541 7ebe 5ae9 e4bc 03b6 c1bd 3158 60be
00000250: 8e4c 5fbe 7aa9 93be b50f eebd ca9f 08be
00000260: a02b 4fbe d528 3bbe 3bb3 21be 48ba 5dbe
00000270: df69 c5bd 8019 58be eb9f 9bbe 025e bcbd
00000280: bd60 e2bd 6f4a 17be 5706 77be cf5a a0be
00000290: 0270 8bbe b98c 4dbe c058 3abe abf1 1abd
000002a0: 3220 1cbe 8082 893c ba41 8c3c 9e97 4fbd
000002b0: cb05 19be 53d1 33be 1602 28be e2fb a3bd
000002c0: 0b67 febd 36c9 d2bd 66eb 47be 5794 99bd
000002d0: fc74 52be 596e 6bbe 7026 62be e7ee b6bd
000002e0: 4418 8ebd e5c8 ffbd 94b3 30be 93b8 5fbe
000002f0: ad80 05be a125 12be f5f7 23be 6c2a a9be
00000300: 8ae8 0fbe dc9e cd3b 3174 09be 8030 5cbe
00000310: 0d50 6fbe 2d78 64be 9736 aabe 70ee bbbd
00000320: 89e0 62be 1172 2dbe 0d9d 8cbb a84b 72be
00000330: 29a0 0bbe 9b3a 49be 2083 cabd a1ea 62be
00000340: 5799 cabe 854c bdbd d2ca 1abe a74f 5fbe
00000350: bd11 90be 893b 45be 7b82 b1be 8485 8dbe
00000360: b4ac 04be 89bd a3be 7ec7 82be cdcf bfbd
00000370: 4519 77bd b524 bcbd 4274 58be e307 23be
00000380: 079d 77be 1f7a 96bd 8815 87be 485d 4cbe
00000390: aa60 a6be 753f 5fbe c602 6dbe 2797 01be
000003a0: 94ae 05be 6a66 2cbd d025 69be d2f0 5abe
000003b0: 509d 23be 4b98 3bbe 5929 56be a582 0cbe
000003c0: 8aa6 6539 2454 9fbd 79bd 26bd df25 34be
000003d0: de33 51be 447e ccbd 177f 07be 7510 74be
000003e0: 753e f4bd dc98 2ebe e03c e6bd f143 24be
000003f0: eee1 16be f778 c4bd 42fc 18be 8d50 b6bc

sequential_13/dense_84/BiasAdd/ReadVariableOp/resource f4 [256]
0.039402213 0.044797592 0.034164414 0.085493036 -0.2456217 -0.38730204 -0.009181154 0.22498427
-0.0813545 -0.24150848 -0.10889335 -0.056788392 0.13994385 0.14328822 0.14382567 -0.13043018
-0.03375064 0.02935376 -0.09131852 -0.025118815 -0.14058937 0.08805534 -0.073701456 0.01777791
-0.19624047 -0.07900304 0.08536243 0.03953704 -0.08923499 -0.09937065 -0.031029448 -0.3537092
0.010547952 -0.13909724 0.22537118 -0.2643816 0.061476298 -0.12388664 -0.17658082 -0.030786315
0.10469249 -0.03108136 -0.26292288 -0.18327995 0.047702637 -0.009496292 -0.1324642 -0.12278434
-0.108792596 -0.003744027 0.30620852 -0.3169582 -0.07748997 -0.07574478 -0.12953252 -0.13475092
-0.44725013 -0.15711898 -0.06440945 0.24809241 -0.35548156 -0.14452246 0.18475544 -0.2596658
0.08643415 0.15997358 0.13704325 -0.07431613 -0.07015904 0.26262617 -0.14432314 0.0662581
-0.23105302 -0.063359976 0.17256717 -0.07924657 -0.059846908 -0.06472191 0.15942448 -0.2167614
0.059933763 0.15340532 -0.28988042 0.09121141 -0.12231939 0.30426946 0.09087047 0.018568141
-0.19152705 -0.08899444 -0.0515199 -0.041523207 -0.3071922 0.025043488 -0.10719173 0.1022387
-0.229361 0.029033713 -0.223016 -0.12901299 -0.00010287351 -0.06734111 0.14500085 0.0038694118
-0.11285211 0.2164151 -0.2100892 0.07749451 -0.20736405 -0.0115892 0.24544081 -0.18255785
-0.21828467 0.07738024 -0.05328029 0.19641723 -0.08392895 0.09801502 -0.031790014 -0.010797736
0.32982576 0.12686689 -0.004257321 -0.17614536 -0.041152127 -0.1316073 0.24677381 -0.1755019
0.08835832 -0.08941113 -0.066767894 0.061784763 0.047353312 -0.24201703 -0.29691833 -0.10997246
0.124716036 -0.1247545 -0.0063542 -0.093751945 -0.04033937 0.09140129 0.14911094 -0.315062
-0.021994783 -0.0616258 -0.13102093 0.07243375 -0.09447189 0.15779817 0.16886958 -0.11428123
-0.0045362255 0.052880734 0.05053806 0.15186754 -0.09150124 -0.06963047 -0.1021731 -0.0031448905
-0.3371493 0.08019815 -0.22219327 0.061285652 -0.05915661 0.14907399 -7.313133e-05 -0.14053002
0.10712799 -0.21654795 0.18025383 -0.3306198 -0.08137526 0.19858336 -0.12776445 -0.0104020815
-0.08801203 -0.07453033 -0.10215917 -0.17589474 -0.01064912 0.07718371 0.024708597 -0.1392771
-0.24971145 -0.0780733 -0.17290412 -0.008746033 0.11624981 -0.2148748 -0.11892863 0.074487284
-0.27296457 -0.1576658 0.1249916 -0.29831314 -0.19493173 -0.078555875 -0.016640991 -0.12419906
-0.16918585 -0.06897918 -0.07778165 -0.020965515 -0.20284353 -0.18645735 -0.17526725 0.040986255
-0.19113643 -0.0315513 -0.13704748 -0.18683177 0.04060236 -0.24061382 0.12367812 -0.22748403
-0.01781292 -0.12786226 -0.1911763 0.014870652 0.08852081 -0.11828438 0.25823206 -0.048796397
-0.04538962 0.051570434 -0.28901216 -0.10015147 -0.045647837 0.021576192 -0.022801593 0.14280535
-0.018936953 -0.15694505 -0.016714657 -0.046993457 -0.096612364 -0.10467253 0.015586452 0.02713397
-0.0574434 -0.04120365 -0.181394 -0.1728112 0.12636568 0.23516068 -0.12934893 -0.05269013
0.09146966 0.07208744 0.012811012 0.23632403 -0.037808176 0.11920637 -0.12233621 -0.05443897
00000000: 3764 213d ae7d 373d fcef 0b3d f916 af3d
00000010: 4184 7bbe 744c c6be 8d6c 16bc 4762 663e
00000020: 309d a6bd 004e 77be 7a03 dfbd f29a 68bd
00000030: 714d 0f3e 26ba 123e 0947 133e 7d8f 05be
00000040: 1c3e 0abd 4c77 f03c 3405 bbbd f9c5 cdbc
00000050: a9f6 0fbe 5c56 b43d caf0 96bd fba2 913c
00000060: 43f3 48be 59cc a1bd 7fd2 ae3d 97f1 213d
00000070: d6c0 b6bd d782 cbbd 7831 febc 5f19 b5be
00000080: 51d1 2c3c 826f 0ebe b4c7 663e 065d 87be
00000090: 92ce 7b3d 47b8 fdbd 9ad1 34be 9533 fcbc
000000a0: 0469 d63d 569e febc d49d 86be bdad 3bbe
000000b0: d763 433d 5696 1bbc b2a4 07be 5b76 fbbd
000000c0: a7ce debd 5a5e 75bb 5dc7 9c3e 5848 a2be
000000d0: 10b3 9ebd 1420 9bbd 2ca4 04be 25fc 09be
000000e0: f8fd e4be cce3 20be 1ae9 83bd f00b 7e3e
000000f0: ae01 b6be b2fd 13be 8830 3d3e eaf2 84be
00000100: 6304 b13d 1dd0 233e 1155 0c3e 0e33 98bd
00000110: 8baf 8fbd f076 863e 72c9 13be 54b2 873d
00000120: 2a99 6cbe e0c2 81bd 73b5 303e 074c a2bd
00000130: 0822 75bd ec8c 84bd 2c40 233e b3f6 5dbe
00000140: 1b7d 753d 4916 1d3e 356b 94be 0ccd ba3d
00000150: 9782 fabd 35c9 9b3e 4c1a ba3d 371c 983c
00000160: ab1f 44be b842 b6bd 8806 53bd 3d14 2abd
00000170: 4c48 9dbe 0028 cd3c 5687 dbbd 8662 d13d
00000180: 9cdd 6abe 1cd8 ed3c 4e5e 64be fb1b 04be
00000190: ccbd d7b8 23ea 89bd 1a7b 143e f595 7d3b
000001a0: 021f e7bd ec9b 5d3e a021 57be 71b5 9e3d
000001b0: 3e57 54be a1e0 3dbc d654 7b3e 72f0 3abe
000001c0: 0486 5fbe 8879 9e3d 6f3c 5abd 9921 493e
000001d0: f1e2 abbd 19bc c83d 3f36 02bd fde8 30bc
000001e0: ecde a83e 65e9 013e ff80 8bbb 735f 34be
000001f0: 228f 28bd 10c4 06be 46b2 7c3e c5b6 33be
00000200: 35f5 b43d 2f1d b7bd 9bbd 88bd 0512 7d3d
00000210: 8cf5 413d 50d3 77be ae05 98be 3e39 e1bd
00000220: 1f6b ff3d 4a7f ffbd e536 d0bb 0501 c0bd
00000230: e53a 25bd 9930 bb3d 8ab0 183e ce4f a1be
00000240: 672e b4bc 566b 7cbd 5a2a 06be 2558 943d
00000250: 7a7a c1bd d895 213e 26ec 2c3e 470c eabd
00000260: 9ea4 94bb 7899 583d ff00 4f3d 2a83 1b3e
00000270: 0165 bbbd 6b9a 8ebd 2140 d1bd 821a 4ebb
00000280: d59e acbe ed3e a43d a286 63be aa06 7b3d
00000290: 344e 72bd daa6 183e 155e 99b8 1ae7 0fbe
000002a0: eb65 db3d bfbe 5dbe 7694 383e 0047 a9be
000002b0: 13a8 a6bd 7059 4b3e afd4 02be 7e6d 2abc
000002c0: a73f b4bd 5ca3 98bd d438 d1bd c01d 34be
000002d0: a679 2ebc 7e12 9e3d af69 ca3c a89e 0ebe
000002e0: 5cb4 7fbe e5e4 9fbd c70d 31be 854b 0fbc
000002f0: 6114 ee3d 2408 5cbe db90 f3bd ca8c 983d
00000300: 03c2 8bbe 2573 21be 99fb ff3d 80bc 98be
00000310: 2f9c 47be e7e1 a0bd b052 88bc 145c febd
00000320: 0e3f 2dbe f544 8dbd fc4b 9fbd dfbf abbc
00000330: 37b6 4fbe adee 3ebe 4279 33be 34e1 273d
00000340: 45b9 43be f03b 01bd 2d56 0cbe d450 3fbe
00000350: a94e 263d 7863 76be f44a fd3d 93f1 68be
00000360: 67ec 91bc 53ee 02be b8c3 43be 09a4 733c
00000370: 664a b53d 153f f2bd fe36 843e bbde 47bd
00000380: 77ea 39bd 853b 533d 67f9 93be 371c cdbd
00000390: 3af9 3abd 8ec0 b03c 68ca babc 913b 123e
000003a0: ab21 9bbc 34b6 20be 2ded 88bc 367c 40bd
000003b0: b4dc c5bd 8d5e d6bd 515e 7f3c 0f48 de3c
000003c0: c549 6bbd 29c5 28bd 59bf 39be 6bf5 30be
000003d0: 0166 013e f6cd 703e 0c74 04be 9bd1 57bd
000003e0: 7254 bb3d 94a2 933d 47e5 513c edfe 713e
000003f0: bfdc 1abd 7822 f43d 688b fabd 66fb 5ebd

sequential_13/dense_85/BiasAdd/ReadVariableOp/resource f4 [128]
-0.06562921 -0.03239176 0.0450357 -0.04085772 0.20611487 -0.08530981 -0.061765052 -0.070577
0.035601497 -0.24315043 0.12200976 0.005420571 0.15919787 -0.013775615 0.17076175 0.11273743
0.15737386 0.09893642 -0.27516592 0.09010172 0.013026419 -0.030857787 0.09229061 -0.24142267
-0.071965575 -0.020271365 -0.20779261 0.20688795 -0.24337411 0.20418991 0.12949279 -0.0029978806
-0.034690958 0.074734434 0.16330387 -0.14592938 -0.045161836 -0.052764308 0.20745371 -0.20009707
0.02549633 -0.015614736 -0.0039708163 0.12753013 0.122980624 -0.005081587 0.11639781 0.08714781
-0.029891735 0.031086719 0.038299456 -0.007545419 -0.028133338 -0.0064655337 -0.06804299 0.08459023
-0.120578565 -0.14367165 0.10817052 0.07631077 -0.057700776 0.1370819 -0.16870005 0.09250556
-0.038113073 -0.06049296 0.2209397 -0.025263255 -0.15805846 0.035350144 0.09028963 0.00211942
0.09683025 0.032149594 0.20656192 -0.02433063 -0.19332345 -0.06569285 -0.15853664 0.09167373
-0.053339645 0.034762546 0.24847671 -0.1248855 0.003398292 0.022884373 -0.19271936 -0.22542322
-0.054921288 -0.092039496 0.0014089834 -0.04046596 -0.08409489 -0.01518721 -0.070575 -0.24722984
0.06633205 0.042985093 -0.0151604945 0.063387506 0.23525359 0.08056315 0.00081758504 0.12552254
0.23667032 -0.022561954 -0.16136788 -0.10401691 0.0744741 -0.033649053 -0.032451212 -0.20086826
-0.048378263 0.11032809 -0.15637922 -0.06569074 -0.10887485 -0.01286444 0.22954622 0.097655706
0.04799434 -0.012186841 0.28478855 0.19026265 -0.25553128 -0.13397916 -0.046636265 -0.02462869
00000000: 9b68 86bd 39ad 04bd 5b77 383d 6d5a 27bd
00000010: c70f 533e e9b6 aebd 5afd 7cbd ad8a 90bd
00000020: e0d2 113d 6dfc 78be 41e0 f93d 0c9f b13b
00000030: c404 233e 1eb3 61bc 2bdc 2e3e e2e2 e63d
00000040: 9d26 213e 2e9f ca3d 8ce2 8cbe 4087 b83d
00000050: c36c 553c 78c9 fcbc dc02 bd3d 8137 77be
00000060: b062 93bd 2210 a6bc 96c7 54be 6fda 533e
00000070: 1037 79be 2917 513e c299 043e 1778 44bb
00000080: 1b18 0ebd 5e0e 993d 2139 273e 836e 15be
00000090: 9efb 38bd 631f 58bd bf6e 543e 3fe6 4cbe
000000a0: aedd d03c f3d4 7fbc 9f1d 82bb 4297 023e
000000b0: 44dd fb3d 7183 a6bb fa61 ee3d 8d7a b23d
000000c0: 83df f4bc 93a9 fe3c e4df 1c3d 903f f7bb
000000d0: e377 e6bc d4dc d3bb 205a 8bbd a43d ad3d
000000e0: e5f1 f6bd a91e 13be 8188 dd3d d248 9c3d
000000f0: a657 6cbd 335f 0c3e b5bf 2cbe 8e73 bd3d
00000100: 741c 1cbd 77c7 77bd 043e 623e e3f4 cebc
00000110: 14da 21be 50cb 103d c5e9 b83d f8e5 0a3b
00000120: f04e c63d 4baf 033d f884 533e 0851 c7bc
00000130: 95f6 45be f989 86bd 6e57 22be 70bf bb3d
00000140: ac7a 5abd 2c63 0e3d ae70 7e3e f8c3 ffbd
00000150: e1b5 5e3b 0278 bb3c 3958 45be 58d5 66be
00000160: 25f5 60bd 347f bcbd a3ad b83a a2bf 25bd
00000170: f139 acbd c7d3 78bc a089 90bd d229 7dbe
00000180: 19d9 873d 2311 303d b963 78bc 4fd1 813d
00000190: 51e6 703e 4bfe a43d 3453 563a fb88 003e
000001a0: b459 723e d9d3 b8bc 9f3d 25be d106 d5bd
000001b0: e085 983d 97d3 09bd 90eb 04bd 69b0 4dbe
000001c0: 4928 46bd b2f3 e13d e021 20be de88 86bd
000001d0: c7f9 debd 5fc5 52bc 2a0e 6b3e b7ff c73d
000001e0: b795 443d 51ab 47bc cecf 913e 36d4 423e
000001f0: ffd4 82be d531 09be ab05 3fbd 1bc2 c9bc

sequential_13/dense_86/BiasAdd/ReadVariableOp/resource f4 [64]
0.0634226 0.16667035 0.19059154 0.10096709 0.12636387 0.24247727 -0.016753571 0.12703167
0.34687436 0.2468623 0.23551881 0.120391995 0.1721934 0.09744474 0.10257704 0.07433276
0.30686706 -0.19732931 0.13789646 0.057447873 0.051874626 0.10851223 0.11076024 0.16512078
-0.07850805 0.07631819 0.2982545 0.3106383 0.34294277 0.06721625 0.0719312 0.0065324977
0.1594583 0.21359918 0.2568383 0.18509862 -0.08411405 0.033075936 -0.0288027 0.017359603
0.075068235 0.10841376 0.26846677 0.2986302 0.11934655 0.25863594 -0.011502357 0.095597334
0.22456221 -0.24774541 0.21211441 -0.0069447607 0.306943 0.35268477 0.3505346 -0.14000489
0.16236003 0.018072128 0.08432718 0.022635957 0.12481877 0.15783049 0.10590478 -0.048901618
00000000: b5e3 813d a2ab 2a3e 6e2a 433e d5c7 ce3d
00000010: 8865 013e f64b 783e c93e 89bc 9714 023e
00000020: 8499 b13e 79c9 7c3e d82b 713e 1490 f63d
00000030: 7753 303e 1c91 c73d e913 d23d c63b 983d
00000040: ae1d 9d3e b210 4abe bb34 0d3e 764e 6b3d
00000050: 7d7a 543d a93b de3d 44d6 e23d 6c15 293e
00000060: d4c8 a0bd b64c 9c3d d0b4 983e fc0b 9f3e
00000070: 3296 af3e aca8 893d aa50 933d 900e d63b
00000080: 0949 233e beb9 5a3e 4f80 833e 7e8a 3d3e
00000090: fd43 acbd a27a 073d a4f3 ebbc ba35 8e3c
000000a0: 60bd 993d 0908 de3d 7a74 893e 0fe6 983e
000000b0: f76b f43d ee6b 843e 6274 3cbc 89c8 c33d
000000c0: a3f3 653e f9b0 7dbe 8534 593e e090 e3bb
000000d0: a227 9d3e 1993 b43e 4579 b33e 715d 0fbe
000000e0: b541 263e 000c 943c bbb3 ac3d 0b6f b93c
000000f0: fca0 ff3d 519e 213e 9be4 d83d 104d 48bd

sequential_13/dense_87/BiasAdd/ReadVariableOp/resource f4 [32]
0.29554638 0.20288023 0.25698772 0.15720794 0.19125374 0.16805631 0.3748668 0.014810425
0.059400916 0.026961857 0.18242687 0.21177925 0.13874449 0.14832154 0.06863222 0.10820824
0.18477334 0.11609185 0.4355656 0.20091248 0.2730088 0.33361456 0.25701055 0.32114157
0.22545645 0.28352985 0.24670444 0.20166929 0.29704458 0.14981374 0.28290987 0.18875103
00000000: db51 973e d6bf 4f3e e593 833e 1efb 203e
00000010: 05d8 433e f416 2c3e 8bee bf3e 6da7 723c
00000020: 604e 733d 1ddf dc3c 1cce 3a3e a9dc 583e
00000030: 0913 0e3e 9ae1 173e 0d8f 8c3d 489c dd3d
00000040: 3935 3d3e 90c1 ed3d 7402 df3e 00bc 4d3e
00000050: cfc7 8b3e 87cf aa3e e396 833e ab6c a43e
00000060: 0ede 663e d32a 913e 17a0 7c3e 6582 4e3e
00000070: 3a16 983e c668 193e 90d9 903e f347 413e

sequential_13/dense_88/BiasAdd/ReadVariableOp/resource f4 [10]
-0.058573615 -0.26506242 0.29283932 0.006362553 -0.1009573 0.16448016 -0.079027236 -0.17089175
0.06606152 0.055921607
00000000: e3ea 6fbd 43b6 87be 09ef 953e f77c d03b
00000010: b3c2 cebd 7d6d 283e 08d9 a1bd 3ffe 2ebe
00000020: 434b 873d 0e0e 653d

sequential_13/dense_83/MatMul f4 [512, 17]
0.03511263 -0.009553795 0.23499769 0.10370537 -0.2267014 -0.08819413 -0.037678637 0.056621607
0.15683797 -0.081057735 -0.15422076 0.11869084 -0.13876644 -0.038346235 0.22691467 0.031759933
-0.03733752 -0.13650927 0.034805868 -0.053560596 -0.10995835 -0.045748524 0.0007048826 0.13185462
0.050920248 -0.14063741 -0.060575943 0.078747585 0.092793524 0.3354677 0.07025485 0.2569452
0.045133743 0.0077919336 -0.1518766 -0.017371032 -0.28063563 0.06860906 0.13017242 0.20026441
0.069567546 -0.034229774 -0.18906736 0.014803966 0.034883346 -0.034545243 0.098830886 0.23380695
0.15949076 -0.24661215 -0.010375375 0.06473915 0.029998446 -0.17728208 -0.055071726 0.059851844
0.0686035 -0.1901217 0.030391935 -0.10017424 0.0037334368 0.08887733 -0.0226415 -0.14266506
0.0009665071 0.42196488 0.22846653 0.008217151 0.1285236 0.0491378 -0.20256202 -0.3169448
0.017387165 -0.07715885 -0.07213007 -0.041637946 0.14690036 0.13156596 0.052232817 -0.062185384
0.20920886 -0.03448752 0.026009895 -0.056434143 -0.044695444 -0.18318184 0.09927484 -0.08059703
0.027904166 0.16540611 -0.024167344 -0.05599211 0.040667187 0.092965275 -0.04800379 0.1186487
0.015914485 -0.2590145 0.14936684 0.0063721654 0.1381889 -0.050947078 -0.12637585 0.045311734
0.19633049 -0.07489877 -0.022689408 0.07339128 -0.09478269 -0.116803035 0.122290224 -0.22588353
-0.14046492 0.1460846 -0.087806605 -0.18728226 -0.077891 -0.018820707 0.04895154 0.046697326
0.06012784 0.17138872 -0.00884516 -0.2094051 0.04761386 0.01424597 -0.19938758 -0.10020562
0.11823742 -0.11605064 0.12836829 0.20858558 0.052042194 -0.012347684 0.035540227 -0.0062119816
-0.053534977 -0.012121087 -0.3171189 0.23084828 0.044968385 -0.18864442 0.016455065 -0.050493944
-0.016969506 -0.018314427 0.07300887 -0.20253451 0.0015216974 -0.09076372 0.2134504 0.13911495
-0.034411814 0.05983356 0.0494598 -0.17087682 0.018526971 -0.15678588 -0.1516124 -0.056022342
-0.021534929 -0.07001226 0.11824039 0.043920286 0.079480395 -0.024826791 0.009553464 0.26572978
0.07852845 -0.007425075 -0.06606111 -0.06479521 -0.05418203 -0.028082918 -0.10273405 -0.08595058
0.08822367 -0.046850998 -0.14197189 0.07581504 -0.02615935 -0.05249653 -0.14264363 0.006075155
0.26086226 0.051309727 -0.076161064 0.16425578 0.11786171 0.08372902 0.098839864 -0.004223899
-0.08507605 -0.01473567 0.054445032 0.03643601 0.120151035 -0.13856979 0.16770111 0.041270737
0.0017445636 -0.029857557 -0.077376865 0.0021998484 -0.13451992 0.09364326 0.031311627 0.06502685
-0.11782065 0.07475913 -0.2174602 -0.09236055 0.022924326 0.18428116 0.20048796 0.038394354
0.23957832 0.045094304 0.15453285 0.11727909 0.04944233 -0.014695602 0.062565476 -0.24683772
0.19165312 -0.010428199 -0.27007103 0.018359737 -0.027919527 0.10774571 -0.006958742 -0.08230548
-0.10144687 0.037068024 -0.10387823 0.18109125 0.107682355 -0.019680753 0.17230314 -0.016853744
-0.00378594 0.10535269 0.16213676 0.05969674 -0.16863193 0.044666693 0.076156124 -0.0063177967
-0.0021656957 -0.10205754 -0.051875122 -0.13857746 -0.110525265 0.16220383 0.12708399 0.065529995
00000000: 43d2 0f3d 8587 1cbc 3ca3 703e 7b63 d43d
00000010: 6924 68be 209f b4bd ea54 1abd 0fec 673d
00000020: 229a 203e 9901 a6bd 0cec 1dbe 2f14 f33d
00000030: ca18 0ebe f110 1dbd 525c 683e b416 023d
00000040: 3aef 18bd 16c9 0bbe 9990 0e3d 5b62 5bbd
00000050: d831 e1bd ce62 3bbd dfc7 383a e604 073e
00000060: c091 503d 4103 10be 7b1e 78bd 6a46 a13d
00000070: 880a be3d 6cc2 ab3e c6e1 8f3d 528e 833e
00000080: 29de 383d 7a53 ff3b 8a85 1bbe b24d 8ebc
00000090: 79af 8fbe e882 8c3d eb4b 053e 1d12 4d3e
000000a0: 6e79 8e3d 8534 0cbd e09a 41be 558c 723c
000000b0: d7e1 0e3d 507f 0dbd d967 ca3d 176b 6f3e
000000c0: 8c51 233e e587 7cbe 7afd 29bc f695 843d
000000d0: 4dbf f53c 6f89 35be e492 61bd 3527 753d
000000e0: fe7f 8c3d 43af 42be 82f8 f83c 2728 cdbd
000000f0: adac 743b 5105 b63d ab7a b9bc ca16 12be
00000100: 325d 7d3a c80b d83e 21f3 693e 3ba1 063c
00000110: b19b 033e b844 493d 6b6c 4fbe 9746 a2be
00000120: 876f 8e3c 7605 9ebd eeb8 93bd 8d8c 2abd
00000130: 0c6d 163e 3ab9 063e 14f2 553d 1ab6 7ebd
00000140: d93a 563e c942 0dbd b412 d53c 7d27 67bd
00000150: 9212 37bd 0594 3bbe 9b50 cb3d 0e10 a5bd
00000160: 4797 e43c 3860 293e 98fa c5bc fc57 65bd
00000170: a392 263d 9464 be3d 9f9f 44bd 17fe f23d
00000180: 185f 823c 8c9d 84be 9ff3 183e 99cd d03b
00000190: 6481 0d3e e2ad 50bd ac68 01be cc98 393d
000001a0: dc0a 493e 8764 99bd 23df b9bc 2b4e 963d
000001b0: 6d1d c2bd 6e36 efbd 4c73 fa3d 034e 67be
000001c0: 09d6 0fbe 3497 153e f3d3 b3bd ecc6 3fbe
000001d0: 5185 9fbd e22d 9abc 6981 483d b245 3f3d
000001e0: 9c48 763d 8680 2f3e 4aeb 10bc 4a6e 56be
000001f0: c006 433d ee67 693c 422c 4cbe 9b38 cdbd
00000200: 7626 f23d f5ab edbd fa72 033e 7597 553e
00000210: 322a 553d f14d 4abc a192 113d e18d cbbb
00000220: 7e47 5bbd 8697 46bc 695d a2be 7e63 6c3e
00000230: c530 383d 012c 41be c6cc 863c bdd2 4ebd
00000240: a203 8bbc 2308 96bc ad85 953d 3565 4fbe
00000250: b173 c73a 54e2 b9bd be92 5a3e 2674 0e3e
00000260: 67f3 0cbd 0914 753d 5c96 4a3d 55fa 2ebe
00000270: e0c5 973c 7a8c 20be 4840 1bbe af77 65bd
00000280: 056a b0bc 9662 8fbd 0528 f23d c2e5 333d
00000290: 9ec6 a23d 8e61 cbbc 2286 1c3c bc0d 883e
000002a0: 86d3 a03d 0b4e f3bb 0c4b 87bd 5ab3 84bd
000002b0: faed 5dbd 260e e6bc 3b66 d2bd dc06 b0bd
000002c0: 9dae b43d d5e6 3fbd 1461 11be ea44 9b3d
000002d0: 224c d6bc 9a06 57bd 2c11 12be 1812 c73b
000002e0: bd8f 853e 262a 523d 55fa 9bbd ab32 283e
000002f0: 7b61 f13d 1f7a ab3d 8e6c ca3d a268 8abb
00000300: 5a3c aebd e16d 71bc c101 5f3d ed3d 153d
00000310: bf11 f63d 3de5 0dbe d7b9 2b3e 810b 293d
00000320: d7a9 e43a d697 f4bc c377 9ebd 552b 103b
00000330: 97bf 09be 0ac8 bf3d 9f40 003d cc2c 853d
00000340: f44b f1bd 511b 993d e3ad 5ebe 8727 bdbd
00000350: cccb bb3c 33b4 3c3e b74c 4d3e 6643 1d3d
00000360: 0554 753e ceb4 383d dc3d 1e3e 0530 f03d
00000370: 0a84 4a3d d2c5 70bc 5422 803d 07c3 7cbe
00000380: b740 443e 09db 2abc c046 8abe 2967 963c
00000390: 7eb7 e4bc c8a9 dc3d 2906 e4bb c78f a8bd
000003a0: 60c3 cfbd a4d4 173d 1cbe d4bd fc6f 393e
000003b0: 9188 dc3d 8839 a1bc 3c70 303e dd10 8abc
000003c0: 881d 78bb 27c3 d73d 2e07 263e 9284 743d
000003d0: d9ad 2cbe 6cf4 363d bef7 9b3d 8505 cfbb
000003e0: 58ee 0dbb 8b03 d1bd 027b 54bd 40e7 0dbe
000003f0: 125b e2bd c318 263e 4e22 023e 9734 863d

sequential_13/dense_84/MatMul f4 [256, 512]
0.16256373 0.14630115 0.08833866 0.057452884 -0.021858443 -0.18339545 -0.023608455 0.0070974836
-0.104774855 0.11695923 -0.047395542 -0.1427674 -0.15120903 -0.028077716 -0.005797586 0.027016506
0.03675614 -0.2643203 0.06810936 0.036204204 -0.0867626 -0.16743906 -0.21257727 -0.20653513
-0.09120595 -0.04747427 0.103152245 -0.28482738 0.08386633 -0.09923609 0.0013284055 0.024615416
0.075727925 0.016834123 -0.2928448 -0.121697925 0.07137507 0.13867956 -0.15659358 -0.010994846
-0.029438276 0.012251852 0.032524776 0.14247033 0.041423563 0.006533858 0.056515373 -0.058671523
0.07334591 0.02371012 -0.21794637 -0.31148195 -0.023132443 -0.053751875 -0.014174457 -0.33360064
0.02966643 0.101525865 -0.0236779 -0.0697571 -0.10675473 0.06629882 -9.250345e-06 0.023691919
-0.08636444 -0.045392323 0.025809232 0.07899291 0.010338982 0.12482771 0.034736644 0.09692899
-0.17248283 -0.0053276266 -0.029134208 -0.061766136 -0.14592464 0.15741548 -0.011414281 -0.14730968
-0.21940494 -0.13586223 -0.1870139 -0.25927284 0.117992826 0.059711616 -0.23114443 0.08556406
-0.07587661 0.11527485 0.016045993 -0.22789912 -0.40706334 -0.07765944 -0.043979004 -0.16025181
0.024829173 0.11736328 0.08804668 -0.039596904 -0.104400955 0.0061394693 -0.3591087 -0.29636452
-0.15288481 -0.032740157 0.030201854 -0.035654753 0.015559023 -0.10181011 0.06408061 -0.16546036
-0.06439788 0.04821737 -0.23449078 0.12656873 0.23300183 -0.1013397 -0.04070501 -0.23887955
0.051777154 -0.012443349 -0.00790329 0.13305627 0.026373412 -0.17162706 0.061981138 -0.01633529
-0.12580936 -0.004163657 -0.23251392 -0.14875731 0.14112882 -0.015398206 -0.07751606 0.14969665
-0.060450908 -0.12035983 -0.3109459 -0.07579597 0.04144372 -0.06943461 -0.14730123 0.26684693
0.059024874 -0.12698585 0.13692187 -0.0011061486 -0.018707762 -0.2201635 0.093410656 0.07915498
-0.007988291 -0.012864878 0.022565788 0.061856728 -0.15835623 -0.034382083 0.13388222 -0.21809655
-0.16626243 0.013833378 0.062447444 0.10454084 -0.027163338 -0.15351158 0.081796184 0.17125669
0.064711675 0.027817167 0.0906125 -0.07354778 0.019242873 0.051562686 0.11901604 -0.089547314
0.0671566 -0.18082277 -0.020755962 -0.039249226 -0.0140398545 0.035450667 0.074209884 0.17128602
-0.31417927 -0.13347203 0.030458495 -0.23163663 0.031847794 -0.077402085 0.091611244 -0.0829905
0.1586281 0.13025962 -0.32500243 0.05098804 -0.20746523 -0.0044172057 -0.13710023 0.055192508
0.13939375 -0.06649878 0.08246523 -0.20267998 -0.06642713 0.053781513 0.03488086 0.07935005
-0.04901966 0.07487243 -0.01506148 0.1160255 -0.046226043 -0.0057458766 -0.07977873 -0.092063904
0.023393024 -0.03462607 -0.23228927 0.018904956 0.104913935 0.18447593 0.057474025 0.14526892
0.014350236 0.0145515995 -0.19646104 -0.43798187 -0.07739004 -0.038008682 0.0483023 -0.0056361128
-0.34094864 0.016425602 0.13046817 -0.029017646 0.13515483 -0.065359965 -0.17189442 -0.06308557
0.017516848 0.04877057 -0.023789138 0.07281717 0.12519878 0.09741114 0.12990172 -0.08295348
-0.022834606 -0.18808451 -0.1355457 -0.10779401 -0.18927523 -0.03759762 -0.05632932 0.11000323
00000000: 1b77 263e f8cf 153e e6ea b43d b753 6b3d
00000010: 7a10 b3bc 04cc 3bbe 8566 c1bc 0292 e83b
00000020: 3394 d6bd 5288 ef3d d421 42bd 9e31 12be
00000030: 8ad6 1abe 3d03 e6bc adf9 bdbb b851 dd3c
00000040: 9b8d 163d fe54 87be ec7c 8b3d dc4a 143d
00000050: 97b0 b1bd 2575 2bbe dbad 59be f27d 53be
00000060: 2fca babd 6174 42bd 7c41 d33d e5d4 91be
00000070: 1cc2 ab3d 4b3c cbbd e41d ae3a 45a6 c93c
00000080: 3e17 9b3d b7e7 893c c1ef 95be c33c f9bd
00000090: 182d 923d 0402 0e3e 115a 20be ba23 34bc
000000a0: 8a28 f1bc febb 483c b338 053d bee3 113e
000000b0: c1ab 293d f919 d63b aa7c 673d 8d51 70bd
000000c0: 6136 963d ba3b c23c 552d 5fbe 907a 9fbe
000000d0: 4080 bdbc ed2a 5cbd fb3b 68bc b4cd aabe
000000e0: 0307 f33c cbec cf3d 28f8 c1bc cfdc 8ebd
000000f0: 39a2 dabd adc7 873d ee31 1bb7 8e15 c23c
00000100: d7df b0bd 4ded 39bd e26d d33c 09c7 a13d
00000110: d564 293c aca5 ff3d 0348 0e3d b582 c63d
00000120: 579f 30be 5f93 aebb ddaa eebc 7dfe 7cbd
00000130: 456d 15be 8631 213e f702 3bbc 59d8 16be
00000140: b0ab 60be 781f 0bbe 9280 3fbe 69bf 84be
00000150: 39a6 f13d 2b94 743d 20b1 6cbe 363c af3d
00000160: 3265 9bbd 3815 ec3d e372 833c 635e 69be
00000170: 9b6a d0be ea0b 9fbd 5423 34bd 0d19 24be
00000180: 8d66 cb3c 295c f03d d151 b43d 5d30 22bd
00000190: 2bd0 d5bd 9a2d c93b 18dd b7be 17bd 97be
000001a0: d68d 1cbe 8b1a 06bd e169 f73c b80a 12bd
000001b0: 46eb 7e3c d281 d0bd b23c 833d 716e 29be
000001c0: 09e3 83bd 947f 453d 5a1e 70be 3c9b 013e
000001d0: 0898 6e3e 308b cfbd 4cba 26bd d79c 74be
000001e0: 4814 543d 30df 4bbc cd7c 01bc e73f 083e
000001f0: 0e0d d83c 01bf 2fbe efdf 7d3d 96d1 85bc
00000200: 2bd4 00be 496f 88bb 2118 6ebe d653 18be
00000210: 1384 103e c248 7cbc bdc0 9ebd 144a 193e
00000220: 5f9b 77bd 377f f6bd 4d34 9fbe eb3a 9bbd
00000230: e4c0 293d bc33 8ebd 22d6 16be 29a0 883e
00000240: 11c4 713d 9408 02be 3f35 0c3e 30fc 90ba
00000250: 0541 99bc 8a72 61be 164e bf3d 021c a23d
00000260: 52e1 02bc 36c7 52bc e3db b83c 7b5d 7d3d
00000270: 2328 22be 3ad4 0cbd 6c18 093e b454 5fbe
00000280: b340 2abe 65a5 623c e4c8 7f3d 8219 d63d
00000290: a685 debc 2432 1dbe c284 a73d ea5d 2f3e
000002a0: 8e87 843d d4e0 e33c 0c93 b93d 38a0 96bd
000002b0: 3ba3 9d3c 6533 533d aebe f33d 9564 b7bd
000002c0: 6689 893d 9b29 39be 6808 aabc ccc3 20bd
000002d0: 6b07 66bc b834 113d 5afb 973d 9a65 2f3e
000002e0: 1bdc a0be e4ac 08be 1884 f93c 2732 6dbe
000002f0: d572 023d fc84 9ebd ad9e bb3d ecf6 a9bd
00000300: 686f 223e c762 053e b866 a6be d6d8 503d
00000310: c471 54be 35be 90bb 0164 0cbe 8a11 623d
00000320: 3cbd 0e3e 8330 88bd 88e3 a83d 578b 4fbe
00000330: f20a 88bd 014a 5c3d 3cdf 0e3d 4782 a23d
00000340: d7c8 48bd b756 993d 6dc4 76bc c79e ed3d
00000350: 8557 3dbd e847 bcbb 0863 a3bd 008c bcbd
00000360: baa2 bf3c 11d4 0dbd 3ddd 6dbe 91de 9a3c
00000370: 1edd d63d 42e7 3c3e e269 6b3d 60c1 143e
00000380: 411d 6b3c d569 6e3c 152d 49be 293f e0be
00000390: ab7e 9ebd feae 1bbd a2d8 453d 24af b8bb
000003a0: d290 aebe fc8e 863c 7399 053e 6ab6 edbc
000003b0: 0766 0a3e 72db 85bd 1705 30be 0233 81bd
000003c0: 7e7f 8f3c a6c3 473d 70e1 c2bc 2b21 953d
000003d0: 1c34 003e 7e7f c73d f504 053e 84e3 a9bd
000003e0: a40f bbbc 3a99 40be 7ecc 0abe 1bc3 dcbd
000003f0: 5ed1 41be f6ff 19bd 93b9 66bd 6049 e13d

sequential_13/dense_85/MatMul f4 [128, 256]
0.02785624 0.009210527 0.1441167 0.030673333 -0.07053938 0.0032884367 -0.037621576 -0.11535127
-0.16926727 -0.033091336 -0.092349075 0.16988896 0.14745532 -0.092445515 -0.39659628 -0.14662011
-0.030311171 0.12268185 0.1221301 -0.0058158804 -0.09187633 -0.021638457 0.13240294 -0.013508919
-0.13823234 0.0036767584 -0.26233715 -0.15521795 -0.07921685 -0.13854899 0.13157217 0.04620079
0.017858569 -0.35742348 0.037645105 -0.058225397 -0.16561899 -0.22623497 -0.17365305 0.025327208
-0.009690573 0.23131813 -0.16995497 -0.049978655 -0.07702898 -0.08425699 -0.18290551 -0.13599731
-0.20289671 0.018890465 0.06247896 0.074029475 0.101220034 0.20736493 -0.11802169 0.09904942
-0.02793973 -0.02843842 0.17889799 -0.18333094 -0.001409556 -0.09115905 0.15529907 -0.18708079
-0.06473633 -0.18979742 0.023720449 0.10402808 0.102689825 0.08790925 -0.008647277 -0.3002318
-0.28752694 -0.07559475 0.09967383 -0.04450194 0.096992955 -0.13562995 -0.022004357 0.14832868
-0.16714123 0.057056442 0.042922862 0.060605157 0.12946038 -0.07637592 0.026018856 0.06349763
-0.17539257 0.10419031 0.052882995 -0.29659837 0.03754528 -0.1411959 -0.04476656 -0.051066007
0.15551955 -0.0742245 -0.06721089 0.07893696 -0.058651477 0.0211706 -0.13593538 0.1725048
-0.36616856 -0.0483828 0.04027164 -0.2815633 -0.12634212 0.050584383 -0.027544422 0.0031377096
-0.010573976 -0.0029580756 -0.096583806 -0.09713172 -0.06528353 -0.026129264 -0.085600086 0.03219322
-0.22021 0.059234187 0.19998366 -0.19877578 -0.09555912 -0.1216585 -0.06669702 -0.13963576
0.12533931 0.14349146 0.05817436 0.23298493 -0.0586683 0.25049043 0.075032964 0.02272136
-0.10344169 -0.016198274 -0.06344871 0.12480667 0.022532037 0.007831497 0.011952715 -0.1275601
-0.2069194 0.0444179 -0.24798068 -0.1993579 -0.028494217 0.15190636 0.16114886 0.082598895
0.1895343 -0.16393538 0.038807128 0.034581546 -0.0099031655 0.031144967 0.03606576 -0.23733598
-0.30092022 -0.13081995 -0.00067958626 -0.025640385 0.09716442 -0.123200476 -0.29864153 0.18875825
-0.08982611 -0.10017406 0.006987124 0.11751712 0.13556628 -0.074367166 -0.1715732 -0.13065332
-0.012299546 -0.17760132 -0.41527516 -0.31371626 0.0027049794 0.1181053 -0.009118735 -0.14741457
-0.2936286 0.14657445 -0.06276399 -0.2960031 -0.0011347099 -0.34848672 0.009607142 0.041630518
-0.05784825 0.10775342 -0.31692806 -0.30431882 -0.18160392 -0.23499042 -0.23418018 -0.07820594
-0.11244118 -0.15074883 0.20375681 -0.27774 -0.053433113 -0.2658726 -0.22836801 0.014704964
-0.22239067 -0.2111549 -0.19216931 -0.019104121 0.038538422 0.017213898 0.15659386 -0.046638522
0.08292863 -0.19379373 -0.13876536 -0.13380751 -0.04652706 0.21774782 -0.2526521 -0.10992667
-0.27300844 -0.11788218 -0.04079383 -0.05279298 -0.24609962 0.06869903 0.17913903 -0.08248361
0.05598612 -0.23389113 -0.050818328 -0.14586352 0.10086571 -0.15058126 -0.09260952 -0.16127524
0.07393458 0.14100194 -0.0927751 -0.04841793 -0.05326347 0.01694712 -0.113820694 0.06889571
0.06505342 0.10916778 0.032170903 -0.2289507 -0.31512925 0.08090002 0.1185664 -0.09527356
00000000: c532 e43c c0e7 163c 5493 133e a446 fb3c
00000010: f376 90bd d082 573b 1519 1abd 493d ecbd
00000020: 6654 2dbe c88a 07bd 8321 bdbd 5ff7 2d3e
00000030: 87fe 163e 1354 bdbd ab0e cbbe 9523 16be
00000040: 224f f8bc 9f40 fb3d 591f fa3d 2493 bebb
00000050: a829 bcbd 2243 b1bc a394 073e 8354 5dbc
00000060: c78c 0dbe c5f5 703b 0e51 86be 74f1 1ebe
00000070: 723c a2bd c9df 0dbe dbba 063e 0a3d 3d3d
00000080: 224c 923c 3600 b7be c131 1a3d c17d 6ebd
00000090: 0698 29be 24aa 67be 1bd2 31be 017b cf3c
000000a0: 36c5 1ebc a9de 6c3e ad08 2ebe 6bb6 4cbd
000000b0: 5fc1 9dbd ee8e acbd 954b 3bbe e142 0bbe
000000c0: 28c4 4fbe 2dc0 9a3c f0e9 7f3d c49c 973d
000000d0: 734c cf3d 7957 543e 5bb5 f1bd 6cda ca3d
000000e0: dce1 e4bc b0f7 e8bc 0931 373e 1bbb 3bbe
000000f0: dac0 b8ba 99b1 babd b806 1f3e 1b92 3fbe
00000100: 7b94 84bd 415a 42be 6351 c23c ad0c d53d
00000110: 0b4f d23d c409 b43d 4fad 0dbc fcb7 99be
00000120: bb36 93be 6cd1 9abd cb21 cc3d ab47 36bd
00000130: 3ea4 c63d 94e2 0abe 7b42 b4bc 79e3 173e
00000140: 1227 2bbe 04b4 693d e2cf 2f3d 1d3d 783d
00000150: 4391 043e fa6a 9cbd 7f25 d53c 0c0b 823d
00000160: 1c9a 33be bb61 d53d d79b 583d bedb 97be
00000170: 14c9 193d a895 10be 245d 37bd 972a 51bd
00000180: 8440 1f3e 0403 98bd dda5 89bd b3a9 a13d
00000190: 883c 70bd f76d ad3c a532 0bbe 19a5 303e
000001a0: 727a bbbe 0b2d 46bd e0f3 243d 1129 90be
000001b0: d45f 01be 9231 4f3d d7a4 e1bc 08a2 4d3b
000001c0: 783e 2dbc 46dc 41bb bbcd c5bd ffec c6bd
000001d0: 5fb3 85bd 0a0d d6bc 194f afbd 0add 033d
000001e0: bb7e 61be 8c9f 723d 84c8 4c3e e18b 4bbe
000001f0: 80b4 c3bd 1728 f9bd 7298 88bd adfc 0ebe
00000200: f358 003e 6def 123e 3d48 6e3d 9a93 6e3e
00000210: 2c4e 70bd 4840 803e e2aa 993d 2522 ba3c
00000220: 3dd9 d3bd 3eb2 84bc 66f1 81bd a49a ff3d
00000230: 1b95 b83c ae4f 003c 52d5 433c 1d9f 02be
00000240: aee2 53be 8bef 353d a6ee 7dbe 7a24 4cbe
00000250: b46c e9bc 578d 1b3e 3504 253e 9c29 a93d
00000260: 4815 423e adde 27be 39f4 1e3d 61a5 0d3d
00000270: e340 22bc bb23 ff3c b1b9 133d 3408 73be
00000280: 3712 9abe aaf5 05be 4326 32ba c90b d2bc
00000290: 24fe c63d 8850 fcbd 8be7 98be d849 413e
000002a0: c0f6 b7bd 0f28 cdbd 3ff4 e43b d1ac f03d
000002b0: e3d1 0a3e d04d 98bd e3b0 2fbe fcc9 05be
000002c0: 0984 49bc 1fdd 35be f29e d4be 6b9f a0be
000002d0: 0646 313b 31e1 f13d bf66 15bc d8f3 16be
000002e0: 7d56 96be 9d17 163e 688a 80bd b88d 97be
000002f0: 8cba 94ba da6c b2be 4667 1d3c c384 2a3d
00000300: 49f2 6cbd d3ad dc3d 6544 a2be adcf 9bbe
00000310: 61f6 39be 54a1 70be eecc 6fbe 702a a0bd
00000320: 9047 e6bd e75d 1abe a0a5 503e f033 8ebe
00000330: aedc 5abd 7420 88be 4ed9 69be 17ed 703c
00000340: 61ba 63be fd38 58be 08c8 44be 3f80 9cbc
00000350: 77da 1d3d 2904 8d3c 245a 203e 0908 3fbd
00000360: 7cd6 a93d dd71 46be 8218 0ebe d604 09be
00000370: 2993 3ebd 49f9 5e3e 9e5b 81be 3c21 e1bd
00000380: c3c7 8bbe 366c f1bd 6e17 27bd 743d 58bd
00000390: 8a01 7cbe 14b2 8c3d 3970 373e 2bed a8bd
000003a0: b451 653d 2881 6fbe e126 50bd 3f5d 15be
000003b0: ae92 ce3d f931 1abe 0faa bdbd 5625 25be
000003c0: 036b 973d d062 103e df00 bebd e151 46bd
000003d0: cc2a 5abd b0d4 8a3c d31a e9bd 3219 8d3d
000003e0: ba3a 853d 5b93 df3d a3c5 033d 0d72 6abe
000003f0: 9f58 a1be e9ae a53d f1d2 f23d c91e c3bd

sequential_13/dense_86/MatMul f4 [64, 128]
-0.055249702 -0.034495935 -0.20050101 0.09018341 0.015372743 -0.05504108 0.18031035 0.061614532
0.12928282 0.016392747 -0.075923815 0.019615842 -0.061906427 -0.26351836 -0.2263117 -0.14528522
-0.10282738 0.19223222 -0.0071348855 0.28104827 -0.10348641 0.021794355 0.13267636 0.113900304
-0.043872666 -0.09284636 -0.11583959 0.13559671 0.049172655 -0.11406298 -0.34012946 0.1296487
0.067677505 -0.05554562 0.123300515 -0.06464372 -0.15382491 0.07501278 -0.07281248 0.09518178
0.045838393 0.015768912 0.23218215 -0.025287643 -0.18785994 -0.3014995 -0.016815532 -0.024573032
0.1088921 -0.071653776 -0.15564126 0.03396574 -0.14433362 0.06419062 -0.22353204 0.02481863
-0.0028607463 0.042705342 0.11798411 0.026575888 0.28258127 0.025108943 0.18218435 -0.29665172
0.064849064 -0.053290475 -0.2893673 0.030527456 0.19050017 0.11510819 0.09984962 0.033747166
0.03355785 0.16783243 -0.05633606 0.23990877 0.009781157 -0.031160302 0.2142827 -0.13373885
0.010618922 0.09134341 0.018494446 -0.023071842 0.15972264 0.15109816 0.06697752 -0.3003827
0.090879284 -0.23877528 -0.0846046 -0.18982618 0.10851176 0.31885013 0.25306144 0.19359018
-0.08914069 0.032039184 -0.19448669 -0.005495699 -0.08001227 0.08824404 -0.030553985 0.25593436
0.06199307 0.20873608 -0.32474506 0.09931312 -0.2273299 -0.089210324 0.14422427 -0.15002374
0.009924802 0.02415824 0.20343868 -0.08388713 0.048671152 0.28707296 -0.29885045 -0.092240706
0.21993761 -0.13704543 0.049814373 0.23954882 -0.013858467 -0.17923756 0.11866389 -0.33715665
0.084013335 0.025479391 0.08400799 0.15361407 -0.032683697 0.11483519 -0.017799411 0.10784595
0.018703502 0.11130546 0.18274903 0.026218627 0.13551761 0.11277735 0.13079351 -0.33683357
0.0914595 0.061423298 -0.11110746 0.030936016 -0.02087727 0.0060205343 0.22218983 0.048134394
0.03818428 -0.08226747 0.34361085 0.00058309623 -0.15510745 -0.17796513 -0.13499932 0.005024928
0.101757854 -0.23148148 0.20310555 0.104688235 -0.019267797 -0.12313365 -0.25514692 0.04413249
-0.08926502 -0.10253655 -0.02212385 -0.02641256 -0.053224392 0.043369807 -0.023356605 0.12574333
0.22357842 -0.30514005 -0.08886753 0.07577743 0.211194 -0.22017847 -0.17978083 -0.1401236
0.07141713 -0.06491218 -0.17311561 -0.123141 0.008798549 -0.1365162 -0.13366732 0.24965271
0.2046906 -0.3584586 0.0744378 0.068290085 0.16510361 -0.20644863 -0.16784932 -0.12427515
0.23873669 0.099427454 0.033996023 -0.030732002 -0.07360751 0.102156654 0.02474848 -0.011499367
0.14313103 -0.063493 -0.084071286 0.023509733 0.04283341 0.11571295 0.019155327 -0.19311522
-0.0836509 -0.21775474 -0.13420431 0.22268224 0.065340094 0.121220596 -0.04132462 0.21925601
0.06479894 0.06870193 0.23919661 0.09267348 0.035686105 0.051044177 0.2216827 0.23902899
-0.10770961 0.024725048 0.073110275 -0.093100466 -0.09248816 0.06061771 -0.16278902 -0.0803507
0.04857082 0.13364027 -0.119054615 0.035560798 0.16399108 -0.33624935 0.1597732 -0.19470824
-0.1058805 -0.071805336 -0.3072866 -0.10563511 -0.37456858 -0.025915151 0.118009456 -0.022449564
00000000: 834d 62bd 9c4b 0dbd 2350 4dbe 14b2 b83d
00000010: f5dd 7b3c c172 61bd 47a3 383e 855f 7c3d
00000020: b762 043e 154a 863c f27d 9bbd 67b1 a03c
00000030: 9891 7dbd e1eb 86be 41be 67be a6c5 14be
00000040: 2997 d2bd 86d8 443e c2cb e9bb 8fe5 8f3e
00000050: aff0 d3bd 138a b23c 50dc 073e 9044 e93d
00000060: d3b3 33bd 3b26 bebd 4f3d edbd ddd9 0a3e
00000070: 4469 493d da99 e9bd 7325 aebe a1c2 043e
00000080: 819a 8a3d ce83 63bd fb84 fc3d ed63 84bd
00000090: 4784 1dbe 4da0 993d b61e 95bd aaee c23d
000000a0: 0ac1 3b3d ce2d 813c 28c1 6d3e 0828 cfbc
000000b0: 5b5e 40be 245e 9abe bac0 89bc 624d c9bc
000000c0: d202 df3d 37bf 92bd 6c60 1fbe a91f 0b3d
000000d0: 31cc 13be 5f76 833d 95e5 64be 7150 cb3c
000000e0: 5c7b 3bbb cceb 2e3d a7a1 f13d adb5 d93c
000000f0: 7eae 903e 45b1 cd3c 898e 3a3e bce2 97be
00000100: 96cf 843d 1d47 5abd f327 94be b714 fa3c
00000110: 7a12 433e d8bd eb3d f57d cc3d 783a 0a3d
00000120: f573 093d 44dc 2b3e a4c0 66bd a5aa 753e
00000130: 2541 203c e443 ffbc ed6c 5b3e d6f2 08be
00000140: fdfa 2d3c 4112 bb3d aa81 973c 2901 bdbc
00000150: 558e 233e 7ab9 1a3e 832b 893d c3cb 99be
00000160: eb1e ba3d 8281 74be 2d45 adbd cb61 42be
00000170: 6a3b de3d 5340 a33e 4591 813e 813c 463e
00000180: 658f b6bd 853b 033d 8527 47be 4415 b4bb
00000190: 79dd a3bd 4bb9 b43d 5a4c fabc d409 833e
000001a0: 72ec 7d3d e9be 553e fc44 a6be ad64 cb3d
000001b0: 2bc9 68be e7b3 b6bd 87af 133e d39f 19be
000001c0: a39b 223c 80e7 c53c 3b52 503e 04cd abbd
000001d0: 675b 473d 3afb 923e ed02 99be b2e8 bcbd
000001e0: 5337 613e a355 0cbe 280a 4c3d 494c 753e
000001f0: a00e 63bc 0d8a 37be 0e06 f33d cc9f acbe
00000200: 2f0f ac3d 28ba d03c 620c ac3d 024d 1d3e
00000210: 57df 05bd b62e eb3d 12d0 91bc 56de dc3d
00000220: 1638 993c 1ef4 e33d 9022 3b3e 72c8 d63c
00000230: 21c5 0a3e d0f7 e63d bcee 053e 7375 acbe
00000240: 1e4f bb3d ff96 7b3d 4f8c e3bd 876d fd3c
00000250: cf06 abbc e747 c53b bb85 633e 9228 453d
00000260: 1f67 1c3d d97b a8bd c3ed af3e edda 183a
00000270: 7dd4 1ebe 7e3c 36be 433d 0abe 27a8 a43b
00000280: 6c66 d03d 7b09 6dbe e7fa 4f3e c966 d63d
00000290: 80d7 9dbc 7f2d fcbd 9ea2 82be 45c4 343d
000002a0: 94d0 b6bd affe d1bd 143d b5bc 275f d8bc
000002b0: d201 5abd 8aa4 313d 5a56 bfbc dcc2 003e
000002c0: bef1 643e 513b 9cbe 2e00 b6bd 3231 9b3d
000002d0: 3d43 583e 7776 61be 7718 38be 907c 0fbe
000002e0: 2543 923d adf0 84bd 3845 31be 5931 fcbd
000002f0: ca27 103c e7ca 0bbe 16e0 08be f6a4 7f3e
00000300: 6a9a 513e e387 b7be d872 983d acdb 8b3d
00000310: ec10 293e 4567 53be b1e0 2bbe f883 febd
00000320: 6477 743e 9fa0 cb3d 6a3f 0b3d aec1 fbbc
00000330: 89bf 96bd 8237 d13d 53bd ca3c d767 3cbc
00000340: f190 123e 9e08 82bd 912d acbd 7c97 c03c
00000350: 1672 2f3d e9fa ec3d a2eb 9c3c ffbf 45be
00000360: 2a51 abbd 19fb 5ebe db6c 09be d006 643e
00000370: 07d1 853d 8142 f83d 0144 29bd a684 603e
00000380: 4fb5 843d 99b3 8c3d f5ef 743e 98cb bd3d
00000390: 982b 123d b313 513d ca00 633e 04c4 743e
000003a0: db96 dcbd 2f8c ca3c d7ba 953d 75ab bebd
000003b0: 6f6a bdbd 474a 783d 2ab2 26be e88e a4bd
000003c0: 32f2 463d ffd8 083e e8d2 f3bd 33a8 113d
000003d0: 47ed 273e e028 acbe 969b 233e 9961 47be
000003e0: e0d7 d8bd ad0e 93bd ab54 9dbe 3857 d8bd
000003f0: 74c7 bfbe 034c d4bc f1ae f13d 26e8 b7bc

sequential_13/dense_87/MatMul f4 [32, 64]
0.13075188 0.34678513 0.20545542 -0.23499379 -0.024079483 0.035169348 -0.15637729 -0.25971165
0.34718204 -0.087825194 0.107402556 0.0012000437 -0.048025787 -0.30118787 -0.053368878 -0.11880568
-0.025958065 0.07088917 0.1106526 -0.19811943 -0.38747433 -0.19152631 0.27716243 -0.06653589
-0.008959745 0.06827257 -0.016937608 -0.027918601 0.29210156 -0.03551273 -0.036487985 -0.34358683
-0.1986878 -0.028513826 -0.010770791 0.19660741 -0.05070095 0.13484758 -0.07257672 -0.06020383
0.19036214 -0.07189051 0.23194477 0.03504033 0.023970328 -0.12974843 -0.006726687 0.25995412
0.12586412 -0.14908433 0.32087207 0.009134074 0.18352544 0.09843596 0.03131886 0.10690802
-0.3636465 0.19126578 -0.026098462 -0.13945267 0.30336824 0.08535263 0.029231695 0.35327542
0.26048285 -0.08617585 0.1211629 0.24178436 0.073491774 -0.072347976 -0.005952746 0.033567768
-0.15717815 -0.14042303 0.1727607 0.14582399 0.29063457 0.09591034 0.07640562 -0.17159815
0.11510407 -0.12686135 -0.13769792 0.28973088 0.1898329 0.2663832 0.08079009 -0.017444165
0.25604537 0.13239506 0.07422583 -0.20236334 -0.18508814 -0.44294256 -0.053376433 -0.051541682
0.11472619 0.2587062 -0.19263355 0.04566314 -0.10266301 -0.12991928 0.11008687 -0.013457425
-0.18162885 0.035249114 -0.008512049 0.044689067 -0.15236667 0.20911291 0.38302577 -0.33654258
-0.068907075 0.079002365 -0.14671277 -0.20898052 -0.18534715 0.4453818 -0.06776404 -0.0070460415
0.20277849 0.43552008 -0.0503071 0.20024034 -0.25385216 0.2620218 -0.35929507 0.10937859
0.0808345 -0.10702049 -0.13513239 -0.30588216 -0.020043917 0.17400812 -0.15031663 0.14588349
-0.08457325 0.022366885 -0.23005146 0.2326349 0.0099393325 0.2285274 0.2703457 0.15996185
-0.083084784 -0.27314723 -0.27935874 -0.23260479 0.0157378 -0.102081396 -0.00875455 0.38854492
0.23964585 0.20736027 0.23441637 0.13373904 0.048324306 0.1132058 -0.16623707 -0.06512478
0.2879674 0.007341261 0.045138467 -0.1355065 -0.17607112 0.12801501 -0.13687754 -0.007932726
0.031007383 0.24244645 0.04873015 0.21451913 -0.015784163 -0.17209081 0.06513653 0.19748294
0.10354232 -0.40629622 -0.07916662 0.1340263 0.26364574 0.11719304 0.0067825527 0.18584122
0.37928373 -0.17503959 -0.084146686 -0.11570281 0.1412181 -0.34438953 0.085493915 -0.38943356
-0.34066752 -0.21122369 -0.13041538 0.07430369 -0.0774863 0.11016374 0.19003086 0.2476708
-0.050377585 0.033966087 0.018811788 -0.062131807 -0.27118403 -0.02746275 -0.033235744 -0.015067501
0.0106315855 -0.19712394 -0.10989216 -0.04624083 0.1392524 -0.13012728 -0.042442817 -0.2221603
0.12999256 0.23956093 0.4032106 0.20090117 0.26753908 -0.19380789 0.079716556 -0.3880195
0.07226923 -0.2916279 0.263957 0.27703628 -0.029577656 -0.0340202 -0.082978204 0.1443456
-0.11159346 -0.14810197 0.055388443 0.15692544 0.14932984 -0.1487545 -0.30810326 0.14496677
0.13693903 -0.3707948 0.11712406 -0.21607314 -0.056834742 -0.10286719 0.33354455 -0.07131969
0.27008492 -0.17387559 -0.0341617 0.114720434 0.12707068 -0.29090375 0.16915856 0.19106717
00000000: d2e3 053e d28d b13e e862 523e 36a2 70be
00000010: 5642 c5bc bc0d 103d 5e21 20be edf8 84be
00000020: d8c1 b13e b2dd b3bd dff5 db3d c94a 9d3a
00000030: b0b6 44bd 4c35 9abe 5399 5abd 6450 f3bd
00000040: 02a6 d4bc 572e 913d d59d e23d d2df 4abe
00000050: 0963 c6be 791f 44be 3ce8 8d3e f843 88bd
00000060: e5cb 12bc 7dd2 8b3d bdc0 8abc 8db5 e4bc
00000070: 568e 953e cc75 11bd 6d74 15bd 9dea afbe
00000080: d174 4bbe d495 e9bc f977 30bc 7453 493e
00000090: cdab 4fbd 7c15 0a3e 1aa3 94bd 4b98 76bd
000000a0: 4bee 423e 553b 93bd ee82 6d3e 7386 0f3d
000000b0: 6c5d c43c c6dc 04be 8a6b dcbb b518 853e
000000c0: 86e2 003e 90a9 18be 5849 a43e 15a7 153c
000000d0: 18ee 3b3e cb98 c93d 3448 003d 98f2 da3d
000000e0: e02f babe 2ddb 433e 71cc d5bc aecc 0ebe
000000f0: 1553 9b3e 5ccd ae3d 4f77 ef3c 84e0 b43e
00000100: 025e 853e f77c b0bd 4124 f83d 5296 773e
00000110: db82 963d 2d2b 94bd 410f c3bb 5b7e 093d
00000120: 4ff3 20be 0ecb 0fbe 2ee8 303e e252 153e
00000130: 0ece 943e a46c c43d 8d7a 9c3d 6db7 2fbe
00000140: afbb eb3d f1e7 01be af00 0dbe 9b57 943e
00000150: 8e63 423e 6163 883e 4675 a53d 11e7 8ebc
00000160: 6118 833e 9292 073e b603 983d 5638 4fbe
00000170: bf87 3dbe 5ec9 e2be 3fa1 5abd 5f1d 53bd
00000180: 91f5 ea3d 2475 843e bb41 45be 4609 3b3d
00000190: fc40 d2bd 8f09 05be 3a75 e13d 887c 5cbc
000001a0: eafc 39be 6061 103d 1f76 0bbc e20b 373d
000001b0: 0206 1cbe b221 563e f41b c43e 4f4f acbe
000001c0: 271f 8dbd fecb a13d df3b 16be fdfe 55be
000001d0: a5cb 3dbe 1509 e43e dfc7 8abd 7be2 e6bb
000001e0: 2aa5 4f3e 7dfc de3e d10e 4ebd ce0b 4d3e
000001f0: e9f8 81be b927 863e 86f5 b7be e201 e03d
00000200: 8f8c a53d 8f2d dbbd 2560 0abe 969c 9cbe
00000210: 2433 a4bc 2f2f 323e 9aec 19be 7b62 153e
00000220: bd34 adbd c23a b73c 9c92 6bbe d837 6e3e
00000230: 95d8 223c 1603 6a3e c06a 8a3e 0acd 233e
00000240: 5b28 aabd f4d9 8bbe 1c08 8fbe f32f 6ebe
00000250: 8fec 803c 0d10 d1bd 3e6f 0fbc 5cef c63e
00000260: b965 753e 4056 543e d80a 703e e3f2 083e
00000270: b5ef 453d 71d8 e73d 0d3a 2abe 2460 85bd
00000280: 7770 933e f68e f03b 1de3 383d 37c2 0abe
00000290: fd4b 34be 5e16 033e a029 0cbe 44f8 01bc
000002a0: 3203 fe3c e243 783e 4499 473d e7aa 5b3e
000002b0: ca4d 81bc 9338 30be 4d66 853d f838 4a3e
000002c0: ff0d d43d 0f06 d0be 1c22 a2bd 313e 093e
000002d0: 93fc 863e e802 f03d 2d40 de3b 294d 3e3e
000002e0: 7a31 c23e 943d 33be 1955 acbd 98f5 ecbd
000002f0: 7a9b 103e d353 b0be 6f17 af3d d663 c7be
00000300: f96b aebe 064b 58be 9c8b 05be 882c 983d
00000310: 23b1 9ebd 879d e13d 7397 423e 6a9d 7d3e
00000320: ba58 4ebd 0620 0b3d 2e1b 9a3c ec7d 7ebd
00000330: a2d8 8abe 90f9 e0bc 3422 08bd aedd 76bc
00000340: 1a30 2e3c dcda 49be 240f e1bd 0667 3dbd
00000350: 2e98 0e3e 1640 05be 85d8 2dbd fd7d 63be
00000360: c51c 053e 764f 753e 9f71 ce3e 09b9 4d3e
00000370: e2fa 883e 9375 46be 6f42 a33d 7eaa c6be
00000380: e401 943d 4150 95be 5f25 873e b3d7 8d3e
00000390: d74c f2bc c458 0bbd 7af0 a9bd 55cf 133e
000003a0: 1d8b e4bd 0ba8 17be fede 623d 10b1 203e
000003b0: ece9 183e 1a53 18be b6bf 9dbe 2b72 143e
000003c0: bf39 0c3e d1d8 bdbe bdde ef3d 4742 5dbe
000003d0: 8ccb 68bd 09ac d2bd 5ac6 aa3e 0f10 92bd
000003e0: 9248 8a3e 710c 32be 24ed 0bbd 8cf2 ea3d
000003f0: d11e 023e 56f1 94be e737 2d3e 1da7 433e
