Android_Studio_Projects/app/src/main/ml/model.tflite (tflite, 741408 bytes, 14 tensors)

sequential_15/dense_113/BiasAdd/ReadVariableOp/resource f4 [512]
0	0xbe4754b8	-0.19465911
1	0xbb7536c0	-0.0037416667
2	0xbecc97b1	-0.3995948
3	0xbd3a0617	-0.045415964
4	0xbdc01b02	-0.09380151
5	0x3bd78b4b	0.0065778843
6	0xbdfef172	-0.12448396
7	0xbe5cd87b	-0.21566956
8	0xbeb7834f	-0.35842368
9	0xbe983a3c	-0.2973193
10	0xbe57077a	-0.20998946
11	0xbeb2b070	-0.34900236
12	0xbe24b8e3	-0.16086154
13	0xbe9447e8	-0.2896111
14	0xbf042d4f	-0.51631635
15	0xbea0dcb2	-0.31418377
16	0xbd0598e8	-0.032616526
17	0xbe849a41	-0.25898936
18	0xbeb6f791	-0.35735753
19	0xbe828e13	-0.2549902
20	0xbde9025d	-0.11377404
21	0xbe29bbbf	-0.16575526
22	0xbe961058	-0.29309344
23	0xbe81c092	-0.25342232
24	0xbe669897	-0.22519146
25	0xbe54b2b4	-0.20771295
26	0xbe8a1a48	-0.26973176
27	0xbe827111	-0.25476888
28	0xbea823dc	-0.3283986
29	0xbe885978	-0.2663076
30	0xbe8615b5	-0.26188436
31	0xbe064246	-0.13111219
32	0xbed6918f	-0.41907927
33	0xbe827c72	-0.2548557
34	0xbe6f1484	-0.2334767
35	0xbe4b5879	-0.19857968
36	0xbece1577	-0.4025075
37	0xbddcfb7f	-0.107901566
38	0xbe39d784	-0.18148619
39	0xbe836bce	-0.25668186
40	0xbe857418	-0.26065135
41	0xbea14f5c	-0.3150586
42	0xbdf82500	-0.12116432
43	0xbea0f43f	-0.31436345
44	0xbe9ac588	-0.3022883
45	0xbe552017	-0.20813023
46	0xbe965faf	-0.29369876
47	0xbde17d8d	-0.11010275
48	0xb917f95a	-0.00014493373
49	0xbddbda27	-0.10734969
50	0xbec61b26	-0.38692588
51	0xbdad03a0	-0.08447957
52	0xbe6a0772	-0.22854403
53	0xbed1c801	-0.40972903
54	0xbe6722d9	-0.22571887
55	0xbecd1ead	-0.40062466
56	0x3be2feee	0.0069273626
57	0xbeb89fe0	-0.36059475
58	0xbdacf739	-0.084455915
59	0xbeae6346	-0.34060115
60	0xbe4be830	-0.19912791
61	0xbe910fa7	-0.28332254
62	0xbe6f905a	-0.2339491
63	0xbe66edbd	-0.22551627
64	0x3bd080c9	0.0063630086
65	0xbe42a33e	-0.19007584
66	0xbe4bee76	-0.19915184
67	0xbe3364f8	-0.17518985
68	0xbea1fcec	-0.31638277
69	0xbe5b64f3	-0.21425228
70	0xbe7b593f	-0.24545763
71	0xbe4a21fa	-0.19739524
72	0xbeaccfcf	-0.33752295
73	0xbe425c70	-0.18980575
74	0xbe77094b	-0.24124639
75	0xbed8f7d6	-0.42376584
76	0xbe1b0b56	-0.15141043
77	0xbeb70996	-0.357495
78	0xbe61b242	-0.22040656
79	0xbd90740b	-0.070533834
80	0xbe0cad5f	-0.13738011
81	0xbe338251	-0.1753018
82	0xbe747468	-0.2387253
83	0xbed49f27	-0.41527674
84	0xbe71ec5f	-0.23625325
85	0xbe9695ea	-0.2941125
86	0x3d399bed	0.045314718
87	0xbde231d0	-0.11044657
88	0x3d8d77b5	0.06907598
89	0xbe685561	-0.2268882
90	0xbe9fa5f8	-0.31181312
91	0xbe6cc575	-0.23122199
92	0xbec37528	-0.3817532
93	0xbe9efd57	-0.31052658
94	0xbe99c688	-0.3003428
95	0xbe4bc91b	-0.19900934
96	0xbee5bdaf	-0.4487128
97	0xbe764ad8	-0.24051988
98	0xbe7fcf40	-0.24981403
99	0xbef4a8f3	-0.47785148
100	0xbdd1408b	-0.10217389
101	0xbeb85b8f	-0.36007354
102	0xbdd10911	-0.102068074
103	0xbe60579f	-0.21908425
104	0xbe454707	-0.19265376
105	0xbe5db26e	-0.21650097
106	0xbd707e3e	-0.058714144
107	0xbe28ddfa	-0.16490927
108	0xbec90536	-0.39261788
109	0xbe8d0a34	-0.27546847
110	0xbebe07fd	-0.3711547
111	0xbe3f7149	-0.18695559
112	0xbe80d9a6	-0.25166053
113	0xbed02dde	-0.40659994
114	0xbec4f724	-0.38469803
115	0xbe793420	-0.2433629
116	0xbd4bf654	-0.049795464
117	0xbeaa70bb	-0.33289132
118	0xbe110476	-0.14161858
119	0xbea1cf0f	-0.31603286
120	0xbe9633c7	-0.29336378
121	0xbe3f240b	-0.18666093
122	0xbe676fe6	-0.2260128
123	0xbe207a15	-0.1567157
124	0xbebcd220	-0.36879063
125	0xbe25ed6d	-0.16203852
126	0xbe574ee9	-0.21026196
127	0xbea723d7	-0.3264453
128	0xbeaf82d4	-0.342795
129	0xbe00f81a	-0.12594643
130	0xbe56e66b	-0.20986335
131	0xbd97a2e8	-0.07404119
132	0xbe5e025c	-0.21680588
133	0xbd960362	-0.07324864
134	0xbebd17a7	-0.36932108
135	0xbe82f775	-0.2557942
136	0xbed62b06	-0.418297
137	0xbe1c9fea	-0.15295377
138	0xbea1477c	-0.3149985
139	0xbe8a572d	-0.27019635
140	0xbed56581	-0.41679004
141	0xbe3f5799	-0.1868576
142	0xbeabe667	-0.3357422
143	0xbe5c03cc	-0.21485823
144	0xbe9da859	-0.30792502
145	0xbe8fe6e6	-0.2810585
146	0xbe45e033	-0.19323806
147	0xbea89138	-0.32923293
148	0xbea8e396	-0.32986134
149	0xbe7f2d12	-0.24919537
150	0xbebc94c9	-0.36832264
151	0xbde346dd	-0.110975005
152	0xbe5dea92	-0.21671513
153	0xbeb5964a	-0.35466224
154	0x3989372f	0.0002617179
155	0xbe164cad	-0.14677687
156	0xbde09751	-0.10966361
157	0xbe3c3e26	-0.18383083
158	0xbe7d0bc5	-0.24711521
159	0xbe8a30b1	-0.26990274
160	0xbe9f17cc	-0.31072843
161	0xbeb31f4a	-0.3498481
162	0xbe27a87e	-0.16372868
163	0xbdad223e	-0.08453797
164	0xbead248c	-0.33816946
165	0xbe0afbce	-0.13572618
166	0xbf145e07	-0.57955974
167	0xbdfb5c4e	-0.12273465
168	0xbd98a750	-0.07453787
169	0xbe19aef1	-0.15008141
170	0xbe844564	-0.2583419
171	0xbea0446d	-0.31302205
172	0xbddb2fa8	-0.10702449
173	0xbe9c8fb0	-0.30578375
174	0xbeae6a91	-0.3406568
175	0xbe71d962	-0.23618081
176	0xbde510dc	-0.11184856
177	0xbddae2a2	-0.10687758
178	0xbe1935f7	-0.14961992
179	0xbe67fca8	-0.22654974
180	0xbe4588c3	-0.19290452
181	0xbec55ecf	-0.38548896
182	0xbe068a3d	-0.13138671
183	0xbe5b0f1a	-0.2139248
184	0xbddc8264	-0.107670575
185	0xbd8f0f2d	-0.069853164
186	0xbe7ace34	-0.24492723
187	0xbea3f96d	-0.32026234
188	0xbda01f10	-0.07818425
189	0xbe39b5b2	-0.18135718
190	0xbeb0906f	-0.34485194
191	0xbedd85dc	-0.4326619
192	0xbea9a8c8	-0.33136582
193	0xbec3ea9f	-0.3826494
194	0xbe392f9e	-0.18084571
195	0xbe54914b	-0.2075855
196	0xbe7652d5	-0.24055035
197	0xbe3f19e1	-0.18662216
198	0xbe34fa3d	-0.17673583
199	0xbee4a5ce	-0.4465775
200	0xbe8a5cf7	-0.27024052
201	0x3cd66e79	0.026175724
202	0xbe900f76	-0.28136796
203	0xbe4b12e5	-0.19831426
204	0xbe44b470	-0.19209456
205	0xbe10be58	-0.1413511
206	0xbd5c2b81	-0.053752426
207	0xbcbdeb41	-0.023183467
208	0xbd9d9548	-0.07694489
209	0xbe5fad46	-0.21843442
210	0xbe8d11e5	-0.27552715
211	0xbdc5ce70	-0.096585155
212	0xbe756bfb	-0.23966973
213	0xbe921589	-0.28532055
214	0xbd9455d8	-0.07242936
215	0xbe8598bc	-0.2609309
216	0xbea5f299	-0.3241165
217	0xbe4f7985	-0.202612
218	0xbec7a80b	-0.38995394
219	0xbed9bcc3	-0.42526826
220	0xbe6c03a3	-0.23048262
221	0xbeb023ba	-0.34402257
222	0xbea9ce9a	-0.33165437
223	0xbe16f556	-0.14742026
224	0xbea692b1	-0.32533792
225	0xbd86f578	-0.06589788
226	0xbe469283	-0.19391827
227	0xbeac3a79	-0.3363836
228	0xbea82766	-0.3284256
229	0xbd6573d1	-0.056018654
230	0xbeb37f52	-0.35058075
231	0xbeac2103	-0.33618936
232	0xbe0a51f5	-0.13507827
233	0xbe8bc962	-0.2730208
234	0xbe9ee6b4	-0.31035388
235	0xbed18229	-0.40919617
236	0xbede6879	-0.4343908
237	0xbe458489	-0.1928884
238	0xbee02062	-0.43774706
239	0xbea940cb	-0.33057246
240	0xbead2329	-0.33815888
241	0xbec03785	-0.37542358
242	0xbe649465	-0.22322233
243	0xbec4ea3e	-0.38459963
244	0xbe5e9329	-0.21735825
245	0xbeb83b5f	-0.35982797
246	0xbe8ce0ad	-0.27515164
247	0xbeab4f57	-0.3345897
248	0xbd06f6a6	-0.032950066
249	0xbe9517f3	-0.29119834
250	0xbe8b6e64	-0.2723266
251	0xbe12c198	-0.14331663
252	0xbeba8a3f	-0.36433598
253	0xbe9a49c5	-0.30134407
254	0xbe9aacc4	-0.30209935
255	0xbe8c292c	-0.27375162

sequential_15/dense_114/BiasAdd/ReadVariableOp/resource f4 [256]
0	0xbe13ee6a	-0.14446416
1	0xbe21e7b0	-0.15811038
2	0x3e2f1f28	0.17101729
3	0xbe14582e	-0.14486763
4	0xbd6e7b58	-0.0582231
5	0x3e9326e1	0.287406
6	0xbda5067f	-0.0805788
7	0xbe4d7ac6	-0.20066366
8	0xbe1f3587	-0.15547763
9	0xbd6fa14e	-0.05850344
10	0x3e09b8a4	0.13449341
11	0x3e97e4c0	0.2966671
12	0xbd1a12f4	-0.03761573
13	0xbcad25aa	-0.021136124
14	0xbe4a3bdf	-0.19749402
15	0x3c6e86ef	0.014558538
16	0xbda51d24	-0.08062199
17	0xbe8bb12b	-0.27283606
18	0xbea80b53	-0.3282114
19	0xbd943d6e	-0.07238279
20	0xbe9c291c	-0.30500114
21	0xbdb96458	-0.09052342
22	0xbd623e51	-0.05523521
23	0x3e74fe2a	0.23925081
24	0x3d04804b	0.032348912
25	0xbe9bb283	-0.3040963
26	0xbe94ab4f	-0.29036948
27	0xbe03a024	-0.12854058
28	0xbebaa21d	-0.36451808
29	0xbdef461e	-0.11683296
30	0xbd76864d	-0.060186673
31	0x3c7d6120	0.015465051
32	0x3d5c27e0	0.053748965
33	0x3d35f137	0.044419494
34	0xbb3da8f1	-0.0028939808
35	0xbe369bfb	-0.1783294
36	0x3e082564	0.13295513
37	0xbe87a069	-0.2648957
38	0xbe58397b	-0.21115677
39	0x3dad6466	0.08466415
40	0xbe19e2d0	-0.15027928
41	0xbe180a01	-0.14847566
42	0xbd593cd6	-0.053036533
43	0xbda562c9	-0.080754824
44	0xbe38dbe5	-0.18052633
45	0xbc8e7fcb	-0.01739492
46	0xbec2dffd	-0.38061514
47	0xbd8e4bec	-0.06948075
48	0xbefe41d7	-0.49659607
49	0xbdca6203	-0.098819755
50	0x3daddc08	0.08489233
51	0xbdabc53e	-0.0838723
52	0xbeb5048b	-0.3535503
53	0xbe1bbe8e	-0.1520941
54	0xbd627a25	-0.055292267
55	0x3d896de2	0.067104116
56	0x3e50ea8d	0.20401974
57	0xbe054718	-0.13015401
58	0xbd7e20e6	-0.062043093
59	0x3e6724c7	0.22572623
60	0xbdf5cdaf	-0.12002122
61	0xbda48512	-0.08033194
62	0x3e03cc53	0.12870912
63	0xbe19489e	-0.14969108
64	0x3e9f18f9	0.3107374
65	0x3e327bbd	0.17430015
66	0x3e8cbdd5	0.2748858
67	0xbeb065aa	-0.34452564
68	0xbd57bc32	-0.05266971
69	0xbe563372	-0.20918062
70	0xbe8254c1	-0.25455287
71	0xbeb6c485	-0.35696808
72	0xbd86ad03	-0.06575968
73	0xbea57b27	-0.3232052
74	0xbe5b1096	-0.21393046
75	0xbcb1b0d8	-0.021690771
76	0xbd43562e	-0.04768961
77	0xbdee52a9	-0.1163686
78	0xbe9f10bc	-0.31067455
79	0xbd84d6c1	-0.064862736
80	0xbdef3591	-0.11680139
81	0x3ddf5be7	0.10906201
82	0x3e577e40	0.21044254
83	0xbe26a254	-0.16272861
84	0x3d57197d	0.052514542
85	0x3d6174b2	0.05504293
86	0xbea92982	-0.3303948
87	0x3dcf9460	0.10135722
88	0xbe879d62	-0.2648726
89	0x3e801829	0.25018433
90	0xbe0d4659	-0.13796367
91	0xbdc1fcc8	-0.09472042
92	0xbd8d2c5e	-0.06893228
93	0xbebfe610	-0.3748021
94	0xbe4c1ae9	-0.1993214
95	0xbe92ae1f	-0.2864847
96	0xbdf60eff	-0.12014579
97	0xbe6df1fa	-0.23236838
98	0xbef01291	-0.46889165
99	0xbe263cdd	-0.16234155
100	0xbed1dfa2	-0.4099093
101	0xbeac1151	-0.3360696
102	0xbd80902e	-0.062775
103	0x3de84776	0.11341755
104	0xbe1ba644	-0.15200144
105	0x3dd1178a	0.10209568
106	0xbe92a303	-0.28639993
107	0xbe38a7b3	-0.18032722
108	0xbe9198dc	-0.28436935
109	0xbe4ef00a	-0.20208755
110	0xbd7d1e01	-0.061796192
111	0xbe84f59d	-0.25968638
112	0xbe69cfb5	-0.2283314
113	0xbe83cb82	-0.25741202
114	0xbe9d93cf	-0.30776832
115	0xbe5a3b8a	-0.21311775
116	0xbdc6be5e	-0.097042784
117	0xbe9e1a7f	-0.3087959
118	0xbdb12831	-0.08650244
119	0x3d29d2b2	0.0414607
120	0xbe3c69ce	-0.18399736
121	0x3ccf66f4	0.025317647
122	0xbdd47cd6	-0.10375373
123	0x3e8410fd	0.2579421
124	0xbd5fe00f	-0.05465704
125	0xbe8d73cc	-0.27627409
126	0xbe66717e	-0.22504231
127	0xbe2d2cd0	-0.16911626
128	0xbd86ef6c	-0.06588635
129	0xbe766aae	-0.24064133
130	0xbac6b6db	-0.0015160696
131	0xbe91740f	-0.28408858
132	0x3e35b5b5	0.17745097
133	0x3df41c01	0.11919404
134	0xbe1b8d36	-0.15190586
135	0xbeb45a67	-0.35225222
136	0xbeec7afb	-0.46187577
137	0x3e418a2d	0.18900366
138	0x3d8e34e4	0.06943682
139	0xbe50a69d	-0.20376058
140	0xbe44523a	-0.19171992
141	0xbe9f34d7	-0.31095
142	0xbe84c6e4	-0.25932992
143	0xbda35fcd	-0.07977257
144	0xbeadd77f	-0.33953473
145	0x3d1fb927	0.038994934
146	0x3e05afad	0.13055296
147	0xbda50446	-0.08057456
148	0xbd95b92a	-0.07310708
149	0x3df2522e	0.11832081
150	0x3d3fcb2a	0.04682461
151	0xbd40d028	-0.047073513
152	0xbe4cf3dd	-0.20014901
153	0xbc3456e0	-0.011007041
154	0x3e24f3f2	0.16108683
155	0xbe8b2515	-0.2717673
156	0xbe6d7943	-0.23190789
157	0xbd247a5d	-0.040155757
158	0xbd8c9091	-0.06863511
159	0x3e5cae2d	0.21550818
160	0xbd32b801	-0.04363251
161	0xbc7c3b67	-0.015395022
162	0xbe6b1e68	-0.22960818
163	0xbee8b052	-0.45447022
164	0xbda3a20e	-0.07989894
165	0xbcd375f5	-0.025813082
166	0xbe4c2447	-0.19935714
167	0xbd0e21ba	-0.034700133
168	0xbeb8cd57	-0.36094162
169	0x3e3da11b	0.18518488
170	0xbe145b05	-0.14487846
171	0x3d817e2e	0.06322895
172	0xbe6c3053	-0.23065309
173	0x3d206022	0.03915418
174	0xbe542fbb	-0.20721333
175	0x3d588003	0.052856456
176	0xbbcd88da	-0.0062724175
177	0xbd6ffc9f	-0.058590528
178	0xbc7f63a1	-0.015587718
179	0x3d76d1b3	0.06025858
180	0xbd3bcba0	-0.04584849
181	0xbdd7419c	-0.10510561
182	0xbd9a6511	-0.07538808
183	0xbdb16341	-0.08661509
184	0xbe6360c8	-0.22204888
185	0x3d0c5847	0.034263875
186	0xbcb36ac7	-0.021901501
187	0xbe69998f	-0.22812484
188	0x3e251927	0.16122876
189	0xbe01b636	-0.12667164
190	0xbe3d55da	-0.18489781
191	0x3e46340c	0.19355792
192	0x3e3520a2	0.1768823
193	0xbe4ecbad	-0.20194884
194	0xbde2407f	-0.11047458
195	0xbe4638c8	-0.19357598
196	0xbe3f5776	-0.18685707
197	0xbe380191	-0.17969348
198	0xbe264dda	-0.16240636
199	0xbcaccb20	-0.021092951
200	0xbe40845c	-0.18800491
201	0xbc63eef6	-0.013911953
202	0x3dfe2583	0.124094985
203	0xbe6aebf7	-0.22941576
204	0xbeb579e1	-0.3544455
205	0x3e12635d	0.14295717
206	0xbe3a16b5	-0.18172725
207	0xbda7d9cb	-0.081958376
208	0xbe476cf7	-0.1947516
209	0xbd513f90	-0.05108601
210	0x3e536a47	0.2064601
211	0xbbd2b84a	-0.0064306604
212	0x3e228c7b	0.15873902
213	0x3d5ad373	0.05342431
214	0x3c6fc63f	0.014634668
215	0xbd0da1ab	-0.034578007
216	0xbe904fb9	-0.28185824
217	0xbe561fd4	-0.20910579
218	0xbd93c172	-0.07214631
219	0x3d768eaa	0.06019465
220	0x3d07ac4a	0.033123292
221	0x3bafbf1a	0.0053633573
222	0xbdd25526	-0.10270147
223	0xbe888b40	-0.2666874
224	0xbe8b345f	-0.27188393
225	0x3dfd3dff	0.123653404
226	0xbe9ae871	-0.30255464
227	0x3ddc96f4	0.107709795
228	0x3da63efc	0.08117482
229	0x3e09fa08	0.13474286
230	0xbd99cf43	-0.07510235
231	0xbcaff480	-0.021478891
232	0xbe02a183	-0.12756924
233	0xbe864051	-0.26220945
234	0xbbe53cd6	-0.0069957776
235	0x3d63fac9	0.05565909
236	0xbea12a36	-0.31477517
237	0x3cf4b71f	0.029872475
238	0xbdcad6d2	-0.09904255
239	0xbecea1cd	-0.4035782
240	0xbe94844c	-0.29007185
241	0xbe34e89d	-0.1766686
242	0x3d72af45	0.05924918
243	0x3cfdb2e4	0.03096909
244	0xbe8c0b7e	-0.27352518
245	0xbdb6ebcb	-0.08931693
246	0xbd37cf2f	-0.04487532
247	0x3da89bee	0.08232866
248	0xbe2cadf4	-0.16863233
249	0xbeb199e1	-0.34687713
250	0x3e0d6650	0.1380856
251	0xbe0edc5d	-0.1395125
252	0x3db09d0e	0.08623706
253	0xbe943c83	-0.28952417
254	0xbe095f5b	-0.13415281
255	0xbdb3d16e	-0.0878018

sequential_15/dense_115/BiasAdd/ReadVariableOp/resource f4 [128]
0	0xbe594512	-0.21217754
1	0xbe1195ec	-0.14217347
2	0xbde936fa	-0.11387439
3	0xbe41da68	-0.18930972
4	0xbdb178e1	-0.08665634
5	0x3b8ac2ac	0.0042346325
6	0x3ea7bc8e	0.32761043
7	0xbe0380ea	-0.12842146
8	0x3dd34f6a	0.103178814
9	0xbe239575	-0.15974982
10	0xbeafaa48	-0.34309602
11	0xbe2be2d9	-0.16785754
12	0x3daf9f5e	0.08575319
13	0xbd2c8117	-0.042115297
14	0xbe54312f	-0.20721887
15	0xbe660d56	-0.22466025
16	0x3e743252	0.2384732
17	0xbde9a91d	-0.11409209
18	0x3dbe87c6	0.093032405
19	0xbab62b27	-0.0013898358
20	0xbe179196	-0.1480163
21	0xbd8eb8fa	-0.06968875
22	0x3e352e76	0.17693505
23	0xbd30c548	-0.043156892
24	0xbd176e10	-0.0369702
25	0xbe04f294	-0.12983161
26	0x3d5f8671	0.054571573
27	0x3d7eeae5	0.06223573
28	0x3e08d6e0	0.13363218
29	0xbe6e28f8	-0.23257816
30	0x3df88c07	0.12136083
31	0xbec9f454	-0.3944422
32	0x3d0070b0	0.031357467
33	0x3e038e4e	0.12847254
34	0x3eab378c	0.33440816
35	0x3dfb5f92	0.12274088
36	0xbd695f74	-0.056975797
37	0xbb92334c	-0.0044616815
38	0x3e650361	0.2236457
39	0x3e21fa44	0.15818125
40	0xbd5dc344	-0.054141298
41	0xbe2cbea8	-0.16869605
42	0xbd98f901	-0.07469369
43	0x3cf535f5	0.029932955
44	0x3d046bc5	0.03232934
45	0x3e638449	0.22218432
46	0xbe0f9492	-0.14021519
47	0xbe8bda11	-0.2731481
48	0xbba05aa2	-0.004893617
49	0xbd68bf08	-0.056822807
50	0x3bfca298	0.0077098124
51	0xbdbdeb02	-0.0927334
52	0x3d9abeec	0.07555947
53	0x3e783dff	0.242424
54	0xbe444d76	-0.19170174
55	0xbe2f270c	-0.17104739
56	0xbe3e39f8	-0.18576801
57	0xbdc41beb	-0.095756374
58	0x3d959b80	0.0730505
59	0xbdfc748b	-0.12326916
60	0xbdeed367	-0.116614155
61	0x3eae4ee9	0.3404458
62	0x3e0291c7	0.12750922
63	0x3d9b0e97	0.07571142
64	0xbd1cf40d	-0.038318682
65	0xbe8cc457	-0.27493545
66	0xbcbeab1d	-0.023274953
67	0xbd8f202b	-0.069885574
68	0xbd86d347	-0.06583267
69	0x3cccd713	0.0250049
70	0xbdea056b	-0.11426815
71	0xbd302b41	-0.04301
72	0x3e280746	0.16409025
73	0x3e33a015	0.17541535
74	0x3dd3ce16	0.10342042
75	0xbdc14858	-0.094376266
76	0xbd266a09	-0.040628467
77	0x3e48cf8c	0.19610423
78	0x3e1021c5	0.14075382
79	0x3d8909c0	0.06691313
80	0xbe352d2c	-0.17693013
81	0xbd8a47d7	-0.067519836
82	0xbe152498	-0.1456474
83	0xbe9cbe99	-0.30614164
84	0x3b1561c1	0.0022793862
85	0xbd9cbf06	-0.07653622
86	0xbe5cdac2	-0.21567824
87	0xbd8a89e2	-0.0676458
88	0x3e95e30e	0.2927479
89	0x3e35f112	0.17767742
90	0xbe44a313	-0.19202833
91	0xbd0e6e7e	-0.034773342
92	0x3e045006	0.12921152
93	0xbe66fbb6	-0.22556958
94	0x3aa90b9c	0.0012897137
95	0xbe4ef84b	-0.20211904
96	0x3e11d76d	0.14242335
97	0x3db5a399	0.088690944
98	0xbd981ac6	-0.07426982
99	0x3da41407	0.080116324
100	0x3d7846e3	0.060614478
101	0x3d635183	0.055497658
102	0xbe36a330	-0.17835689
103	0x3e20dd66	0.15709457
104	0xbe2ff0a8	-0.17181647
105	0xbe67cddf	-0.22637127
106	0xbe224413	-0.15846281
107	0x3d10d495	0.035358984
108	0x3b342b02	0.0027491455
109	0xbe0618cd	-0.13095398
110	0xbe55f8bd	-0.20895667
111	0xbe184c59	-0.14872874
112	0xbe296721	-0.16543247
113	0x3d7e1a28	0.062036663
114	0x3e49152f	0.19636987
115	0xbe01b755	-0.12667592
116	0x3dbd6361	0.09247471
117	0xbd32e8cc	-0.043679044
118	0xbd2491ea	-0.040178217
119	0xbea6ef14	-0.32604277
120	0xbd793fce	-0.060851865
121	0xbe39d4f0	-0.18147635
122	0xbdc49493	-0.09598651
123	0xbdc46bdd	-0.09590886
124	0x3d070f98	0.032973856
125	0x3e3dffa1	0.18554546
126	0xbd9aa8b7	-0.07551711
127	0xbe181a69	-0.14853825

sequential_15/dense_116/BiasAdd/ReadVariableOp/resource f4 [64]
0	0x3e2c82fc	0.16846842
1	0xbe6c6be3	-0.2308803
2	0x3dffc53e	0.12488793
3	0xbe69cc6f	-0.22831891
4	0x3ee4a2b9	0.44655398
5	0x3e9c3dd8	0.30515933
6	0xbe1578bf	-0.14596842
7	0x3c8608f7	0.016361697
8	0x3cacaa51	0.021077307
9	0x3dd8e788	0.10591036
10	0x3e134883	0.1438313
11	0xbe8749d4	-0.26423514
12	0xbcfec452	-0.031099472
13	0xbd840fce	-0.06448327
14	0x3dbdd39d	0.09268878
15	0xbce0178a	-0.027354974
16	0xbcb2ddc0	-0.021834254
17	0x3e0542c6	0.13013753
18	0xbe23cda2	-0.15996411
19	0x3e466b1d	0.19376798
20	0x3dbd657b	0.092478715
21	0x3cc6fca2	0.024290387
22	0xbe19aa55	-0.15006383
23	0x3e6c77ea	0.23092619
24	0x3e2fac27	0.17155515
25	0x3e8196d4	0.25310385
26	0x3ea89f45	0.32934013
27	0x3de5b4e5	0.112161435
28	0xbdc4f141	-0.09616328
29	0xbd93fc9b	-0.07225915
30	0xbe0f25ae	-0.13979217
31	0xbcd213af	-0.025644151
32	0x3e14c05c	0.14526504
33	0xbd750c19	-0.05982599
34	0x3bfded36	0.007749225
35	0x3dcdf10f	0.10055744
36	0xbe40153b	-0.18758099
37	0xbd13611a	-0.035981275
38	0x3e90ce1d	0.28282252
39	0x3e9d8592	0.3076597
40	0xbe299f26	-0.16564617
41	0xbe0ca1c3	-0.13733582
42	0xbe384996	-0.17996821
43	0x3e912aa2	0.2835284
44	0x3c723a50	0.014784411
45	0xbdaccecc	-0.08437881
46	0xbca68776	-0.020328265
47	0x3dbcf15a	0.09225722
48	0x3d3b4d81	0.04572821
49	0x3d656f09	0.056014095
50	0x3e9e2451	0.30887082
51	0x3e22c17f	0.15894125
52	0x3e5a2837	0.21304403
53	0x3ea3ec3a	0.32016164
54	0x3d97514f	0.07388555
55	0x3cdfe236	0.027329545
56	0xbdbf3a74	-0.09337321
57	0x3e9c1cdc	0.30490768
58	0x3e8096ed	0.25115147
59	0x3cf13f1c	0.029449038
60	0x3d9e3e19	0.07726688
61	0xbe0331ae	-0.1281192
62	0x3e089d4d	0.13341255
63	0x3e9fa9ad	0.3118414

sequential_15/dense_117/BiasAdd/ReadVariableOp/resource f4 [32]
0	0x3e64c6cb	0.22341458
1	0xbe09a57c	-0.13442034
2	0x3e07cad4	0.13260967
3	0x3e3e7e44	0.18602854
4	0x3e6258ef	0.22104238
5	0x3f0334b2	0.5125228
6	0xbe199cb1	-0.1500118
7	0x3d5a8a8e	0.053354792
8	0x3ecc7186	0.39930362
9	0xbd81a1e5	-0.06329707
10	0x3d75ec81	0.06004
11	0x3da8cd1a	0.08242245
12	0x3dac44ea	0.08411582
13	0x3eed1dbf	0.46311757
14	0x3ed8fcb1	0.42380288
15	0x3d983278	0.07431501
16	0x3f0f224c	0.5591171
17	0x3e897c11	0.26852468
18	0x3ec5b6d8	0.3861606
19	0x3e18f524	0.14937264
20	0x3e2db34a	0.16962925
21	0x3e765cbb	0.24058811
22	0x3ef34f14	0.4752127
23	0x3ef84330	0.4848876
24	0x3e3b258e	0.18276045
25	0x3eb70566	0.35746306
26	0x3e41616a	0.18884817
27	0x3e142ff8	0.14471424
28	0x3e8bf74a	0.27337104
29	0x3f03596e	0.51308334
30	0x3ea435c4	0.3207227
31	0x3e8f12f9	0.27944162

sequential_15/dense_118/BiasAdd/ReadVariableOp/resource f4 [16]
0	0x3eb11f57	0.34594223
1	0x3f027bc3	0.50970095
2	0x3f148251	0.5801135
3	0x3eddcad4	0.43318808
4	0x3f18b21a	0.5964676
5	0x3ee3515c	0.4439801
6	0x3f18317f	0.59450525
7	0x3ed899d4	0.42304862
8	0x3e5ba1a3	0.21448378
9	0x3ef8eee8	0.4861977
10	0x3ee952b4	0.4557091
11	0x3ec832bc	0.39101207
12	0x3e804889	0.2505534
13	0xbe455a28	-0.19272673
14	0x3eafae09	0.34312466
15	0xbd83fdb0	-0.064448714

sequential_15/dense_119/BiasAdd/ReadVariableOp/resource f4 [10]
0	0xbcc32fd7	-0.023826523
1	0xbe19edac	-0.15032071
2	0x3ef3912c	0.47571695
3	0x3d43982a	0.047752537
4	0xbd36b116	-0.044602476
5	0x3e7403b1	0.23829533
6	0xbe4676d9	-0.19381274
7	0xbee076fc	-0.43840778
8	0xbe40e800	-0.18838501
9	0x3e0abcb3	0.13548546

sequential_15/dense_113/MatMul f4 [512, 17]
0	0xbe5eec92	-0.21769932
1	0xbe5330a7	-0.20624028
2	0x3e38bc90	0.18040681
3	0xbd329b08	-0.04360488
4	0xbd98ad52	-0.07454933
5	0x3e7ebf70	0.24877715
6	0xbdeeb10a	-0.11654861
7	0x3dcecccb	0.10097655
8	0xbe6e5249	-0.23273577
9	0xbd4bd0f1	-0.04975981
10	0xbd71d3ca	-0.05903987
11	0xbd068f51	-0.03285152
12	0xbdef5028	-0.116852105
13	0x3d8e3d3e	0.06945275
14	0x3e00ec8f	0.1259024
15	0x3df8bcc2	0.12145378
16	0x3d405393	0.046954703
17	0xbb34af26	-0.0027570217
18	0x3b838b72	0.004014426
19	0x3d4202a6	0.047365807
20	0x3e3f21ef	0.18665288
21	0xbeae693a	-0.34064656
22	0x3cf68041	0.030090453
23	0xbe67c9d9	-0.22635593
24	0xbe3e0323	-0.18555884
25	0xbe199624	-0.1499868
26	0x3e340999	0.17581786
27	0x3e92dd31	0.2868438
28	0x3c955d1e	0.018232878
29	0xbcc3d0c3	-0.023903256
30	0x3bd89814	0.006609926
31	0x3d68b2e2	0.05681122
32	0xbd3d47a2	-0.046210892
33	0x3d0e92c9	0.034807954
34	0xbe0ec5f4	-0.139427
35	0xbd205f66	-0.03915348
36	0xbe630ecd	-0.22173615
37	0xbebc3e9e	-0.36766523
38	0x3d9e789b	0.077378474
39	0x3e2d4f06	0.16924676
40	0xbe342281	-0.17591287
41	0x3d8d768a	0.06907375
42	0x3e0eeb91	0.13957049
43	0xbdc993ef	-0.09842669
44	0xbd5b1ab2	-0.053492256
45	0x3c865aa4	0.016400643
46	0x3e31fe76	0.17382225
47	0xbe686f3a	-0.2269868
48	0xbe5f287f	-0.21792792
49	0x3e1ba796	0.15200648
50	0xbccd2aad	-0.025044763
51	0xbdcd9859	-0.10038824
52	0xbd54f4d3	-0.051991295
53	0x3d8ea1b0	0.06964433
54	0xbd30766a	-0.04308168
55	0x3d63829c	0.05554448
56	0xbddb999a	-0.107226565
57	0xbe37262b	-0.17885654
58	0x3e12d75d	0.14339967
59	0x3e30036e	0.17188808
60	0xbe0e8e97	-0.13921581
61	0xbc97e57c	-0.018542044
62	0x3d3f3058	0.046676964
63	0x3e8b6612	0.2722631
64	0xbdbe87c9	-0.09303243
65	0x3ef6948c	0.48160207
66	0xbd27a74e	-0.04093104
67	0x3a26521e	0.0006344634
68	0xbb601b17	-0.0034195834
69	0x3d8c3a4a	0.06847055
70	0x3d6d155f	0.05788171
71	0xbda99576	-0.082804605
72	0x3dcb7189	0.099337645
73	0x3d914350	0.07092917
74	0xbd8847f2	-0.066543475
75	0x3de962b9	0.11395783
76	0xbcf12d44	-0.02944053
77	0x3d4f1281	0.050554756
78	0x3dd960d8	0.106141746
79	0x3d595f40	0.053069353
80	0xbc93174f	-0.01795545
81	0xbd58153a	-0.05275462
82	0xbe408f60	-0.18804693
83	0x3e5cac8b	0.21550195
84	0x3db101c2	0.086429134
85	0xbde0ecbf	-0.10982656
86	0xbc09bebb	-0.00840729
87	0x3e27ea7d	0.16398044
88	0xbc43beb5	-0.011947324
89	0xbe47f21d	-0.19525953
90	0x3e3a831a	0.18214074
91	0x3e661fd2	0.22473076
92	0xbd853241	-0.06503726
93	0xbd7991d8	-0.060930103
94	0xbe1ab6c1	-0.15108778
95	0xbc7ef8cf	-0.01556225
96	0x3d3b324a	0.045702256
97	0x3ecaa5d9	0.39579657
98	0xbe2a0d6e	-0.16606686
99	0x3e844724	0.25835526
100	0x3d511232	0.051042743
101	0xbbd6bb39	-0.0065530804
102	0x3d4815f9	0.04884908
103	0xbd9a883d	-0.07545517
104	0x3d87a658	0.066235244
105	0xbda02173	-0.0781888
106	0xbd009618	-0.03139314
107	0xbcf51feb	-0.029922446
108	0xbd464af3	-0.04841132
109	0x3e3f0c64	0.1865707
110	0xbd1e7e63	-0.03869475
111	0x3d4b5d38	0.049649447
112	0xbdb4c022	-0.08825709
113	0x3e2e73f9	0.17036428
114	0x3eab4043	0.33447465
115	0x3d0bb7ec	0.03411095
116	0xbe3f4241	-0.18677618
117	0x3e18aed6	0.14910445
118	0xbd887b5c	-0.06664154
119	0xbd117391	-0.035510603
120	0x3d14350b	0.0361834
121	0xbe00e12d	-0.12585898
122	0xbe5b3dbd	-0.2141027
123	0xbd0836e2	-0.033255465
124	0xbd971548	-0.07377106
125	0x3ea77f8b	0.32714495
126	0xbdc6efcb	-0.09713706
127	0xbe2badd8	-0.16765535
128	0x3dde1b81	0.1084509
129	0x3db5f5d2	0.08884777
130	0x3d5243f7	0.051334348
131	0x3df1495d	0.11781571
132	0x3e03df54	0.12878162
133	0xbdb52eca	-0.08846815
134	0x3ceb5107	0.02872516
135	0x3e9ac256	0.30226392
136	0xbd227b81	-0.039668564
137	0xbd424f82	-0.047439106
138	0xbe877da4	-0.26463044
139	0x3d4410cd	0.047867585
140	0x3d905b81	0.07048703
141	0x3e86065c	0.26176727
142	0xbe9eb6cf	-0.30998847
143	0xbe2dd5ef	-0.1697614
144	0xbe1b0527	-0.15138684
145	0x3dc3974b	0.09550341
146	0x3d35e09a	0.04440365
147	0x3c2dc50d	0.010606063
148	0x3dd5693a	0.10420461
149	0xbe57c11f	-0.21069764
150	0xbe47b5e5	-0.19502981
151	0x3e67390e	0.22580358
152	0xbe233a49	-0.15940203
153	0xbdf33749	-0.11875779
154	0x3c9675d4	0.018366732
155	0xbe8dde05	-0.2770845
156	0x3e8faa19	0.28059462
157	0x3c760155	0.015014966
158	0xbec04a3d	-0.3755664
159	0xbd031e01	-0.032011036
160	0xbc6bf7a8	-0.014402308
161	0x3e55acba	0.20866671
162	0x3e092ea4	0.13396698
163	0x3c3f5261	0.0116773555
164	0xbe339f41	-0.1754122
165	0x3e6fb27e	0.23407933
166	0xbe0f1686	-0.13973436
167	0x3e5fa53b	0.21840374
168	0x3db10abd	0.08644626
169	0xbdc22f8d	-0.09481726
170	0x3bcd1f3b	0.0062598265
171	0x3d8d3854	0.06895509
172	0xbd11fed9	-0.035643432
173	0x3dab7c75	0.08373348
174	0xbdc2e3b2	-0.09516086
175	0xbea3ac07	-0.31967184
176	0x3ed3654d	0.41288224
177	0x3e3f3104	0.18671042
178	0xbe481c8a	-0.19542137
179	0xbbd5fdbf	-0.006530493
180	0x3e96eba0	0.29476643
181	0xbe4a6bf9	-0.19767751
182	0x3de7e436	0.11322825
183	0x3e007df6	0.1254805
184	0xbd84750d	-0.06467638
185	0xbe7d52f2	-0.24738672
186	0x3aabb693	0.0013100676
187	0x3d98d1a3	0.0746186
188	0x3b557f82	0.0032577221
189	0xbe4cb077	-0.19989191
190	0xbd5abd9b	-0.053403478
191	0xbda42cb0	-0.08016336
192	0xbc057c60	-0.008147329
193	0x3dd15f67	0.10223275
194	0x3caf7167	0.02141638
195	0x3e0338a2	0.12814572
196	0x3d98ad7f	0.07454967
197	0xbc3362d4	-0.010948855
198	0x3cb60d47	0.022223128
199	0x3e706479	0.23475827
200	0xbe89502f	-0.26818988
201	0x3ebd22a9	0.36940506
202	0x3d72a83e	0.05924248
203	0x3d532934	0.051552966
204	0xbd8d9aaa	-0.069142655
205	0xbdc076c5	-0.093976535
206	0xbd902605	-0.07038502
207	0xbe8c29cc	-0.27375638
208	0xbe52f0be	-0.20599648
209	0xbda97597	-0.082743816
210	0x3ede774e	0.43450397
211	0xbcf1f77c	-0.029536955
212	0xbe918261	-0.28419784
213	0x3db058f0	0.086107135
214	0x3e8758c9	0.26434925
215	0xbd813fe5	-0.06311015
216	0x3da173c6	0.0788341
217	0x3e01061d	0.12599988
218	0xbcf2a3d8	-0.029619142
219	0x3d05c91a	0.03266249
220	0x3e237e4c	0.15966147
221	0xbdbec11b	-0.09314176
222	0x3d4a3e91	0.049376074
223	0x3c132303	0.008980515
224	0xbde18d4e	-0.1101328
225	0x3d061bc5	0.032741327
226	0x3c4a45b1	0.012345717
227	0x3e76ac96	0.24089274
228	0x3d04f36e	0.032458715
229	0xbb07756c	-0.0020669354
230	0xbba2feed	-0.004974237
231	0xbe0cbe03	-0.13744359
232	0x3e1bf691	0.15230776
233	0xbe062b42	-0.13102439
234	0x3da12eee	0.07870279
235	0xbdbc2f5c	-0.091887206
236	0x3e4d4ac2	0.20048049
237	0x3ea54ead	0.32286587
238	0x3e411140	0.18854237
239	0xbdd17262	-0.10226895
240	0x3c9dc95e	0.019261058
241	0x3dbddf41	0.09271098
242	0x3dacb092	0.084321156
243	0x3ccf6ed6	0.025321405
244	0xbe0465fd	-0.1292953
245	0x3e2432c2	0.16034988
246	0x3dbcdadd	0.09221432
247	0xbd56120b	-0.0522633
248	0x3e09d66e	0.13460705
249	0xbd41fc1a	-0.047359563
250	0xbdd4cf8d	-0.1039115
251	0x3d24771d	0.040152658
252	0xbd915513	-0.07096305
253	0x3e64a372	0.22327974
254	0x3cdc972b	0.026927551
255	0xbe43f8a1	-0.19137813

sequential_15/dense_114/MatMul f4 [256, 512]
0	0xbe955d92	-0.2917295
1	0xbdbd5a9f	-0.092458
2	0x3de29c2c	0.11064944
3	0xbd527147	-0.05137756
4	0xbc95db81	-0.018293144
5	0xbe49fdca	-0.19725719
6	0x3d4ce3a4	0.050021783
7	0xbcfe25a5	-0.03102381
8	0x3c8390b5	0.016060213
9	0xbe1e6d7a	-0.1547145
10	0xbe8d52a2	-0.27602106
11	0x3e8e6b87	0.27816412
12	0x3caa239e	0.020768937
13	0xbddc241f	-0.10749077
14	0x3e66fea3	0.22558074
15	0xbe934bf0	-0.28768873
16	0x3e026242	0.12732795
17	0x3cc9e7c8	0.024646655
18	0x3e3ca028	0.1842047
19	0xbc91f830	-0.01781854
20	0xbdbbe639	-0.09174771
21	0xbcbe6378	-0.02324079
22	0xbd57b9d3	-0.05266745
23	0x3da5a293	0.08087649
24	0xbe1687ab	-0.1470019
25	0xbb2b5b4f	-0.0026146953
26	0x3d303e07	0.043027904
27	0x3d322355	0.043490727
28	0x3b0c8579	0.002144186
29	0xbdbb16af	-0.09135186
30	0xbdb859c2	-0.09001495
31	0xbd06ea24	-0.032938138
32	0x3cb9d157	0.022682829
33	0xbcd53792	-0.026027475
34	0x3cf9b650	0.030482441
35	0xbded0ee8	-0.11575109
36	0x3d0cca3b	0.03437255
37	0xbe7c6842	-0.24649146
38	0xbdf39682	-0.118939415
39	0xbccd72f6	-0.025079232
40	0xbde46a93	-0.1115314
41	0x3e30d021	0.17266895
42	0xbdd68bae	-0.104758605
43	0xbe639834	-0.2222603
44	0x3dc1d800	0.09465027
45	0xbe40b3a3	-0.18818526
46	0x3ebcacd4	0.36850607
47	0x3da454ba	0.08023973
48	0x3c9b0479	0.018923031
49	0x3e4b92a6	0.1988016
50	0xbe257a49	-0.1615993
51	0x3e3007ca	0.17190471
52	0x3e057f66	0.1303688
53	0x3cf196a0	0.029490769
54	0xbd7829b9	-0.060586665
55	0x3dba13f0	0.09085834
56	0x3da912d5	0.08255545
57	0xbe0eaa13	-0.13932066
58	0x3d0ea1a9	0.03482214
59	0xbdd7ba6c	-0.10533604
60	0xbcb30a81	-0.021855595
61	0xbdfda7f1	-0.12385548
62	0xbcc311ef	-0.023812262
63	0x3cd9ac18	0.026571319
64	0x3b043096	0.002017056
65	0xbe42ac8a	-0.19011131
66	0x3cd5afc7	0.026084794
67	0xbcdb4916	-0.026768249
68	0x3d33d753	0.04390652
69	0xbe7a5dcf	-0.24449848
70	0xbe4475d2	-0.1918557
71	0x3d1ce5f7	0.03830525
72	0x3dd85681	0.10563374
73	0x3db3a099	0.08770866
74	0xbec9988b	-0.39374194
75	0x3da8a590	0.082347035
76	0xbbb90152	-0.0056459093
77	0xba7e43fa	-0.00096994604
78	0xbe292a0f	-0.1651995
79	0x3de2a10f	0.11065876
80	0x3dc03f54	0.09387079
81	0x3e0d47a5	0.13796861
82	0x3d320bb2	0.043468185
83	0x3c163b2f	0.009169384
84	0xbe0d3bfe	-0.13792416
85	0xbd77c44b	-0.060489934
86	0x3c68872f	0.0141923865
87	0x3d50cb47	0.05097511
88	0xbd2308d0	-0.039803326
89	0x3cd3f8a7	0.025875403
90	0xbca4cb38	-0.020116434
91	0xbd3029eb	-0.043008726
92	0x3d23291b	0.039834123
93	0xbd55b43e	-0.052173845
94	0x3d90e0bc	0.07074115
95	0x3df0a3d9	0.117500015
96	0x3d3b92bf	0.045794245
97	0x3d5e4997	0.0542694
98	0x3cc7141e	0.024301585
99	0x3d5763ca	0.0525854
100	0xbc15fb62	-0.009154173
101	0xbcc0355e	-0.023462947
102	0xbe9eaf82	-0.30993277
103	0xbd07fe25	-0.033201355
104	0x3dac19d8	0.08403367
105	0xbdb0991d	-0.08622954
106	0xbe159cdd	-0.1461062
107	0x3d905658	0.07047719
108	0x3e090628	0.13381255
109	0xbe166c3b	-0.14689724
110	0xbe4c15b6	-0.19930157
111	0xbe6d529c	-0.23176044
112	0xbe07aaca	-0.13248745
113	0x3c9ebe94	0.019377984
114	0xbeb02f7f	-0.34411237
115	0xbd53cc85	-0.051708717
116	0xba18de98	-0.0005831509
117	0xbc2ca644	-0.010537688
118	0xbdeaef00	-0.11471367
119	0xbd38a7f6	-0.045082055
120	0x3dcc8d22	0.099878564
121	0x3ded1260	0.115757704
122	0x3c9873f5	0.01860998
123	0x3d5ee937	0.05442163
124	0x3e03cfa3	0.12872176
125	0x3e1a00fd	0.1503944
126	0xbe3838f3	-0.17990474
127	0x3e85d20e	0.26136822
128	0x3c404ef3	0.011737573
129	0xbe5d18d1	-0.21591498
130	0xbed402f3	-0.414085
131	0x3d4036fe	0.046927445
132	0xbc09adf3	-0.008403289
133	0x3d6cada1	0.057782773
134	0xbe27d2be	-0.16388986
135	0xbec0da34	-0.37666476
136	0xbdac1d93	-0.08404078
137	0x3e0a1e1e	0.13488051
138	0x3d9735f8	0.073833406
139	0x3d739dac	0.05947654
140	0xbd7347b6	-0.05939456
141	0xbe110dd6	-0.14165434
142	0x3c6bfc57	0.014403424
143	0x3db1b183	0.08676436
144	0xbe702760	-0.2345252
145	0xbd1f11ab	-0.03883521
146	0x3da8ea70	0.082478404
147	0x3e279262	0.16364434
148	0xbdec4429	-0.11536438
149	0xbe4eafc2	-0.20184234
150	0xbc30c779	-0.0107897455
151	0xbd088220	-0.033327222
152	0x3d2b291e	0.04178726
153	0x3e85de45	0.2614614
154	0xbcebe9c6	-0.028797995
155	0xbe1be3a1	-0.15223552
156	0x3d74fa76	0.05980917
157	0xbd48e872	-0.049049802
158	0x3ae5ac1e	0.0017522608
159	0xbe011980	-0.12607384
160	0x3d95c4a6	0.07312898
161	0xbe2d95a0	-0.16951609
162	0x3d73d3a3	0.059528004
163	0xbd9a012d	-0.075197555
164	0xbe1ad755	-0.15121205
165	0x3c6ffeb1	0.0146481255
166	0xbcbf1e6c	-0.023329936
167	0x3e3b519b	0.18292849
168	0xbe76a933	-0.24087982
169	0xbd3b5bf8	-0.045742005
170	0xbeeab566	-0.4584152
171	0x3c08b4e9	0.008343914
172	0x3c901552	0.017588291
173	0xbe85185d	-0.2599515
174	0x3e0c9c66	0.13731536
175	0x3d556929	0.05210224
176	0xbe1f4783	-0.15554623
177	0xbe0b84c5	-0.13624866
178	0xbdde556c	-0.10856137
179	0xbeb69765	-0.3566238
180	0xbecf85a7	-0.40531656
181	0xbd91fa71	-0.07127846
182	0xbd125809	-0.035728488
183	0x390a27e7	0.0001317557
184	0x3d0dc8f8	0.034615487
185	0x3da87c08	0.08226782
186	0x3c9a5cb0	0.018843025
187	0x3e263331	0.16230465
188	0xbd24d5a2	-0.0402428
189	0x3d6019ec	0.05471222
190	0x3d081bb9	0.033229563
191	0x3bb25246	0.0054419367
192	0xbe38fe6e	-0.18065807
193	0x3d3eb598	0.0465599
194	0xbdacea20	-0.08443093
195	0xbe190370	-0.14942718
196	0xbdd6556b	-0.10465511
197	0xbe0482bd	-0.12940498
198	0xbc990b58	-0.018682167
199	0xbd60c15e	-0.05487191
200	0x3e21df83	0.15807919
201	0x3dcb8bbf	0.09938764
202	0xbe43b123	-0.19110541
203	0xbd328602	-0.04358483
204	0xbdd75221	-0.10513712
205	0xbe099775	-0.13436683
206	0x3d3ef880	0.046623707
207	0x3ddb365b	0.10703727
208	0x3d861b83	0.06548216
209	0xbb1d3307	-0.0023986713
210	0xbebb6be8	-0.36605763
211	0x3e624186	0.22095308
212	0x3d2c6a03	0.04209329
213	0x3c00ffb4	0.007873464
214	0xbd732335	-0.059359748
215	0xbc9e1517	-0.019297166
216	0x3e515afb	0.20444863
217	0xbe60fa17	-0.21970402
218	0xbd531b87	-0.051539924
219	0x3b8093b3	0.003923857
220	0xbd3a2f68	-0.045455366
221	0xbc48ab32	-0.012247847
222	0x3db1a5aa	0.08674176
223	0xbb08ac1b	-0.0020854536
224	0x3e3f42a2	0.18677762
225	0xbe1890d0	-0.14898992
226	0x3d319de9	0.043363485
227	0xbd818260	-0.06323695
228	0x3e6057a7	0.21908437
229	0xbdda2232	-0.106510535
230	0xbda75262	-0.0817001
231	0x3d1f0b31	0.038829032
232	0xbe8c544b	-0.2740806
233	0x3e0bc317	0.1364864
234	0x3e0ad6bc	0.13558477
235	0x3d838547	0.06421905
236	0x3dfb2676	0.12263195
237	0xbdb5bb9b	-0.088736735
238	0x3e0cc081	0.1374531
239	0xbe7ba20c	-0.24573535
240	0xbdfe3a00	-0.12413406
241	0xbea055fd	-0.31315604
242	0xbcc5349e	-0.024072941
243	0x3dba7f50	0.09106314
244	0x3d02c3a6	0.031924866
245	0xbe82589b	-0.25458226
246	0x3db3eefe	0.087858185
247	0xbc882859	-0.016620802
248	0x3e39b682	0.18136027
249	0xbebd6eb7	-0.3699853
250	0x3d9cdcb5	0.07659284
251	0xbd525004	-0.05134584
252	0xbd79246e	-0.060825758
253	0x3e0513b1	0.12995793
254	0x3e0c499d	0.13699956
255	0xbdc449b1	-0.09584368

sequential_15/dense_115/MatMul f4 [128, 256]
0	0x3e5e3c9a	0.21702805
1	0x3dc5ee87	0.09664636
2	0xbeff1a77	-0.4982488
3	0x3e184203	0.14868931
4	0xbeae57ca	-0.34051353
5	0xbe4efe71	-0.20214249
6	0x3ce37933	0.027767753
7	0xbe8f9a00	-0.2804718
8	0x3e552368	0.20814288
9	0x3d9b5657	0.075848274
10	0x3dba02de	0.09082578
11	0x3dcf4235	0.1012005
12	0xbd8c7fb9	-0.06860299
13	0xbd803b4e	-0.062613115
14	0xbecf39e0	-0.40473843
15	0xbe92d599	-0.28678587
16	0xbdebbb85	-0.11510376
17	0x3e65adbb	0.22429554
18	0x3cf4e138	0.029892549
19	0xbdb922a5	-0.09039811
20	0x3d663a6a	0.05620805
21	0x3ab751a9	0.0013986129
22	0x3d7ee9d9	0.062234733
23	0xbea7c4b7	-0.3276727
24	0xbe65cb99	-0.22440948
25	0xbe11987c	-0.14218324
26	0x3d4c620e	0.0498982
27	0xbe3a93c2	-0.18220428
28	0xbe36b6d2	-0.17843178
29	0xbdb096f6	-0.086225435
30	0xbd5f326b	-0.05449144
31	0x3c492bfe	0.012278555
32	0xbe9d2e08	-0.30699182
33	0x3db8d5d2	0.09025158
34	0xbe2da9cb	-0.16959302
35	0xbe4a9dd0	-0.19786763
36	0xbddccc0f	-0.107811086
37	0xbe895326	-0.2682125
38	0xbd853bf5	-0.065055765
39	0xbe67762c	-0.22603673
40	0x3ed80402	0.42190558
41	0xbe89faeb	-0.26949248
42	0xbc8a6bb9	-0.01689707
43	0x3e4f7da9	0.2026278
44	0xbd79b47d	-0.060963143
45	0x3e2f587d	0.171236
46	0x3d77bc13	0.060482096
47	0x3c5de731	0.01354389
48	0xbeca5891	-0.39520696
49	0xbedb93ea	-0.42886287
50	0xbe01e41d	-0.12684675
51	0xbe16486d	-0.14676066
52	0x3da7ddc3	0.081965946
53	0x3d898220	0.067142725
54	0xbd5348c9	-0.051583085
55	0xbe4ff9ba	-0.20310107
56	0xbb45a505	-0.0030158174
57	0x3df061c2	0.11737396
58	0xbd5161e7	-0.051118758
59	0xbdf100e5	-0.11767749
60	0xbd773b6e	-0.06035941
61	0x3da5a4ce	0.080880746
62	0xbdfc5399	-0.123206325
63	0xbdd7f9d4	-0.10545698
64	0xbe74ac6a	-0.23893896
65	0x3cc5d794	0.024150647
66	0x3d5f74de	0.054554813
67	0xbd671846	-0.056419633
68	0xbd856bf5	-0.06514732
69	0x3d1f894c	0.038949296
70	0xbc671968	-0.014105178
71	0xbdb968b9	-0.090531774
72	0xbb682062	-0.0035419692
73	0x3e64b463	0.22334437
74	0xbdd7707e	-0.10519503
75	0x3c5d973e	0.0135248285
76	0xbe298ea2	-0.16558316
77	0x3df98a27	0.121845536
78	0xbd891181	-0.06692792
79	0x3dc5973e	0.09647988
80	0x3d96ef81	0.073699005
81	0xbe52959b	-0.20564882
82	0xbd344dac	-0.044019386
83	0xbe9dbc38	-0.30807662
84	0xbdd7f9e8	-0.10545713
85	0xbe684d8b	-0.2268583
86	0x3e5bd842	0.21469215
87	0xbe1c6e52	-0.15276459
88	0x3a16ce30	0.000575277
89	0x3d9c03d5	0.076179184
90	0xbdf388b5	-0.11891309
91	0xbde3b837	-0.111191206
92	0xbd3da7ee	-0.04630273
93	0x3d826f52	0.06368889
94	0xbeffec62	-0.49985033
95	0x3de7f6bc	0.11326358
96	0xbe7c0e22	-0.24614766
97	0x3ddc687d	0.10762117
98	0xbe3c6275	-0.18396933
99	0x3d67e2ac	0.056612656
100	0x3e05e34b	0.13074987
101	0x3e27e7ab	0.16396968
102	0x3e1c295e	0.15250155
103	0xbe099adc	-0.1343798
104	0xbe1fd297	-0.15607677
105	0x3de778ca	0.113023356
106	0x3cedb16d	0.029015267
107	0xbd85d0ea	-0.06533988
108	0xbd7a18f4	-0.061058953
109	0xbe3a5f8d	-0.18200512
110	0xbe972cf0	-0.29526472
111	0xbd9391ec	-0.07205567
112	0xbdd683c8	-0.10474354
113	0xbdba7f62	-0.091063276
114	0xbe3247ce	-0.17410204
115	0xbd684e80	-0.05671549
116	0xbae93068	-0.0017790915
117	0x3e1cdbff	0.15318297
118	0x3e9ee116	0.31031102
119	0xbdbc87d2	-0.09205593
120	0xbe82ec2a	-0.25570804
121	0xbe2b7a64	-0.16745907
122	0xbe19811a	-0.14990655
123	0xbd87ce97	-0.06631201
124	0xbe664ad4	-0.22489482
125	0x3d03f6df	0.032217856
126	0xbe5b3c36	-0.21409687
127	0xbeb155ef	-0.34635875
128	0x3d2f56c9	0.042807374
129	0xbe15b2f4	-0.14619046
130	0x3e319629	0.17342438
131	0xbd89726f	-0.067112796
132	0x3ca6c78d	0.020358825
133	0xbb822a61	-0.003972337
134	0xbcce6997	-0.025196834
135	0xbcc9c4fb	-0.02463006
136	0xbe0c8737	-0.13723455
137	0xbe05dd22	-0.13072637
138	0x3e55272b	0.20815723
139	0xbe11661b	-0.14199106
140	0xbeab0350	-0.33400965
141	0x3e2e7598	0.17037046
142	0x3c018bea	0.007906893
143	0xbd4b44af	-0.04962605
144	0xbe8ce06c	-0.2751497
145	0x3d834315	0.06409279
146	0x3c9a5991	0.018841537
147	0x3db17643	0.08665135
148	0xbe8d0b9a	-0.27547914
149	0x3d77edf5	0.060529668
150	0x3e41c58c	0.18923014
151	0xbdbd8cbe	-0.0925536
152	0xbe7f9415	-0.24958833
153	0xbb0421cd	-0.0020161748
154	0xbebb40cf	-0.36572883
155	0x3e893587	0.2679865
156	0xbe5cc8f8	-0.21561038
157	0x3ce761fc	0.028244965
158	0xbd4cbc18	-0.049984068
159	0xbc37164b	-0.011174749
160	0xbe71f4c8	-0.23628533
161	0x3e53c6a2	0.20681241
162	0xbe15215e	-0.1456351
163	0x3db24f3c	0.08706519
164	0xbc312fad	-0.010814589
165	0xbe22b2da	-0.15888539
166	0xbe86dfc3	-0.26342592
167	0x3dd5cd25	0.10439519
168	0xbabd9a85	-0.0014465606
169	0xbb744361	-0.0037271606
170	0xbe705af2	-0.23472193
171	0xbed626c0	-0.4182644
172	0xbd08e261	-0.033419017
173	0xbe8b8372	-0.27248722
174	0x3db61435	0.08890573
175	0xbe08da50	-0.1336453
176	0xbe9ffc31	-0.31247094
177	0xbcc35fe0	-0.023849428
178	0x3e5aaa89	0.21354116
179	0xbe05d23c	-0.1306848
180	0xbdfe1f75	-0.12408344
181	0x3e05035f	0.12989567
182	0xbd0d4a43	-0.03449465
183	0xbd5d38ec	-0.054009363
184	0xbe246f42	-0.16058066
185	0xbdb637c1	-0.08897353
186	0xbd893d83	-0.067011856
187	0xbda85284	-0.082188636
188	0x3d435855	0.047691662
189	0xbe848f47	-0.25890562
190	0x3db463fe	0.088081345
191	0x3cb893f0	0.02253148
192	0x3c0b2a41	0.008493961
193	0xbe12840d	-0.14308186
194	0xbd9eee84	-0.07760337
195	0x3e5659b6	0.2093266
196	0x3e14ee8c	0.14544123
197	0xbe889649	-0.26677158
198	0xbe3cca1d	-0.18436475
199	0xbd5022ad	-0.05081432
200	0xbe954371	-0.29153016
201	0xbad0b651	-0.0015923475
202	0xbe0f8747	-0.14016448
203	0x3c3b231c	0.011421945
204	0xbda72dfa	-0.08163066
205	0xbcf432ba	-0.029809345
206	0x3df245a0	0.11829686
207	0x3dd1dcec	0.10247216
208	0x3db86091	0.090027936
209	0xbdb3f21c	-0.08786413
210	0xbd8149aa	-0.063128784
211	0x3e09993f	0.13437365
212	0xbdad3d0e	-0.08458911
213	0x3d366bcc	0.044536397
214	0xbd5a0f2a	-0.053237118
215	0x3d3d0306	0.04614546
216	0x3dea14fd	0.114297844
217	0x3e649f59	0.22326411
218	0x3d43c36b	0.047793787
219	0xbde8308e	-0.11337386
220	0xbea18a76	-0.3155095
221	0xbdea538d	-0.11441717
222	0x3d97d535	0.07413713
223	0x3ba85ec5	0.0051382505
224	0x3cb6be7e	0.02230763
225	0xbdec776c	-0.115462154
226	0xbdb125e9	-0.08649809
227	0x3e6c09a7	0.23050557
228	0x3e1b76aa	0.15181985
229	0xbd6c555a	-0.057698585
230	0x3d965db9	0.07342095
231	0xbd7e6a85	-0.062113304
232	0x3d6321f6	0.05545231
233	0x3d3f0c7e	0.046642773
234	0xbbc6f4bf	-0.0060716565
235	0xbdaa08f1	-0.08302487
236	0xbdd19ba9	-0.10234768
237	0xbddfea82	-0.10933401
238	0xbe697074	-0.22796804
239	0xbdfd551e	-0.123697504
240	0xbe29f225	-0.16596277
241	0xbeb5c2df	-0.35500237
242	0xbe99faea	-0.30074245
243	0x3dec3525	0.11533574
244	0x3d8cc5f6	0.068736956
245	0x3db90a53	0.09035172
246	0xbd731409	-0.05934528
247	0x3d1ba8c9	0.038002763
248	0xbe7d9f00	-0.24767685
249	0x3da6fb2c	0.08153376
250	0xbee64f72	-0.44982487
251	0xbce1c2d1	-0.027558716
252	0xbd31a299	-0.043367956
253	0xbd830a0b	-0.063984
254	0xbe244484	-0.16041762
255	0xbea9ea25	-0.3318645

sequential_15/dense_116/MatMul f4 [64, 128]
0	0x3e6e56c2	0.23275283
1	0x3e00eca7	0.12590276
2	0xbe6050a6	-0.21905765
3	0xbe056e19	-0.1303028
4	0x3d4be511	0.049779
5	0xbdb61ea7	-0.08892565
6	0xbb2458ad	-0.002507727
7	0xbd00a957	-0.031411495
8	0x3db4d673	0.088299654
9	0xbe950684	-0.29106534
10	0xbe681709	-0.22665037
11	0xbe408d9f	-0.18804024
12	0x3dd7d624	0.10538891
13	0x3d55c60c	0.052190825
14	0xbd485caf	-0.048916515
15	0xbde8b639	-0.11362881
16	0x3bb7ef38	0.005613234
17	0x3d824bef	0.063621394
18	0x3e2c4467	0.16822968
19	0x3e50df15	0.20397599
20	0xbd0b1b59	-0.033961628
21	0xbeb6bbe5	-0.35690227
22	0x3daf13c0	0.08548689
23	0xbe2da714	-0.16958266
24	0xbe93f61b	-0.288987
25	0x3e4ca650	0.19985318
26	0xbe08835e	-0.13331363
27	0x3de8b62c	0.113628715
28	0x3e5edc08	0.21763623
29	0xbe292ff1	-0.16522194
30	0x3d17022a	0.0368673
31	0x3d473d58	0.048642486
32	0x3d13a365	0.036044497
33	0x3e3d876f	0.18508695
34	0xbce2ce00	-0.02768612
35	0x3e879b42	0.2648564
36	0xbd83f00d	-0.064422704
37	0x3de5fa87	0.11229425
38	0x3cb564c8	0.022142783
39	0x3d222b90	0.039592326
40	0xbe43cfa9	-0.19122185
41	0xbe24dfd3	-0.16101007
42	0xbe35cb4a	-0.1775333
43	0x3d33b7e2	0.043876536
44	0xbe1d5543	-0.15364556
45	0xbd8e4dcc	-0.06948432
46	0xbe5972ca	-0.21235195
47	0xbea416ef	-0.32048747
48	0xbd6ffa01	-0.05858803
49	0x3d81adeb	0.06332
50	0x3e0b462e	0.1360099
51	0x3e2c4526	0.16823253
52	0xbe4757c1	-0.19467069
53	0xbe553ad0	-0.20823216
54	0x3e044c23	0.12919669
55	0xbe42112a	-0.1895186
56	0xbd24f292	-0.040270396
57	0xbd3ddd8c	-0.04635386
58	0x3d62662d	0.055273224
59	0xbdd9148c	-0.10599622
60	0xbe629bf1	-0.221298
61	0x3dbcc03b	0.092163526
62	0x3e1a3bab	0.15061824
63	0x3e253471	0.16133286
64	0x3df6218e	0.12018119
65	0x3b6d5848	0.003621595
66	0x3df57af0	0.11986339
67	0xbe4e1987	-0.20126925
68	0xbe90a9f1	-0.28254655
69	0xbe1655a2	-0.14681104
70	0xbe3dccfb	-0.18535225
71	0x3d3caffe	0.046066277
72	0x3e11a38d	0.14222546
73	0x3d8bb85f	0.06822275
74	0x3d03f629	0.03221718
75	0xbd8a6500	-0.067575455
76	0xbdc5514d	-0.096346475
77	0xbe49f1cd	-0.19721146
78	0x3e689a56	0.22715124
79	0xbe5dfc48	-0.21678269
80	0x3c8eb4c9	0.01742019
81	0xbe4f24b1	-0.2022884
82	0x3e4944fd	0.19655223
83	0x3c90953b	0.017649284
84	0x3d8ceb36	0.068808004
85	0x3e7ae406	0.24501047
86	0xbb842a2d	-0.004033348
87	0xbc1b9721	-0.009496481
88	0x3ced177d	0.028941864
89	0x3dc9a152	0.098452225
90	0xbd9b76bb	-0.075910054
91	0xbe54c4ae	-0.20778152
92	0x3dfe2db1	0.12411059
93	0x3a8fddc1	0.0010976122
94	0x3cfe5a42	0.031048898
95	0xbc7c305c	-0.015392389
96	0xbddd754c	-0.10813388
97	0xbe8f9b3a	-0.28048116
98	0xbe353b8b	-0.17698495
99	0xbd423f21	-0.047423486
100	0xbe86257c	-0.26200473
101	0x3d013ebb	0.031553965
102	0xbe0f3d63	-0.13988261
103	0xbe4c39d7	-0.19943939
104	0xbd0498f9	-0.03237245
105	0xbd82831b	-0.06372663
106	0x3dd13328	0.102148354
107	0xbbff791d	-0.0077964203
108	0x3e080840	0.13284397
109	0xbc9061fd	-0.01762485
110	0x3d3b3556	0.045705162
111	0x3dace9f7	0.08443063
112	0xbe26e002	-0.1629639
113	0x3e523fb5	0.20532115
114	0xbd6713e7	-0.056415465
115	0x3e0247af	0.12722658
116	0xbccf323b	-0.025292506
117	0xbcf09b11	-0.029370816
118	0x3d7b1e81	0.061308388
119	0xbdfe75e0	-0.124248266
120	0x3e857750	0.2606759
121	0xbc5286ef	-0.0128495535
122	0x3def85a4	0.11695412
123	0x3e6c87d3	0.23098688
124	0x3dc17457	0.09446018
125	0xbf0354a0	-0.51301
126	0xbda1b22c	-0.07895312
127	0x3e1f4a57	0.15555702
128	0x3e2f61ef	0.17127202
129	0x3d9bd96c	0.07609829
130	0xbe2fb5b3	-0.17159157
131	0x3cce727e	0.025201079
132	0x3d7e2956	0.06205114
133	0xbe105bcc	-0.14097518
134	0xbd842e68	-0.06454164
135	0xbb708914	-0.0036702799
136	0x3b2867fb	0.0025696743
137	0x3e82e545	0.25565544
138	0xbe299e62	-0.16564324
139	0x3dac0fd4	0.084014565
140	0x3cd44478	0.025911555
141	0x3d805b15	0.062673725
142	0x3e1a55be	0.1507177
143	0xbe01a68e	-0.12661192
144	0x3c84d0c4	0.016212828
145	0xbd349e4d	-0.04409628
146	0xbe7d13ca	-0.2471458
147	0xb88c2108	-6.681873e-05
148	0xbe9e5349	-0.30922917
149	0x3e587e4c	0.21141928
150	0xbd069f2f	-0.032866653
151	0xbe204d99	-0.15654601
152	0xbdad2b4a	-0.08455522
153	0x3d6617b0	0.056174934
154	0x3e018d41	0.1265154
155	0x3e3026aa	0.17202249
156	0x3e557524	0.20845467
157	0x3e2e4ca8	0.1702143
158	0xbd80252e	-0.062570915
159	0xbe7a8336	-0.24464116
160	0x3e8228de	0.25421804
161	0x3db833f4	0.08994284
162	0x3df4b505	0.11948589
163	0xbdd7fff8	-0.10546869
164	0x3dd7d1b3	0.10538044
165	0xbe3bbb85	-0.18333252
166	0xbe35e362	-0.17762521
167	0xbbf90688	-0.0075996555
168	0x3c335737	0.010946087
169	0x3d9a5ab5	0.07536832
170	0xbd92c471	-0.071663745
171	0xbc8273a4	-0.015924282
172	0xbd1bf59d	-0.038076032
173	0xbd44619e	-0.047944658
174	0x3e2ff009	0.1718141
175	0xbe99e85a	-0.30060083
176	0xbda0216c	-0.07818875
177	0xbc0c50cf	-0.008564188
178	0xbe1e139b	-0.15437166
179	0xbba2c282	-0.004967035
180	0xbd6ef93a	-0.05834315
181	0xbdf67516	-0.12034051
182	0xbdd5cbb3	-0.10439243
183	0xbe208cbe	-0.15678689
184	0x3e0c81c8	0.13721383
185	0xbe24a331	-0.16077878
186	0xbdcd8815	-0.10035721
187	0xbdbcd346	-0.09219985
188	0xbe4224ac	-0.18959302
189	0xbd5afa05	-0.053461093
190	0x3a6e2243	0.0009084085
191	0x3b159775	0.002282587
192	0xbe66d11a	-0.22540703
193	0x3e90bd67	0.28269503
194	0xbe598bee	-0.21244785
195	0xbe37e246	-0.1795741
196	0xbe665c51	-0.22496153
197	0x3dd7d8aa	0.10539372
198	0x3b5801cf	0.0032960062
199	0x3d65c47f	0.056095596
200	0x3d9b03cf	0.07569086
201	0xbe503bab	-0.20335262
202	0xbdd18c55	-0.10231844
203	0x3c6471d9	0.013943159
204	0xbd8cbdd2	-0.06872143
205	0xbe55612e	-0.20837852
206	0x3e6aeca5	0.22941835
207	0x3d69c4f0	0.05707258
208	0xbdcb13c8	-0.09915882
209	0xbe934fe9	-0.28771904
210	0xbdd94dbd	-0.106105305
211	0xbe25f247	-0.16205703
212	0x3d993ce8	0.0748232
213	0x3d1af485	0.03783085
214	0xbda77d04	-0.08178142
215	0x3d39df94	0.045379236
216	0xb8b1221c	-8.446371e-05
217	0xbcfb7ac9	-0.030698197
218	0x3de5c0f4	0.112184435
219	0x3d83294f	0.06404363
220	0xbebf37e1	-0.3734732
221	0xbbddb9d8	-0.006766539
222	0x3c18547c	0.009297486
223	0xbdb2408d	-0.08703718
224	0xbd8d623f	-0.069035046
225	0xbe0844f0	-0.13307548
226	0xbc3eb051	-0.011638717
227	0xbc4b83ac	-0.01242153
228	0xbd89e7a9	-0.06733639
229	0x3c15fbb0	0.009154245
230	0xbdfc7659	-0.123272605
231	0x3dc4bd18	0.09606379
232	0xbe056fb6	-0.13030896
233	0x3df9fb90	0.12206185
234	0xbea79584	-0.3273126
235	0xbe2f18c3	-0.1709929
236	0x3e3214aa	0.17390695
237	0xbd50fbaf	-0.051021274
238	0xbe088e35	-0.13335498
239	0xbe66ffe3	-0.2255855
240	0x3e067aad	0.13132735
241	0xbe7cb7c3	-0.24679475
242	0x3e1bd546	0.15218076
243	0xbd99d3a5	-0.07511071
244	0x3d82f2c8	0.06393963
245	0xbbc05f76	-0.005870755
246	0xbdb428b5	-0.08796827
247	0x3de14ebb	0.11001345
248	0x3e250391	0.16114642
249	0xbec2ad39	-0.38022783
250	0xbe990086	-0.29883212
251	0xbea7b4fd	-0.3275527
252	0x3e3b7981	0.18308069
253	0xbd4dc110	-0.050232947
254	0x3e48227e	0.19544408
255	0xbd8d5cb0	-0.06902444
