Android_Studio_Projects/app/src/main/ml/model.tflite (tflite, 741408 bytes, 14 tensors)

sequential_18/dense_106/BiasAdd/ReadVariableOp/resource f4 [512]
000000 4e ec 62 be dd a7 a2 be 90 01 85 bd 56 35 60 be
       -0.22160456 -0.31768695 -0.06494439 -0.21895346
000010 3b a1 f1 bd 28 83 b8 be df 56 ec be b4 2f cb be
       -0.117983304 -0.36037564 -0.46160027 -0.39684832
000020 e6 09 03 bf f1 7c 62 be 34 d2 89 be 62 2f 8a be
       -0.5118698 -0.22117974 -0.26918185 -0.26989275
000030 1d 6f 9a be d8 35 a6 be 60 c0 b5 be 12 20 8e be
       -0.30162898 -0.32462955 -0.35498333 -0.27758843
000040 a5 04 36 be bc 64 43 be 72 41 a1 be 08 4d 37 be
       -0.17775209 -0.19081396 -0.31495243 -0.17900479
000050 a6 74 94 be dc 9c aa be 0b 98 dc bb 9f 00 5e be
       -0.28995246 -0.333228 -0.006731992 -0.21679924
000060 29 26 7b bd 06 97 1a be b5 da 95 be 26 1c f9 bd
       -0.06131569 -0.15096673 -0.29268423 -0.12163572
000070 b9 59 49 be 51 27 41 3c 17 60 b7 be 59 3e 06 be
       -0.19663133 0.011789159 -0.35815498 -0.13109721
000080 1f 7d ed be 6c 1a 41 be 0b 60 2a bf d9 72 ae be
       -0.46384522 -0.18857735 -0.665528 -0.34071997
000090 85 2a d8 bd 20 b8 60 be 11 dc 0a be 16 93 3f bc
       -0.10554985 -0.21945238 -0.13560511 -0.011692783
0000a0 d7 52 6c be c0 10 b8 be b2 bb a3 be 47 31 2d be
       -0.23078476 -0.3595028 -0.31979138 -0.16913329
0000b0 0e f8 89 be 23 86 87 be 0d 83 ad be 67 f3 e8 be
       -0.26947063 -0.26469526 -0.33889046 -0.454982
0000c0 78 7e af bd fc 8e bc be d9 50 69 be 4f 6a 9e be
       -0.08569044 -0.36827838 -0.22784747 -0.30940482
0000d0 74 33 89 be 35 1e ba bd 1d 91 96 bd 01 85 47 be
       -0.26797068 -0.09087793 -0.07351897 -0.1948433
0000e0 51 45 65 be 0f 18 22 be 33 b4 84 be 05 d6 f6 be
       -0.22389723 -0.1582949 -0.2591873 -0.4821016
0000f0 fd 1f 50 be cd 47 a1 be ac 92 d5 bd cb 0c 13 bf
       -0.20324703 -0.31500092 -0.10428366 -0.57441396
000100 63 8e cf be af 69 86 be a6 8a 0c be 9e 78 1e be
       -0.4053832 -0.26252505 -0.13724765 -0.154757
000110 4e b1 d2 bd bd b6 85 be 0a 70 97 be 33 08 69 be
       -0.102877244 -0.2611598 -0.29577667 -0.22757034
000120 c0 43 97 be de d1 e4 be e0 8b bf be 96 9f 2d be
       -0.29543877 -0.44691366 -0.37411404 -0.16955408
000130 71 5a 3e be 16 2a f2 be 6b 2d 74 be c1 7d a4 be
       -0.18589188 -0.47297734 -0.2384545 -0.32127193
000140 a9 dd 2d be b6 ad a2 be 32 6e a8 be 50 46 16 be
       -0.16979088 -0.31773156 -0.32896572 -0.1467526
000150 35 ff 1a be 4f 47 ee bd fd 62 4b be 2a 28 cd be
       -0.15136416 -0.11634695 -0.1986198 -0.40069705
000160 00 63 49 be fc 8e ec be 6d f1 29 be 04 ad bc be
       -0.19666672 -0.46202838 -0.16596003 -0.3685075
000170 49 ad 41 be 84 ef 44 bd 68 a3 f6 bd ae f9 0f be
       -0.1891376 -0.048079982 -0.12042886 -0.14060089
000180 71 49 83 be 38 14 47 be d7 95 95 be 7e da a3 be
       -0.2564197 -0.19441307 -0.2921588 -0.32002634
000190 3e c0 03 3b a0 f8 74 be 25 7f 83 be e7 80 02 be
       0.00201036 -0.23922968 -0.2568294 -0.12744485
0001a0 ea 78 02 be b5 68 fc be 27 86 b1 be 8c 72 0e be
       -0.12741438 -0.49298635 -0.34672663 -0.13910884
0001b0 0c d0 84 be 43 50 e5 be bd 0a 77 be c7 28 9f be
       -0.25939977 -0.44787797 -0.2412519 -0.31085798
0001c0 62 08 87 be 56 7e a5 be 56 81 ae be 85 87 80 be
       -0.26373583 -0.3232295 -0.3408305 -0.25103393
0001d0 ae e6 87 be e9 90 e2 bd 1b b0 73 be 11 75 25 be
       -0.26543182 -0.11062796 -0.23797648 -0.16157939
0001e0 07 65 9f bd b7 92 02 be 4c 19 3d be 3a 2d b0 be
       -0.07782941 -0.1275128 -0.18466681 -0.34409505
0001f0 b8 7e cb bd 3b 12 3d be be ef d1 be c7 78 c9 be
       -0.09936279 -0.18463986 -0.4100322 -0.39349958
000200 f2 ec 22 be 07 0e 53 be 99 3a 56 be b6 e7 7b be
       -0.159107 -0.2061082 -0.2092079 -0.2460011
000210 f5 4d 71 be 33 d2 9b bc 88 99 f4 bd 55 6c 94 be
       -0.23564894 -0.01902113 -0.11943346 -0.289889
000220 3e 1e 22 be 69 4d 5d be 57 35 3e be 73 58 91 be
       -0.15831849 -0.21611561 -0.18575035 -0.28387794
000230 3d ce 50 be dc ab 7c bc 48 d3 ae 3a 3b 09 a0 be
       -0.20391174 -0.015421834 0.0013338113 -0.31257042
000240 e2 4f 54 be 81 45 1b be 63 a3 6d be 28 02 16 be
       -0.20733598 -0.15163232 -0.23206858 -0.1464926
000250 7b c5 df be ad 92 96 be a8 18 b7 be e7 d9 c7 be
       -0.43705353 -0.2940878 -0.35761 -0.39033434
000260 0c f8 c2 be 52 fa 96 be a6 37 4c be c4 16 53 be
       -0.3807987 -0.29487854 -0.19943103 -0.20614153
000270 34 19 02 bf ac 19 aa be cc 2d b8 be 6e 9a 96 be
       -0.50819707 -0.3322271 -0.3597244 -0.29414696
000280 28 4d 6c be b8 0e 8e be 27 d9 29 be e9 09 f9 be
       -0.23076308 -0.27745605 -0.16586743 -0.48640373
000290 9d 40 c2 be 18 a0 88 be 3e be 96 be b8 03 8e be
       -0.3793992 -0.26684642 -0.29442018 -0.27737212
0002a0 0c 76 88 be fc b3 b6 bd 29 69 ab bd 80 72 e2 be
       -0.26652563 -0.08921048 -0.08369667 -0.44227982
0002b0 90 f9 f3 be aa 15 94 bd ba f8 00 be cd e4 68 be
       -0.4765134 -0.072306946 -0.12594882 -0.2274353
0002c0 2f a3 87 be 73 57 8e be 40 ff be be 56 b4 d7 bd
       -0.26491687 -0.27801093 -0.37304115 -0.10532443
0002d0 3b 69 6c be 15 6a ae be 99 61 9a be 03 d2 be be
       -0.23087017 -0.3406531 -0.30152586 -0.372696
0002e0 20 db 16 be 0d 25 94 be d0 5b 67 be db 21 81 be
       -0.14732027 -0.28934518 -0.22593617 -0.25221142
0002f0 42 ae a7 be ab 56 d7 be 4c 9c 81 be 00 47 77 be
       -0.32750136 -0.4205831 -0.25314558 -0.24148178
000300 00 99 98 be ee 1d 8e be 37 09 9b be b0 db d3 bd
       -0.2980423 -0.2775721 -0.30280468 -0.103446364
000310 ab 18 1e be 89 89 d1 bd 76 d7 e2 bd 80 4e dc bd
       -0.15439098 -0.10231311 -0.11076252 -0.1075716
000320 7f 62 67 be cd 54 a6 be a3 39 92 be 8a 30 8d be
       -0.22596167 -0.32486573 -0.28559598 -0.27576095
000330 63 b2 59 be a3 97 74 be ca ee 49 be d5 02 9e be
       -0.21259455 -0.2388597 -0.19719997 -0.30861536
000340 cd 1e e3 be 7e b6 55 be 46 39 a3 be 47 a4 6c bd
       -0.44359437 -0.20870396 -0.31879634 -0.057773855
000350 02 ee 61 be ec bf 52 be a9 1c 99 bd 64 63 ac be
       -0.22063449 -0.20581025 -0.074761696 -0.3366958
000360 45 25 c6 be b3 93 ba be e1 af d2 be b0 7c 40 be
       -0.3870031 -0.3644081 -0.4114981 -0.18797565
000370 09 16 6b be 36 00 57 be 83 2b 9f be d3 03 1f be
       -0.22957624 -0.20996174 -0.31087884 -0.15528803
000380 b1 ef 88 be ba bb ed be 28 78 b7 be aa b6 2d bd
       -0.2674537 -0.46432287 -0.3583386 -0.04241053
000390 34 d2 d8 be 13 58 04 be 2f 6b b0 be 3d e3 ab be
       -0.42347872 -0.12924223 -0.34456775 -0.33571807
0003a0 e7 dd be be 1d 3d cd bd 6c f8 14 be 63 1b 56 be
       -0.37278673 -0.10021422 -0.1454789 -0.20908885
0003b0 a7 63 80 be 55 57 95 be ac da 47 be f2 a3 c4 bd
       -0.2507603 -0.29168192 -0.1951701 -0.096015826
0003c0 5a 93 a5 be 64 e4 89 be 6a eb 50 be 7f 77 66 be
       -0.32338983 -0.2693206 -0.20402303 -0.22506522
0003d0 e3 42 73 be c6 ed a5 be b8 0f a7 3c 08 06 8b be
       -0.23755984 -0.3240797 0.020393237 -0.2715304
0003e0 b6 5d b0 bd 05 86 53 bd fc fc bc be a4 0f c3 be
       -0.08611624 -0.051641483 -0.36911762 -0.3809787
0003f0 81 3c 2a be 09 26 81 be 76 d3 5a be 27 e1 ac be
       -0.16624643 -0.2522433 -0.21369728 -0.33765528

sequential_18/dense_107/BiasAdd/ReadVariableOp/resource f4 [256]
000000 da 96 2f 3e 3d 35 7e 3d d5 46 c1 3c 41 0c e0 3b
       0.17147389 0.06206249 0.023593346 0.0068373983
000010 05 f6 18 be bf e1 71 bd 93 56 12 be 08 3b 78 bc
       -0.14937599 -0.05905318 -0.14290838 -0.015150793
000020 a3 82 29 be ed 6c 94 bd 2a 93 a2 bd 13 79 25 bd
       -0.1655374 -0.072473384 -0.079382256 -0.04039867
000030 37 2e 47 bd c5 8f 1b be 6a 8c a2 be 26 47 ce bd
       -0.04862806 -0.15191562 -0.31747752 -0.10072164
000040 41 60 f2 bd 4f 86 b0 be 7b 93 09 3d 75 5f b7 bb
       -0.11834765 -0.3447747 0.033587914 -0.005596096
000050 cd 73 fc 3d b1 23 14 bd dd 0c 33 3e e3 e5 28 be
       0.12326775 -0.03616685 0.17485376 -0.16493945
000060 c2 ee 98 be 09 dd 77 bd 24 c4 25 be d8 32 e6 bd
       -0.29869658 -0.06051353 -0.16188103 -0.112401664
000070 f9 87 aa bd 15 12 a8 bd e4 7c 93 3e 62 f6 09 3e
       -0.08326716 -0.08206574 0.2880622 0.13472894
000080 4a d8 76 be 65 5d 77 be 03 81 e3 3c 40 60 71 3d
       -0.24105945 -0.24156721 0.027771479 0.05892968
000090 e2 89 33 3e 0a b7 12 be 73 b3 7d 3e 54 eb 8a 3e
       0.17533067 -0.14327636 0.24775486 0.27132666
0000a0 5f 0e a1 bd 90 39 c7 be 55 26 a2 be 0a b5 0d 3d
       -0.07864069 -0.38911104 -0.3166987 0.03459648
0000b0 f7 bf 9b be 2b f4 84 bd cb de 8a 3d 5e e3 89 be
       -0.30419895 -0.06491884 0.06780776 -0.2693128
0000c0 39 59 89 be 18 39 d9 be bc e2 13 3e 2d 7f 85 bd
       -0.26825884 -0.42426372 0.14441961 -0.065183975
0000d0 53 ca b9 bd d1 9c b1 bd e7 c4 c0 3c 04 bd 0d be
       -0.090717934 -0.086724885 0.02353139 -0.13841635
0000e0 a0 19 89 bd 26 f6 25 bc 61 93 6d bd 04 23 39 be
       -0.06694341 -0.010129487 -0.05800188 -0.18079764
0000f0 96 f4 21 3e a2 0f fb 3b 8a 97 2d 3d 03 90 25 be
       0.15815958 0.0076617757 0.042380847 -0.16168217
000100 40 52 dc be d5 44 a7 bd b2 dc 97 3d eb ce 79 be
       -0.43031502 -0.081674255 0.07415141 -0.24395339
000110 0c 8a d9 3d d7 29 09 be 79 58 7a 3a 99 11 a1 be
       0.106220335 -0.13394867 0.00095499266 -0.31458738
000120 48 60 83 be 2e 47 30 be f3 fd 35 be 13 a4 5e be
       -0.25659394 -0.17214653 -0.17772655 -0.21742277
000130 29 25 a3 bd 47 e1 91 bd cc e5 30 be 9f 6e 94 be
       -0.07966072 -0.07123046 -0.1727516 -0.28990647
000140 12 85 04 3e 00 4e aa be f4 2c c4 be b6 62 56 be
       0.12941387 -0.33262634 -0.38315547 -0.20936093
000150 c1 a9 ce 3d 50 4b 05 be 0e 9e 3f 3c c2 67 6a bd
       0.10090972 -0.1301701 0.011695398 -0.057227857
000160 87 26 7a bd e8 14 69 be e0 f8 97 bd 2f 21 bd 3d
       -0.0610719 -0.22761881 -0.07420516 0.09234845
000170 b8 7b 93 be 70 44 76 bd 04 26 8f bc 11 34 66 bd
       -0.28805327 -0.06012386 -0.017474182 -0.056202
000180 1c 42 ab be 82 71 80 be ff fa 41 be 91 b3 36 3c
       -0.33448875 -0.250866 -0.18943404 0.01115121
000190 51 49 75 be 84 9f af 3e 38 d2 08 be fb 1d 10 3d
       -0.23953749 0.34301388 -0.13361442 0.03518484
0001a0 a5 44 0e bd ed d2 06 be 0b 17 c1 3c 90 a1 2e bd
       -0.034733433 -0.131664 0.023570558 -0.042634547
0001b0 aa 5b f4 3d 8e fd eb 3d ec a6 0c 3e 00 ea 80 3d
       0.11931546 0.11522971 0.1373555 0.06294632
0001c0 42 e6 fe 3c db 42 3d 3e 59 d8 c7 bd 1c c3 73 3c
       0.031115655 0.18482535 -0.09758062 0.014878061
0001d0 96 48 7e 3d 67 5e bd be 03 1b bc 3b 95 1b 84 be
       0.062080942 -0.36986086 0.0057405247 -0.25802293
0001e0 8c 6e 87 be b4 fb 69 3d 9a db 01 3d d1 8b e6 bd
       -0.26451528 0.05712481 0.03170357 -0.112571366
0001f0 d4 cc be be c8 0c 4d 3e 93 93 75 be 47 0b 62 3e
       -0.37265646 0.20024407 -0.23982076 0.22074614
000200 a7 65 36 be 0e 9a 9e be 2c da 6f be fb da 13 be
       -0.17812215 -0.3097691 -0.2342307 -0.14439003
000210 f4 94 83 bd 88 36 43 bd 3e ec c7 3d 17 be b8 bc
       -0.06424895 -0.047659427 0.097618565 -0.02255158
000220 ba f1 ed bc c7 52 75 be e7 e2 04 be da fe 38 be
       -0.029045928 -0.23957358 -0.12977181 -0.18065968
000230 0c db 0e be fb ac f3 3d 88 ad d9 3d 83 cd 67 be
       -0.13950747 0.11898228 0.106288016 -0.2263699
000240 a6 18 79 3e 42 ff 18 bd 4f 1e 36 be 09 81 bf be
       0.24325809 -0.037352808 -0.17785 -0.37403134
000250 1f e8 85 bd ec 4e 11 3d 9e 50 f6 3c d7 2a 65 3e
       -0.06538414 0.035475656 0.030067738 0.22379623
000260 a8 d4 e8 bc 43 d6 65 be 0d 3a 67 3d 00 f5 8f 3e
       -0.028421715 -0.22445016 0.056451846 0.28116608
000270 2f 44 01 bf 89 20 ee bd 17 01 22 bd a2 14 61 be
       -0.50494665 -0.11627299 -0.03955182 -0.21980527
000280 3c a9 38 3d f1 c4 c4 3d cd 60 19 be 5c 86 36 be
       0.04508327 0.09607876 -0.14978333 -0.17824692
000290 7e 99 e9 bc 85 b4 e1 be b0 28 2b be f9 7d 91 be
       -0.028515574 -0.44083038 -0.1671474 -0.28416422
0002a0 74 41 6d bd fd 88 0a be 04 ed ef bd 78 b1 bf bd
       -0.05792375 -0.1352882 -0.11715129 -0.09360021
0002b0 28 d4 49 3c 92 e6 9b be 6a a0 76 be a2 03 a3 bd
       0.012318648 -0.3044935 -0.2408463 -0.07959677
0002c0 62 d9 25 3e 5f 1f 92 bd 64 64 43 3e 5d 6c 68 3d
       0.16196206 -0.0713489 0.19081265 0.05674397
0002d0 4f 86 90 be bb 1b 8d 3d 92 3d d7 bd 33 7c e8 bd
       -0.2822747 0.06890055 -0.105097905 -0.11351814
0002e0 0e ac 5a be b4 f8 2f be b8 1c 57 be 6a 80 a4 be
       -0.21354696 -0.17184716 -0.21007049 -0.32129222
0002f0 75 ec f6 bd 2e f2 c8 3d 7d 84 44 be 8a d6 36 3c
       -0.12056819 0.09811817 -0.19191165 0.011159549
000300 cf 95 47 bd 61 e3 a9 be 9a 8f 20 be 2a 3e be bd
       -0.048726853 -0.3318129 -0.1567978 -0.092892006
000310 4a 55 10 be 4a 97 3c bd 09 33 91 3d 48 bd f0 bd
       -0.14095035 -0.046042718 0.07089812 -0.117548525
000320 e3 46 2d 3e 27 ed 79 be 0c ae 23 bd fd 9b ea be
       0.16921572 -0.24406873 -0.039960906 -0.45822135
000330 c0 48 43 be 72 a8 df 3d 2d 30 bf bd 9c 8c 9c be
       -0.1907072 0.109208 -0.09335361 -0.30576026
000340 c9 ff 90 bc 5e 1d f6 3d e5 6b 48 bd 00 bc b7 3c
       -0.017700093 0.1201732 -0.04893102 0.022428513
000350 5f f0 fa 3c bb d7 52 3e ea c9 cb 3d 10 58 91 bd
       0.030632196 0.20590107 0.099506214 -0.07096875
000360 de 4e e8 bd 1d 52 b0 be 32 76 ac 3e 90 37 2d 3e
       -0.11343168 -0.34437647 0.33683926 0.16915727
000370 bb cc 59 bd 4b 04 62 bd 2c a8 9b bd 42 8c 1b 3d
       -0.05317376 -0.055179875 -0.076004356 0.037975557
000380 9d 3e 4b 3e f9 e7 a4 bd 87 75 96 be 97 4d 0a be
       0.19848104 -0.08052058 -0.2938654 -0.1350616
000390 c6 5b 1b bc 17 d5 cd be 28 a0 01 bf 42 4b 6a be
       -0.00948233 -0.40201637 -0.50635004 -0.22880271
0003a0 c5 c4 ef bd 5e bb 54 3e 01 e3 75 be 60 a6 ef be
       -0.11707453 0.207746 -0.24012376 -0.46806622
0003b0 2d 96 e9 3c 67 76 43 3c 7b 6b 78 3d 1a 95 d3 bd
       0.028513992 0.011930085 0.060649376 -0.10331173
0003c0 80 cd a0 be 66 b6 97 bd 9e 1c 8a bd 22 fa 4c bd
       -0.31406784 -0.074078366 -0.067437395 -0.050043233
0003d0 de 4b 4a be 04 4d 84 be 3e 50 a5 bd cf a8 15 bd
       -0.19755504 -0.25840008 -0.080719456 -0.03653794
0003e0 50 d7 49 be 78 c3 12 3e 1b 70 38 be c8 d2 31 3d
       -0.19711041 0.14332378 -0.18011515 0.043413907
0003f0 9a f6 6c be c0 c9 30 3e 7c 07 10 be 3f 76 94 bc
       -0.23140946 0.17264462 -0.14065355 -0.01812279

sequential_18/dense_108/BiasAdd/ReadVariableOp/resource f4 [128]
000000 aa c1 f9 bd ab aa 27 3e ec bf cf 3d 1e fa b7 3d
       -0.121951416 0.16373698 0.10144028 0.08983253
000010 f7 ce 52 3e 47 93 b3 be ed ab 5f 3d 71 af e6 bd
       0.20586763 -0.350733 0.05460732 -0.112639315
000020 15 a4 4c be 5f bb 60 bd c8 ad 77 3d dd 8b e2 bd
       -0.19984467 -0.05486619 0.060468465 -0.11061833
000030 30 54 a9 3d b6 82 6d 3e 63 be 53 be 7f 30 88 be
       0.082680106 0.23194394 -0.20678096 -0.265995
000040 45 a5 85 bd 8f c8 29 be db ec 7d 3e 18 92 b6 3c
       -0.06525663 -0.16580413 0.24797384 0.02228646
000050 1b 8d b9 3d 1a ff 44 3e a4 9f 6b bc f9 84 1f 3d
       0.09060117 0.19237939 -0.014381323 0.038945172
000060 bb af 12 be 5e 07 33 be ab 7d 90 bc 8a e2 e6 bd
       -0.14324848 -0.17483279 -0.017638048 -0.11273678
000070 2f a6 fd bd 9e 7c c7 3d 27 4c 95 bc 55 93 8c be
       -0.12385213 0.09740566 -0.018224789 -0.27456155
000080 76 c1 73 3d 08 6b 24 be 13 b4 16 be b6 a3 35 3e
       0.05951067 -0.16056454 -0.1471713 0.17738232
000090 1d 56 c8 3d 01 e0 10 3e cc 97 34 3e ce de 4f be
       0.0978205 0.1414795 0.17636031 -0.20299837
0000a0 7d ce 0e 3d 58 2b 26 3e cf 65 ab bd cf 25 1d 3d
       0.03486489 0.16227472 -0.08369028 0.038366135
0000b0 09 bf 67 3e 03 e2 a1 3b 27 16 6a be 11 87 44 3d
       0.22631468 0.004940273 -0.22860013 0.047980372
0000c0 72 ff df 3d 33 0f ce bc 7a b5 bf 3d e0 66 73 bd
       0.10937394 -0.025153732 0.09360786 -0.05942428
0000d0 fe fd 52 bd 21 d6 e4 bd 27 ff 12 be 63 4f ed bc
       -0.051511757 -0.11173654 -0.14355145 -0.028968519
0000e0 6e a3 66 3e df 1d 8f bd 2e bd 64 be 89 a3 29 be
       0.22523281 -0.06988119 -0.22337791 -0.1656629
0000f0 6a c1 3e be 91 73 71 be 25 3d 4e be 09 b9 b4 3c
       -0.18628469 -0.23579241 -0.20140512 0.022060888
000100 ce 0b 9a be b8 be 11 3d ab c6 1e be 06 50 65 bc
       -0.3008713 0.035582274 -0.15505473 -0.01399613
000110 a2 fb e2 3d 6f 33 e8 3d 6e 6f 5a be c1 e1 90 be
       0.110831514 0.11337935 -0.2133157 -0.28297237
000120 1d 41 e2 be d8 57 2e be 0c 75 f2 3d 2b 48 3a be
       -0.44190302 -0.17025697 0.11838731 -0.18191592
000130 4f 4a 89 be 58 69 11 3d 40 b3 97 bd de 1e a4 3c
       -0.26814505 0.035500854 -0.07407236 0.02003425
000140 f2 ab 0f 3e ab 73 34 3e a5 33 25 bd 0b 72 39 bd
       0.14030436 0.17622249 -0.040332455 -0.045274775
000150 f1 9b 11 bd 99 75 84 3c a9 86 4c be 46 98 8b be
       -0.035549108 0.016169356 -0.19973244 -0.27264613
000160 4a c6 87 be d5 2b 26 bd 32 e7 ac 3d 81 4c e2 bd
       -0.2651847 -0.040569145 0.084425345 -0.11049748
000170 3c ca 81 3e 4e 6f 39 3e 79 58 8a 3e f9 1f 3e 3d
       0.25349605 0.18108866 0.27020624 0.04641721
000180 8a 11 d4 be 9c dc 99 bc d8 c4 7d bd a3 aa b5 bd
       -0.4141963 -0.018781953 -0.061955303 -0.08870437
000190 79 3a c0 bc 8d ca 7b bd a3 08 11 be 62 29 10 be
       -0.023465382 -0.061472464 -0.14163451 -0.14078286
0001a0 65 57 e7 3b b7 28 3c 3e 17 50 31 3e 37 f5 a5 3d
       0.007059979 0.18374906 0.17315708 0.08103412
0001b0 29 6c 15 bc 59 76 c5 bd 77 59 6d bd 9d 84 dc bd
       -0.009120026 -0.09641714 -0.05794665 -0.107674815
0001c0 ca 47 14 be 86 cf 44 3e f9 12 3e bd 31 b5 8c be
       -0.1448051 0.19219789 -0.046404812 -0.27481988
0001d0 7a 60 c1 be 1b c3 dc bd bf 88 9c be 25 b7 a1 be
       -0.37768918 -0.10779401 -0.3057308 -0.3158504
0001e0 fd 19 dc bb 3e 0b 63 3c 1c e8 27 3e 78 17 ea 3d
       -0.006716965 0.013857661 0.16397136 0.114302576
0001f0 bf 37 2f be 63 76 aa bd b6 65 9c 3d ba a2 10 3e
       -0.17111109 -0.08323362 0.07636587 0.14124575

sequential_18/dense_109/BiasAdd/ReadVariableOp/resource f4 [64]
000000 73 5f 8e 3e 0a 4b ce 3d 7d fe 2e 3d 9c 1f 80 3e
       0.27807197 0.10072906 0.042723168 0.25024116
000010 0b c3 5f 3e 45 f9 2a 3e 70 45 79 3e 28 ab ab 3d
       0.21851747 0.16696651 0.24342895 0.08382255
000020 ac 82 44 3e 5a 0f ca 3c 0f a0 38 3e 97 c8 dc 3d
       0.19190472 0.024665523 0.18029808 0.10780447
000030 16 b8 f6 bb 0b 70 92 3e 87 83 5e bb d6 ea 58 3e
       -0.007529269 0.28601107 -0.0033952908 0.21183333
000040 6f 93 50 3d 58 ec 57 3e b1 b2 19 3e 20 6a 3d 3e
       0.050921854 0.21086252 0.15009572 0.18497515
000050 aa 43 72 be ba 6e 67 be fe 46 ce 3d 81 e2 2e 3e
       -0.23658624 -0.22600833 0.100721344 0.17078592
000060 47 d3 7f 3e 6e 7b 7e 3e 70 e6 26 3e 0a bb ce 3b
       0.2498294 0.24851772 0.16298842 0.006308918
000070 2d 09 74 3d 61 f0 51 3e 82 05 24 3e 71 d0 d7 3c
       0.059579063 0.20501854 0.16017726 0.02634451
000080 5a c2 44 3e 53 c8 2e 3d be e9 a2 bd bd 1b bb bd
       0.19214764 0.042671513 -0.07954739 -0.0913615
000090 5b 69 64 be 98 7a eb bc 90 a0 94 3e 86 84 f5 3d
       -0.22305815 -0.02874498 0.2902875 0.119881675
0000a0 a5 1d 96 bb 9e 28 d7 bd 85 3d 57 bc be f7 e8 3d
       -0.0045811706 -0.10505794 -0.013137226 0.11375378
0000b0 73 61 16 3e 39 c5 d1 3d 6c 82 f8 bd 44 80 69 3e
       0.14685611 0.10242695 -0.12134251 0.22802836
0000c0 40 7d 32 3e 5f ec 1a bd e5 42 68 be 85 7b 3f 3e
       0.17430592 -0.037823077 -0.22681768 0.18699463
0000d0 1b 1a 4f 3e 7a d6 4a 3e d4 87 0d bd 45 d3 61 3e
       0.20224802 0.19808379 -0.034553364 0.22053249
0000e0 3d 52 64 3e 97 75 02 be 12 a7 97 3d db 2c 9e 3d
       0.22296996 -0.1274017 0.07404913 0.07723399
0000f0 44 b9 61 3c 28 c3 38 3e 83 76 39 be 46 48 81 3e
       0.013777081 0.18043196 -0.18111615 0.25250453

sequential_18/dense_110/BiasAdd/ReadVariableOp/resource f4 [32]
000000 4a 69 bb 3e 8b 3b a5 3d 37 d5 ca 3e 5c 95 98 3e
       0.36603767 0.080679975 0.39615795 0.29801452
000010 2d e9 f5 3c 8a 8c 06 3f df 83 ae bc 05 e5 8b 3e
       0.030018413 0.52558196 -0.021303115 0.27323166
000020 6a 13 96 3e 4e 49 99 3e 3c f3 40 bd ee 7b 0e 3f
       0.29311687 0.2993874 -0.047106966 0.5565785
000030 1f 4b 09 3f 2a 7c b1 3d 46 4a 82 3e 74 9a de 3d
       0.5363025 0.086662605 0.2544729 0.10869303
000040 79 59 86 3e 87 eb c0 3e ee e8 fe 3c 19 df 8d 3e
       0.26240137 0.37679693 0.031116929 0.27709273
000050 d4 73 87 bd b4 76 6e 3e 2c 53 05 bd 52 bd db bd
       -0.06613889 0.23287469 -0.032550022 -0.10729469
000060 43 04 a7 3c 28 c9 03 3f 43 56 3a 3e cf 45 1f 3e
       0.020387774 0.51478815 0.18196969 0.15553974
000070 f1 b3 d9 3e 83 ec 3b 3d c5 a7 1f 3e ff 37 05 3f
       0.42520097 0.045879852 0.15591343 0.5203857

sequential_18/dense_111/BiasAdd/ReadVariableOp/resource f4 [16]
000000 62 e2 a0 3e d6 cd 7b 3e e4 90 20 3e 79 f3 01 3f
       0.31422716 0.24590239 0.15680271 0.50762135
000010 c2 64 31 3f 1a fd a1 3e 0a 4b a9 3e 35 ee 09 3e
       0.6929437 0.31638414 0.33065063 0.13469775
000020 f2 af c8 3e ef da 1e 3f ab 1c 2e 3f 17 15 19 3f
       0.39196736 0.62052816 0.68012494 0.59797806
000030 f5 0e 0d 3f 18 a2 1a 3f 3a 26 25 3f 3b 81 9f 3e
       0.5510095 0.60403585 0.64511454 0.31153283

sequential_18/dense_112/BiasAdd/ReadVariableOp/resource f4 [10]
000000 49 38 4f bd bc 69 95 3e bf 32 eb 3e 96 03 6d 3c
       -0.050590787 0.2918223 0.45937154 0.014466187
000010 62 b9 26 be 52 df 42 3e d1 21 f0 be f5 2b 94 be
       -0.16281655 0.19030502 -0.469008 -0.28939787
000020 7e 3e 1d be be 5c cd 3d
       -0.1535587 0.10027455

sequential_18/dense_106/MatMul f4 [512, 17]
000000 6e 7c 00 3c 9a fa b1 bd e6 63 3e 3c be 9e e1 bd
       0.007842166 -0.086903766 0.011620497 -0.11016606
000010 2d e2 0a 3c c1 98 15 3e 7b a3 09 be 1a a6 18 be
       0.008476776 0.14609052 -0.13441269 -0.14907113
000020 b6 f2 9d 3e bb f1 3a be 0d c3 57 bc 7d 1e 4e bc
       0.30849236 -0.18256275 -0.013169062 -0.012580511
000030 7c 00 a6 bd aa c0 9a be d7 25 9f bd df 63 af 3d
       -0.08105561 -0.30225116 -0.07770889 0.08563971
000040 0a d5 18 3d 4e 6b 0e be 55 1c 34 be 16 a4 23 be
       0.037312545 -0.13908121 -0.17588933 -0.15980563
000050 0b 18 e1 3d 22 02 95 bd d5 da 13 be 32 77 de 3e
       0.10990914 -0.072757974 -0.14438947 0.43450314
000060 47 eb 3f 3d 16 87 6e bd 86 00 72 3e 05 b5 5a 3e
       0.046855237 -0.058234297 0.23633012 0.21358116
000070 81 d6 65 3c 26 89 99 bd 3f e8 9e 3d b1 d0 5f 3e
       0.0140281925 -0.07496862 0.07759141 0.21856953
000080 24 b5 2e 3d 1d 7f 05 3e 53 cf a9 bc fc ba cc 3b
       0.042653218 0.13036771 -0.020728743 0.006247876
000090 fd b5 23 3e b6 89 b8 bd de 3c 51 3e 6e f2 a8 3d
       0.15987392 -0.09010641 0.20433375 0.08249365
0000a0 5d 9b d9 be d4 fb 40 3d 04 c0 a7 3e 76 3e 95 bd
       -0.42501345 0.047115162 0.32763684 -0.07287304
0000b0 9d 4f e9 bd 77 c5 8b bd cc 27 b5 3e 83 70 7e be
       -0.11392138 -0.06824773 0.35381925 -0.24847607
0000c0 2a d0 12 be 25 89 6b 3d 44 9c 96 bc 28 c8 5b 3e
       -0.14337221 0.057503838 -0.01838506 0.21463072
0000d0 04 c1 2b 3d 97 af fa bd c6 5a d7 3d 71 48 0e 3e
       0.04193212 -0.12240522 0.105153605 0.13894822
0000e0 11 36 6f be 22 bf e4 3c f7 0e a5 3d 15 e6 81 bd
       -0.23360468 0.02792317 0.08059495 -0.06342713
0000f0 6f a2 a2 bd e0 d5 80 be 5e 5f 42 3e 57 c7 12 bd
       -0.07941138 -0.25163174 0.18981692 -0.035834637
000100 75 50 28 3e 92 d4 02 bd f9 af a9 be 65 b6 b9 3c
       0.16436942 -0.031941004 -0.3314207 0.02266998
000110 38 32 eb 3d 86 be 25 3d a0 d1 15 3e 99 db b1 be
       0.11484188 0.0404649 0.14630747 -0.34737852
000120 8c 20 49 bd 68 d4 24 3e f9 91 82 be 7b fe 06 be
       -0.049103305 0.16096652 -0.25501993 -0.13183014
000130 48 c6 9b 3e f8 8c 0a be 0a f9 f5 3c d0 18 f9 3d
       0.30424714 -0.13530338 0.030025978 0.12162936
000140 bb 59 c4 bd 35 b2 27 3d 3d f9 9c 3d 38 48 e5 bd
       -0.09587427 0.040941436 0.07664726 -0.11195415
000150 18 fe ea 3c 6a 6d ed 3d c4 05 ec bd 84 62 0c 3d
       0.028685614 0.11593135 -0.11524537 0.03427364
000160 b6 44 25 be 36 13 c0 3e c9 3e d8 bd 0b b2 93 be
       -0.16139492 0.37514657 -0.1055885 -0.28846774
000170 54 2c 01 3e c5 3e e1 3a f9 9a b0 bd 12 f3 f8 bc
       0.12614566 0.0017184844 -0.08623309 -0.030389342
000180 0b 21 83 bd 9d 38 17 be 11 dc e0 bb 06 69 97 3c
       -0.06402787 -0.1476769 -0.0068621715 0.018482696
000190 9b b1 58 3d f9 ce bd bd 57 07 f1 3d 4f 55 0d bc
       0.052903753 -0.092679925 0.11768978 -0.008626296
0001a0 c7 f1 97 3d 18 4e fb 3d c2 85 0a 3e e2 1c 85 be
       0.07419162 0.122707546 0.13527587 -0.25998598
0001b0 41 d8 28 bd 1e 2a c0 bb f9 80 8a bd 1d 6d 40 3e
       -0.04122186 -0.0058643958 -0.06762881 0.18791623
0001c0 b2 2a d7 3d bf 01 15 3d 23 ae 6e 3b 8a a4 39 be
       0.1050619 0.03637862 0.0036419712 -0.18129173
0001d0 56 53 27 3d 30 51 97 bc d4 f9 bb 3e 31 e1 e7 3c
       0.04085096 -0.01847133 0.3671404 0.028305622
0001e0 c7 cf a1 3d 6d 92 c7 be e7 be 5e 3b e2 2e f7 3d
       0.079009585 -0.38978902 0.0033988298 0.12069489
0001f0 ec 39 9e be 5f 79 74 3d 30 ee 08 3e b4 71 a7 bd
       -0.30903566 0.05968606 0.13372111 -0.08175984
000200 2d 28 9e bc fb 58 b5 3d 34 86 34 be 2b 6c b5 bd
       -0.019306267 0.08854862 -0.1762932 -0.08858522
000210 64 72 fc 3d 5d f0 30 3e 9a 21 45 be 6a 8e 27 bc
       0.12326506 0.17279191 -0.19251099 -0.010226825
000220 af 95 c6 3c d1 57 90 39 42 5a cf be fb 50 8b be
       0.024241297 0.0002753125 -0.4049855 -0.2721022
000230 65 52 d0 3d 65 d0 2d be 6e 7a 6f 3d a7 1c cb 3d
       0.101719655 -0.16974027 0.058466367 0.099175744
000240 70 c1 3f 3d 0b 6d c2 bd 2d 5b 2c bd c4 94 7c 3d
       0.046815336 -0.094934545 -0.04207914 0.06166531
000250 71 ea f7 3d df 45 95 3d a1 14 56 3e 5e 27 23 bd
       0.12105263 0.072887175 0.20906307 -0.039832465
000260 7b 34 f8 3c 46 b9 34 3e e8 5e 41 be 06 98 31 3e
       0.030298462 0.17648801 -0.1888386 0.17343149
000270 05 df 0e bd a6 0e 4f 3d 8c 3e 9e 3b f2 bc 2e be
       -0.034880657 0.05055108 0.0048292335 -0.17064264
000280 10 3d c8 3d 7d d5 b4 3d cb fb af bb ff 5e 6d bd
       0.09777272 0.08829782 -0.005370592 -0.057951923
000290 1a 92 45 bd 72 49 dc bd 71 c1 04 bd c5 4f ba 3c
       -0.048235036 -0.10756196 -0.032411043 0.022743115
0002a0 ba 4c 32 bd 66 bc 46 be 8b 43 58 be c0 0f 5c 3e
       -0.043530203 -0.19407806 -0.21119516 0.21490383
0002b0 e7 5c 34 bd a7 ee 0f bd f2 60 5e bd 5e a4 2b be
       -0.04403391 -0.035139706 -0.054291673 -0.1676192
0002c0 c2 4f e9 3d 1e d7 ac 3e 85 67 5a be 4b d9 6c bd
       0.11392166 0.3375787 -0.21328552 -0.057824414
0002d0 65 35 97 3e 9c 7d da 3d 10 21 68 be f6 ea 9d 3d
       0.29532924 0.10668489 -0.22668862 0.07710831
0002e0 f3 2f 7e 3d 80 92 72 3e 4e 71 b7 bd a0 cb 86 bd
       0.062057447 0.23688698 -0.08957158 -0.06581807
0002f0 77 28 12 3e 6f f5 53 bb cd ad c7 bd 02 e3 35 3e
       0.14273249 -0.0032342335 -0.09749947 0.17762378
000300 48 f8 f5 3d f8 bb 7e be 51 bc 54 3d f5 bb a7 3d
       0.120102465 -0.24876392 0.051937405 0.08190147
000310 9c 4d a9 3d e0 2c 2e 3d a1 cf 65 3d c6 7a 18 be
       0.08266756 0.042523265 0.056106213 -0.14890584
000320 4f c4 fa 3c e6 ac 14 be a2 25 5e be 63 2d 21 bd
       0.030611185 -0.1451908 -0.21694043 -0.039349925
000330 ec 5e 91 3e f4 0e 66 3c 31 29 8d bd 9e 88 5f be
       0.28392732 0.014041651 -0.06892622 -0.21829459
000340 ff 63 26 3e 2e 7e ec bd 18 e9 a1 bd b4 0b c5 3d
       0.16249083 -0.11547504 -0.07905787 0.09621373
000350 ed b4 89 3d 71 a9 06 3d ae 32 b3 bd 67 71 8b 3d
       0.06723962 0.032876436 -0.08749901 0.06808739
000360 c2 78 6e 3c 83 4c 26 3e a5 c6 d2 3c 7c f3 8c be
       0.014555158 0.16240124 0.025729487 -0.27529514
000370 9d b2 96 3c 12 73 cc bc 6e 03 8e 3d 27 5b 07 3d
       0.018395716 -0.024957214 0.06934248 0.033045914
000380 53 48 fe 3d 9b 52 61 3d 4b f7 9e be 5c 71 8c 3e
       0.124161385 0.05501042 -0.31048045 0.27430236
000390 1c 8f 80 3d b9 4f 1e 3d df bb f4 3d 27 b9 95 3c
       0.06277296 0.03865025 0.11949896 0.018276764
0003a0 b4 ae 4a bd b9 9d 27 3d c9 44 d3 bd 93 3e 13 bb
       -0.049483016 0.0409219 -0.10315854 -0.0022467717
0003b0 80 d6 40 bc ed 0b 9c bc e2 c7 7a 3e 5d b6 73 3d
       -0.011769891 -0.019048655 0.24490312 0.059500087
0003c0 ae 8e c8 3d b1 a4 2b 3e f5 b8 0a 3e a9 91 1e be
       0.09792839 0.16762044 0.13547118 -0.15485252
0003d0 30 33 60 be d1 56 8c 3d c2 fe 04 3e 5c f4 ce bd
       -0.21894526 0.068524964 0.12987807 -0.101052016
0003e0 9c 1e 63 3d 67 18 b6 bd 73 c4 ec bd 1c 1b 66 bc
       0.055449113 -0.08891373 -0.11560907 -0.014044549
0003f0 57 42 b8 3e 9e 7f 41 3b 7d 52 98 3d d3 84 1c be
       0.35988113 0.0029525529 0.074376084 -0.15285043

sequential_18/dense_107/MatMul f4 [256, 512]
000000 68 95 55 3c d9 13 0f 3e 0a 17 98 3d 03 7a 99 bc
       0.0130361095 0.13972415 0.07426269 -0.018734938
000010 5a fd c9 3c bd 3f 21 be 76 ca 88 be 43 06 60 bd
       0.02465694 -0.1574697 -0.26716965 -0.05469347
000020 12 47 a0 be 5d dd 12 bb 94 45 e4 ba 39 80 13 be
       -0.31304222 -0.0022409775 -0.0017415755 -0.14404382
000030 58 11 41 bd bc 38 5c 3e 55 f9 11 bf 36 09 19 be
       -0.04713568 0.21506017 -0.57021075 -0.1494492
000040 d1 fe 53 3c dc 09 05 be ed dd 60 be aa 20 1a 3e
       0.012939171 -0.12992042 -0.21959658 0.15051523
000050 e5 f7 ad be 99 fd e7 3d a9 3f 95 3c 00 a5 6a be
       -0.3397819 0.11327667 0.018218832 -0.22914505
000060 50 5f cc 3d 43 b7 c3 3c 70 39 17 bf be c0 e6 bb
       0.09979117 0.023891097 -0.5907202 -0.0070420196
000070 d2 8a 29 be 5c d6 1a 3e 54 4b e6 bd c2 f7 71 bd
       -0.16556862 0.15120834 -0.112448364 -0.05907417
000080 5c 11 02 3e 9a 79 92 bd 4e a6 bb 3d 99 6c 14 3d
       0.12701935 -0.071521 0.091625795 0.03623638
000090 ad 1e 3b bd e8 ca 26 3e ae 4e 5e 3c 04 d8 6d bd
       -0.04568355 0.1628834 0.013568563 -0.058067337
0000a0 65 10 d1 3d ef 24 9e 38 3f 26 39 be 32 08 b5 3d
       0.10208205 7.5409065e-05 -0.18080996 0.08839454
0000b0 93 e7 4a bd e5 eb ca be 98 db c8 be 61 5e 03 be
       -0.049537253 -0.39633098 -0.39230037 -0.12828971
0000c0 0a c2 18 3d 93 0a 15 3e 06 c3 67 3d 4b 1a df bd
       0.037294425 0.14554815 0.056582473 -0.10893687
0000d0 a4 ac c8 bd 96 cd 6c 3d df a7 74 be 6b a4 61 be
       -0.097985536 0.05781325 -0.23892163 -0.22035377
0000e0 54 e6 9c 3c 63 b8 84 bd cd 82 4f bd 37 13 34 be
       0.019152798 -0.064804815 -0.05066185 -0.17585455
0000f0 09 bf 94 3d 71 32 25 3e 91 2a 5a 3b 96 a3 06 3e
       0.072629996 0.16132523 0.0033289532 0.1314834
000100 28 e4 60 be 71 6c 8b 3d 94 ac e0 3d 71 36 62 be
       -0.21962035 0.06807793 0.10970417 -0.2209108
000110 db 0a 08 bf c0 79 81 bd 48 94 0f 3e 52 85 90 be
       -0.53141564 -0.0632205 0.14021409 -0.28226715
000120 bd 19 1c be 03 6e 4e 3e c5 7f 88 3d de de 17 ba
       -0.15244193 0.20159154 0.06664995 -0.00057934027
000130 0e 9f f5 3d 8f a2 d3 3b 04 93 05 3e 9b 26 0a 3e
       0.11993228 0.0064585875 0.13044363 0.1349129
000140 9d 10 1f bd 83 ba ab bd de a1 97 3b 28 5b 4e bd
       -0.038834203 -0.08385184 0.0046274504 -0.050379902
000150 f1 e2 88 3c 10 b6 08 bd 84 7d 1e bd af 6a 99 bd
       0.016709777 -0.033376753 -0.03869392 -0.074910514
000160 fb 79 a2 bd 71 db 65 3e d4 10 d5 bd 2e d9 b9 bd
       -0.07933422 0.22446992 -0.104036 -0.09074627
000170 21 b3 d5 bc 16 62 5b 3d a4 e8 78 3d f0 d6 3a 3d
       -0.026086392 0.05356034 0.06076874 0.045615137
000180 b2 51 91 be 05 a2 f9 bd 49 3c 58 be dc 79 4c bd
       -0.2838264 -0.12189106 -0.21116747 -0.0499209
000190 21 16 88 be 55 a7 e2 3d 8b c5 2c be 8e 67 3c bd
       -0.26579383 0.11067072 -0.16872232 -0.045997195
0001a0 8f d0 8b be 2e c7 64 be c2 e7 6d bd e5 3f 74 3c
       -0.27307555 -0.22341606 -0.05808235 0.014907812
0001b0 67 ab ba ba 84 60 f3 bd f6 ff 55 3d dd b4 8b bd
       -0.0014241756 -0.11883643 0.052246056 -0.06821606
0001c0 9c 61 e0 3d 5d 39 1f 3e de d4 1d bd ee 36 ae 3c
       0.109561175 0.15549226 -0.038533084 0.021266427
0001d0 dc 80 99 be d6 91 ac 3d af 58 f2 3c 78 48 75 be
       -0.29981124 0.084262535 0.029583303 -0.23953426
0001e0 ce 93 26 3e 48 42 f7 bd d8 3f d3 3d ad ed 6f bd
       0.1626732 -0.12073189 0.103149116 -0.058576275
0001f0 d8 52 60 3d 4a 4d 9f be 3c 5a 00 bf 27 7e 12 3e
       0.054766506 -0.31113654 -0.50137687 0.14305936
000200 dd f1 f3 3c d5 fc ae be 78 59 cd 3d eb a8 d1 bd
       0.029778415 -0.3417727 0.100268304 -0.10237297
000210 67 b8 27 3d 5a 08 7f 3e 11 53 9e 3d dc a8 06 be
       0.040947344 0.2490553 0.077306874 -0.13150352
000220 00 12 ed bc a5 0f 37 be 69 2f 2a 3e 87 1c 26 3e
       -0.028939247 -0.17877062 0.16619648 0.1622182
000230 38 ba 26 bd ea 3c 16 bd e5 c8 9c be 3f d1 67 3e
       -0.040704936 -0.036679186 -0.3062202 0.22638415
000240 a6 83 00 be 5a 21 8f be f6 60 49 bc dc a3 54 be
       -0.1255022 -0.27955133 -0.012291184 -0.20765632
000250 8b a3 af 3d 01 91 31 be c8 8b 7d be 01 d3 85 be
       0.08576115 -0.17340471 -0.24760354 -0.26137546
000260 2c 8d 08 be ed 5d c0 bd e9 44 62 bd d6 3c c6 3c
       -0.13335103 -0.09392915 -0.0552415 0.02419893
000270 0d 96 86 be 14 50 ec bd 84 02 96 bd c7 3d 03 3e
       -0.26286355 -0.11538711 -0.073246986 0.12816535
000280 2b 82 30 3d db 51 23 3e 74 a6 fe 3d b1 25 a4 3d
       0.043092888 0.15949194 0.12434092 0.080150016
000290 80 49 6a be 84 50 02 3e d4 c1 de be dd e5 49 3d
       -0.228796 0.12726027 -0.43507254 0.04929148
0002a0 69 66 82 3c 6a 35 96 3d be ec f7 3d 20 bc 76 be
       0.015917974 0.07334407 0.12105702 -0.24095201
0002b0 68 9f 55 3e 63 72 1a be 19 1f 8c bd af 33 cf bd
       0.2086159 -0.15082698 -0.06841869 -0.1011728
0002c0 70 2f 27 bd 77 6b 3a be ba 4b 39 3d 0d 17 80 bd
       -0.040816724 -0.18205057 0.045238234 -0.062543966
0002d0 69 69 17 bd 18 d7 4f 3e 94 88 b7 bd 52 c9 5a 3c
       -0.03696576 0.20296896 -0.08961597 0.013353663
0002e0 cf 00 11 3e 2f 7f c2 be 5e 41 9c 3e 0f 20 a8 bc
       0.14160465 -0.37987658 0.3051862 -0.0205231
0002f0 7a 9b c7 3d 33 4f 53 be 64 41 5f be 04 68 20 bd
       0.09746452 -0.20635681 -0.21802288 -0.039161697
000300 24 76 9a 3d 36 a7 40 be 1f 57 cd 3d cc 43 2e bc
       0.07542065 -0.18813786 0.10026383 -0.010636281
000310 aa 10 30 bd b6 2a 59 3d 38 17 64 be 6b 5a ec 3d
       -0.042984642 0.053019248 -0.22274482 0.11540683
000320 2e 8a f8 bd c3 9c 92 be 38 f4 60 be 9a cb 63 3d
       -0.12135731 -0.28635225 -0.21968162 0.05561409
000330 06 59 67 3e f0 12 1d be 77 22 f3 be 90 63 4a bd
       0.22592553 -0.15339255 -0.47487232 -0.049411356
000340 d9 87 c3 bd ab 1d a3 bd 80 3a a9 3d 03 73 ba 3c
       -0.09547395 -0.07964643 0.08263111 0.02275992
000350 9e b4 03 3d c4 39 24 be f4 ea b8 3c 41 41 35 3e
       0.03215467 -0.16037661 0.022572972 0.17700674
000360 20 ef 29 bb 8d 04 3b be 5b 20 67 be c2 48 04 be
       -0.0025929883 -0.18263455 -0.22570936 -0.1291838
000370 0d ad 52 3e e2 0f 33 be 51 50 5a be e2 6b e1 bc
       0.20573826 -0.17486528 -0.21319701 -0.027517263
000380 96 63 d1 bd dd 0c a0 3d 87 7a 7e bd 54 9e 44 3e
       -0.10224073 0.078149535 -0.06212857 0.19201022
000390 ca 57 ae be 11 ae 70 be df 5c 47 3c 36 cc d0 bd
       -0.34051353 -0.23503901 0.012168138 -0.101952
0003a0 b2 c9 ce be 01 52 23 3e a8 13 e5 3c 0c 97 50 be
       -0.40388256 0.15949251 0.027963474 -0.2037012
0003b0 71 19 55 bd 91 a9 8a bd 14 14 5d 3e 86 cb 1f be
       -0.052026216 -0.067706235 0.2158969 -0.15604982
0003c0 4d 06 44 be 06 14 44 be f3 77 1e bd 47 09 89 bd
       -0.19143029 -0.19148263 -0.03868861 -0.06691223
0003d0 2f 58 82 bd 9c cd a5 bb 72 f2 3b be f0 9f 9c 3c
       -0.06364476 -0.005059911 -0.18354204 0.019119233
0003e0 3a a2 2e bd 0d e7 b0 3d 85 a5 62 3c 0a 77 3f 3d
       -0.04263518 0.086378194 0.013833408 0.046744384
0003f0 3c 07 a4 3d 92 b3 43 bd d9 fd 6f be c2 4a ed be
       0.08009192 -0.047778673 -0.23436679 -0.46346098

sequential_18/dense_108/MatMul f4 [128, 256]
000000 ea c1 88 bd 6f 18 b3 3d b5 cd e0 3d d1 5a b2 bc
       -0.06677611 0.08744895 0.109767355 -0.02177182
000010 63 b0 63 3e 42 d3 ed bd e4 07 c7 be 90 95 65 3e
       0.22235255 -0.1161256 -0.38873208 0.22420335
000020 36 ed 84 bd a9 59 d9 bd e9 75 30 be 1c 16 99 3e
       -0.06490557 -0.106128044 -0.17232479 0.2989968
000030 20 01 5e bc 61 9f 0d 3e 28 c6 57 3d ed 69 4b bd
       -0.013550073 0.1383033 0.05267921 -0.049661566
000040 ea fa ae bd ce 97 d4 bc df ce 71 be 75 d0 92 3c
       -0.08543952 -0.025951292 -0.23614071 0.017921666
000050 1a bc 5c be 13 62 20 3e 99 be 62 bd b0 d0 a5 bc
       -0.2155613 0.15662412 -0.05535755 -0.020241112
000060 12 d9 93 bc ae 2a 4c 3d 89 f2 3d 3e 70 8c 8c bd
       -0.018047843 0.04984539 0.18549551 -0.06862724
000070 3d 37 b0 3b b8 c8 7b bd 80 b6 96 be 4c 6a a7 3c
       0.0053776787 -0.061470717 -0.2943611 0.020436428
000080 38 49 2a be 58 73 c3 bd 10 98 5c 3e 58 4b 44 3b
       -0.16629493 -0.095434844 0.21542382 0.0029952135
000090 da 50 09 3e a0 b3 8e 3b 1f f5 00 3e bb 55 74 be
       0.13409749 0.004354909 0.12593506 -0.23860829
0000a0 75 0b a1 3b 43 02 fe 3d 1b aa 29 be b9 b8 9d bd
       0.004914696 0.12402775 -0.16568796 -0.07701249
0000b0 b8 7d 81 3d 95 4d 0c bd 82 63 64 be f7 5d 05 bd
       0.06322807 -0.034253675 -0.22303584 -0.032560315
0000c0 e4 f3 d7 3d b2 5b ac bc 6d c0 a5 be bd 7c 70 3d
       0.10544565 -0.021039817 -0.32373372 0.05871271
0000d0 57 b7 b6 bc b5 fb 88 be 66 fd d4 3e a6 4e 7a 3d
       -0.02230422 -0.26754537 0.41599578 0.06111016
0000e0 6a a4 b0 be 12 b4 95 be d4 72 59 bd 96 4a 91 bd
       -0.34500438 -0.29238945 -0.053088024 -0.07094304
0000f0 13 db ec bd f7 6a 7e 3d 98 53 5a 3e ee b4 93 3d
       -0.115652226 0.06211373 0.21320951 0.07212244
000100 cc f1 12 be 2d 7d f9 3d 0f 3d 3f 3e 1c 70 18 3e
       -0.1435005 0.121820785 0.18675636 0.14886516
000110 58 83 78 3e 5d 76 87 3e c6 f8 e2 3d d2 48 1f 3e
       0.24268854 0.26457492 0.11082606 0.15555122
000120 01 ea e4 bd 81 e5 bf be 09 7b 5d be ad a3 df 3d
       -0.11177445 -0.37479785 -0.21628965 0.109198906
000130 60 ab f1 3d 84 f3 69 3d c1 7b 17 bd e4 8a d5 bd
       0.11800265 0.057117 -0.036983255 -0.10426882
000140 9f ba cd bd 45 8d 9d 3c 97 b3 95 bb 5b 24 bc 3d
       -0.10045361 0.019232402 -0.004568528 0.09186622
000150 5c 51 d8 be b5 a0 b3 3e 52 f3 38 be 8b 8c 3a 3d
       -0.42249572 0.35083547 -0.1806157 0.04554419
000160 e5 3b 28 be b5 d0 ca 3b 48 96 ba bd be a4 4c 3d
       -0.16429098 0.0061894306 -0.09110695 0.049961798
000170 2a 5a 48 3d 9a 30 ef bc 65 fb 0e be 3a fd a5 3d
       0.048914112 -0.02919798 -0.13963087 0.0810494
000180 1b 83 85 be 81 e2 25 3e d7 69 0c 3e 55 f9 26 3e
       -0.26076588 0.16199686 0.1371225 0.1630605
000190 67 ea 10 3e 31 e1 a9 be 84 4a 17 be 44 39 9a 3d
       0.14151917 -0.3317962 -0.14774519 0.07530454
0001a0 7d aa b9 bc ec ce 41 3e a6 9b 1e 3e 8e e8 87 be
       -0.022664303 0.1892659 0.15489063 -0.26544613
0001b0 62 8b 28 be 00 ce bb bd 13 4c b4 bc 77 dc 16 be
       -0.1645942 -0.09170151 -0.022008931 -0.14732538
0001c0 46 24 02 3e 8f 6a 1c be 40 f7 39 3b 75 cd 39 be
       0.1270915 -0.15275024 0.0028376132 -0.18144782
0001d0 a8 5e 6f bd a7 cd 32 be 65 90 d5 3d da de 28 3e
       -0.05843988 -0.17461263 0.10427932 0.16491261
0001e0 90 7e 63 3e 16 6d 7e bb c0 9f 3f 3e 76 75 45 3e
       0.22216249 -0.0038822345 0.18713284 0.19283089
0001f0 6e 8a 0e bd 46 fa d0 bd c9 fd fd 3d 52 62 7c be
       -0.034799986 -0.10203986 0.12401921 -0.24646881
000200 42 53 0f 3e 1c 2f f4 be be e6 ac 3d 59 1d d8 bc
       0.13996604 -0.47692192 0.08442448 -0.026381182
000210 37 6e 87 bb e0 41 41 3e c6 ec 2c 3d 06 10 1f 3e
       -0.0041330117 0.18872786 0.042217992 0.15533456
000220 8e d7 bb be 6d 70 82 bc 58 6f 9f 3c f9 d4 40 3e
       -0.36687893 -0.01592275 0.019462273 0.18831243
000230 90 2c 9a 3c 44 29 51 3e f6 a3 ba bd 49 25 ef bd
       0.018820077 0.20425898 -0.09113304 -0.116770335
000240 31 6f 97 be 4b f1 a6 3d ee 1b 94 bc 38 d7 c1 3d
       -0.2957702 0.08151492 -0.018079724 0.09464878
000250 00 97 d4 3c c0 39 0f 3e f3 7f 11 3d fd a7 4b be
       0.025950909 0.13986874 0.035522413 -0.19888301
000260 c2 0a 83 3d fa 44 30 be db 87 00 3d d9 14 27 be
       0.06398536 -0.17213812 0.031379562 -0.16316546
000270 37 29 00 be 2d 35 3b 3e 1e 50 2b be d1 fe cc bd
       -0.12515722 0.18282004 -0.16729781 -0.1000954
000280 84 c1 5c 3d b9 72 73 be f0 5c 65 3d f3 44 3a 3e
       0.05389549 -0.23774232 0.055996835 0.18190365
000290 43 6e 30 be db fe 34 3c 43 9e 05 3e 04 6f b6 3c
       -0.17229562 0.01104709 0.13048653 0.022269733
0002a0 bf 85 4d 3c f5 49 dc bd c9 98 5f bb 96 c0 21 be
       0.012544095 -0.10756294 -0.0034118167 -0.15796122
0002b0 25 be 16 be e5 e9 5c bd 3b 1a 8c 3c 53 a4 ef 3d
       -0.14720972 -0.053933997 0.017102351 0.11701264
0002c0 4a 74 61 be d8 c5 b4 3c 39 e8 97 bc 77 fb 57 bd
       -0.22017017 0.022066996 -0.01854335 -0.05273005
0002d0 3f 0f 04 3e 9c 13 14 bd 65 41 9a 3d b7 cb 60 bd
       0.12896441 -0.036151513 0.07532004 -0.054881778
0002e0 7e 9c be bd 7a ef 41 3d 83 e9 d6 3d e3 ca f6 3d
       -0.09307192 0.047347523 0.104937576 0.12050416
0002f0 06 80 46 3d fd a7 91 be b4 db f3 bb 0d 1d 55 be
       0.048461936 -0.28448477 -0.007441962 -0.20811863
000300 6a 55 24 bd e2 a7 88 be d8 be 07 be 8e 2f 18 3d
       -0.04012052 -0.26690584 -0.13256395 0.037154727
000310 dc 8f 23 3e 05 78 07 3d ea 9f 0d bd e9 17 22 3c
       0.15972847 0.033073444 -0.034576334 0.009893396
000320 87 ef b0 3d e0 22 0e 3e d8 b7 6e 3e 7b e0 10 3d
       0.08639436 0.13880491 0.23312318 0.03537033
000330 a7 4f 0f 3e cd 7e 8c bd 61 5f 5d 3d 3c 61 c0 be
       0.13995229 -0.06860123 0.05404604 -0.37574184
000340 b1 7a 9a be 2b 05 be be 4d 8a a5 3d fc 0d ec bd
       -0.3017173 -0.37113318 0.080830194 -0.11526105
000350 6f bd f4 3b 43 a3 30 be 92 85 d7 bb 6c bc de bd
       0.0074688713 -0.1724978 -0.006577202 -0.10875782
000360 3b 00 1c 3e db cf 22 3e 91 98 18 be 5b e5 b5 bd
       0.15234463 0.15899603 -0.1490195 -0.08881637
000370 1a ee 8e bd 67 27 8b 3d b0 40 17 bd 9d c4 40 be
       -0.06979008 0.06794625 -0.036926925 -0.18825002
000380 1f 5f 45 3e ea ab 52 3e 60 eb a6 bd d5 9f ad bd
       0.19274567 0.20573393 -0.08150363 -0.08477751
000390 19 e6 d0 3e dd 4a b0 be 27 27 06 3c 45 b9 ab 3d
       0.4080055 -0.34432116 0.008188046 0.08384947
0003a0 d8 8c 69 be ee 64 2f 3d 36 2b c4 3c f2 0a 81 bd
       -0.22807634 0.042820863 0.023946386 -0.06300916
0003b0 0a 0d c1 bd 70 50 b5 3c e9 94 3c 3d fb 18 ea bd
       -0.09426315 0.022133082 0.04604045 -0.11430546
0003c0 ff 4b 70 be 39 2e 63 3c 08 ea ac bc a2 c1 d5 3d
       -0.2346649 0.013866001 -0.021107689 0.10437323
0003d0 a3 4f 31 3d 5b 2f 2c be 7d 93 8f 3b b9 2d b4 bd
       0.043288838 -0.1681494 0.0043815956 -0.087977834
0003e0 c2 f3 2a bd eb 81 91 bd 12 86 97 bc 0b c9 40 bb
       -0.04173637 -0.07104858 -0.018496547 -0.0029416706
0003f0 ae 51 d2 bc d8 b5 b9 3d 0f 55 f8 3d 53 fa 85 bd
       -0.025673714 0.09067887 0.12125599 -0.06541886

sequential_18/dense_109/MatMul f4 [64, 128]
000000 75 4b 1d bd a7 3e 4e be aa d7 19 3e b5 bf b8 bd
       -0.03840204 -0.20141087 0.15023676 -0.0902094
000010 8f d7 15 3d 24 81 89 3c a5 30 36 be eb 47 3e bc
       0.036582526 0.016785212 -0.17791994 -0.011613826
000020 3e 32 a3 be e2 f6 82 be 85 1f a6 bd 5e b6 1a bd
       -0.3187427 -0.25578982 -0.081114806 -0.037771575
000030 bd b8 2e bd 40 9e 98 bd de 61 2d be 48 47 02 be
       -0.04265665 -0.07452059 -0.16931865 -0.12722504
000040 dd 26 bb 3c 72 79 97 be aa d5 f9 bd 84 7e d9 3d
       0.02284568 -0.29584843 -0.12198956 0.10619834
000050 c0 5e 12 3e ce e5 d8 3d c4 60 a3 3d f1 30 ba bd
       0.14293957 0.10590707 0.07977441 -0.09091366
000060 8f 94 0f be 63 ed e8 3d 53 eb 5d 3e 1f dd 48 be
       -0.14021514 0.11373403 0.216718 -0.19615601
000070 fe f8 df be d1 49 1a 3d b6 0b b3 3e 65 77 34 3d
       -0.43744653 0.037668053 0.34969872 0.044059176
000080 ac 0a ca 3d a7 49 6b bd 8d ba ac 3d d0 45 90 bd
       0.09865317 -0.057443287 0.08434019 -0.07044566
000090 e4 2a a7 3d 2d 9c 65 be b4 53 5c 3d 10 bc 7d be
       0.081624776 -0.22422858 0.053790763 -0.24778771
0000a0 25 75 4b be ec 5a a0 3b 41 7b 8c be c9 63 54 bc
       -0.19868906 0.004893651 -0.27437785 -0.012963244
0000b0 15 a7 a3 3d 88 b3 15 3e fc 13 50 3d e2 8b 6f bd
       0.07990853 0.14619267 0.05080031 -0.058483012
0000c0 a5 38 0a 3e 2e 47 6a be 7f cc ba 3c 0d 17 24 3e
       0.1349817 -0.22878715 0.02280259 0.16024418
0000d0 33 96 ae bd 73 ca 50 bd f7 98 56 bd de 50 57 3d
       -0.08524742 -0.05097432 -0.052391972 0.052567355
0000e0 fa 60 15 bd d9 24 a8 3d a0 88 54 be 2b 0a 24 bd
       -0.036469437 0.08210153 -0.20755243 -0.04004876
0000f0 9a a4 cb 3d b5 88 44 bc 6c 1b 16 bd 5c d2 50 bd
       0.09943505 -0.011995484 -0.036647245 -0.050981864
000100 f2 9d 23 3d 01 63 b5 3d a8 56 8f bc d7 46 4c 3d
       0.03994555 0.08856774 -0.017497376 0.049872246
000110 e3 5c ba be f6 a7 0d 3d 32 7b cb bd 2d b2 9b be
       -0.36398992 0.03458401 -0.09935607 -0.30409375
000120 58 80 4c be 9c f4 0f bd 0b 34 bf 3d f0 89 dd be
       -0.19970834 -0.035145387 0.09336098 -0.432693
000130 91 03 64 bd 45 2f f9 3d cc d8 9c bd 9c 6e 31 be
       -0.055667464 0.12167219 -0.07658538 -0.1732735
000140 70 15 19 3e 50 7e c8 3d 54 69 3a be d8 1d 03 3e
       0.14949584 0.09789717 -0.18204242 0.12804353
000150 d3 cb 33 ba d9 98 18 be e2 24 84 3c 50 f8 80 3d
       -0.000685868 -0.14902057 0.016130868 0.06297362
000160 31 cb 15 be 94 c8 f6 bd f4 88 27 3c 1e 36 e7 bd
       -0.14628293 -0.12049976 0.010225523 -0.11289619
000170 bd c8 c6 3b 78 e7 a6 3a 84 f0 06 be b5 f1 68 3d
       0.0060664103 0.0012733778 -0.13177687 0.056871135
000180 5d d6 9e be 2c 36 93 3e ad 97 22 3c 0b 32 73 3d
       -0.3102292 0.28752267 0.009923858 0.059373897
000190 8c 01 79 3d 4a be dd be 32 7d 82 be f6 5c fd bc
       0.06079249 -0.43309242 -0.2548614 -0.030928116
0001a0 ab da 10 bf e2 f5 20 be bd cf a8 3e 3e 9f 45 bd
       -0.5658366 -0.15718797 0.32970992 -0.04824757
0001b0 61 d0 9e 3d c8 a3 0f 3d c2 ed a5 3e 71 21 15 3e
       0.07754589 0.035068303 0.32407957 0.14563538
0001c0 22 31 ab 3c f8 af 19 3e d8 ab 65 3d 0a 85 c0 be
       0.020897452 0.15008533 0.056072086 -0.376015
0001d0 4b ec a3 3d 96 f7 ea bd 04 0a 8e be f0 e2 89 be
       0.08004054 -0.114730045 -0.27742016 -0.26930952
0001e0 40 55 3b 3e c0 ec c4 bc 8a 70 80 3c fe cb 3b 3e
       0.18294239 -0.024038672 0.015678663 0.18339536
0001f0 10 11 88 be 9f 1c c9 bd 96 4a 73 bd 0f db 94 3e
       -0.26575518 -0.09819912 -0.059397303 0.29073378
000200 1f c1 2b be cd e4 6f bd 81 b1 78 bd 6c 83 7f bd
       -0.16772889 -0.05856781 -0.060716156 -0.062381193
000210 f5 6e 2d bd 0a 3a 45 3c 05 99 89 be 5e 32 c5 3d
       -0.042342145 0.012037763 -0.26874557 0.096287474
000220 11 4a 7e bc 0f 3c af 3d 7c 95 79 be da 93 d6 3c
       -0.0155205885 0.08556377 -0.2437343 0.026193548
000230 19 d9 f9 3d 36 f3 bf bc 94 21 f1 bd 43 2d 84 bc
       0.12199611 -0.023431402 -0.11773983 -0.016134864
000240 cf 77 2f bd 61 c5 da 3d 0d e2 56 3d 32 e7 b0 3c
       -0.042838868 0.10682178 0.052461673 0.021594618
000250 3b 2e 11 be 64 17 7f bd 7b 1a 35 3e c5 e3 99 3d
       -0.14177792 -0.062278166 0.17685883 0.07514147
000260 06 67 ad 3d 8c 1e df 3d 76 a5 13 be bd 08 9e 3b
       0.08466916 0.10894498 -0.14418587 0.004822819
000270 92 fd ae 3d 7b ca c0 bd a2 be 10 3d 54 b0 2c be
       0.085444584 -0.0941362 0.03533805 -0.16864139
000280 d9 e7 3a bd a5 b6 45 be 01 90 bf bd d1 d4 5b bd
       -0.045631263 -0.19307955 -0.093536384 -0.053669754
000290 9d 79 28 be 76 f1 64 3d fc 66 b2 bc bc 4e 0d 3d
       -0.16452642 0.055894338 -0.021777622 0.034498915
0002a0 6f 75 b0 3e e5 aa 2b be 4d 99 38 bd a0 a3 9b 3d
       0.34464595 -0.1676441 -0.045068074 0.07599568
0002b0 ae 58 e0 bd 95 8e 3d be 19 fb 3a be ad 21 29 3e
       -0.10954414 -0.18511422 -0.18259849 0.16516753
0002c0 54 f6 6a bd 45 50 10 3e df d7 65 be c3 e2 ad bd
       -0.057363823 0.1409312 -0.2244563 -0.08490517
0002d0 be 09 15 3e 68 7e e0 3d d3 6e 70 be 97 cb 6c bd
       0.14554498 0.1096161 -0.23479776 -0.057811346
0002e0 d3 1e b3 3c 32 ec 55 3e e2 3f 67 be 49 eb 5f 3e
       0.021865284 0.20890883 -0.22582963 0.21867098
0002f0 bd f5 43 3e d6 fa 87 3e c3 af 26 be 71 1b 14 bd
       0.1913671 0.2655856 -0.16277985 -0.036158983
000300 a1 43 4f 3d 54 8c fd 3c 0a 24 21 3c e7 5b 04 bc
       0.050601605 0.030950703 0.009835253 -0.008078552
000310 25 21 ad 3e 40 b3 5c be 1c 9f be be 12 46 fc 3d
       0.3381435 -0.21552753 -0.37230766 0.12318052
000320 cb 12 3e be 7b e6 b8 3d ce 31 6b be cc 24 89 3d
       -0.18561856 0.09028336 -0.22968218 0.066964716
000330 ca 45 aa 3d 16 ca f3 3c f4 83 b5 bc 81 86 6d 3e
       0.083140925 0.029759448 -0.022157647 0.2319584
000340 d8 41 f1 bc dd 5c ef bd 96 b6 63 be b2 37 5b be
       -0.029450342 -0.11687634 -0.2223762 -0.21407965
000350 07 1d a7 3d 15 d3 16 3d e4 45 4a be 45 f7 3e 3d
       0.081598334 0.036822397 -0.19753224 0.046622533
000360 2b f9 9a bd ec 5c 6c be 74 ff 84 3d f7 98 ad bd
       -0.07567056 -0.23082322 0.06494036 -0.08476441
000370 d0 d4 78 be 46 1c 4b ba e0 ef 92 3d c3 ba 95 3d
       -0.24299932 -0.00077480485 0.07174659 0.073110126
000380 50 1f a0 be 0a 72 6b be 32 ae a4 3b 3f 7b 83 3d
       -0.3127389 -0.22992721 0.0050256485 0.06419992
000390 ae e8 a6 ba 04 10 92 3e 39 8e 35 3e 59 ee 80 bd
       -0.0012734139 0.28527844 0.17730035 -0.06295461
0003a0 5f ae 7b bd 29 34 08 3e 4b a7 68 3d 19 84 10 3c
       -0.06144559 0.13301148 0.056800168 0.008820557
0003b0 c1 80 95 be 6c 16 99 bd cf 25 96 bd 0b d8 cf 3e
       -0.29199794 -0.0747498 -0.0733143 0.40594515
0003c0 0b a4 75 be 58 0a 95 bc f8 d4 bb bd 4b 2f 7c be
       -0.23988359 -0.018193409 -0.0917148 -0.24627416
0003d0 20 bf ed bd f0 37 17 3e df 5a ce bd 87 92 80 ba
       -0.1160872 0.14767432 -0.10075926 -0.0009809294
0003e0 bf 07 cd be 17 4a 5c be 04 03 87 be 03 a0 22 be
       -0.40044972 -0.21512638 -0.26369488 -0.15881352
0003f0 89 8e 5a be 82 ee af be 26 11 b2 3c 8f e7 3e be
       -0.21343435 -0.34361655 0.021736693 -0.1864302
